model_save/biGRU.pth (torch, 39867 bytes, 13 tensors)

batchNorm.weight f4 [3]
000000 9d 93 6b 3f 81 eb 58 3f b4 37 80 3f
       0.92022115 0.8473435 1.0016999

batchNorm.bias f4 [3]
000000 85 c2 c4 bb 17 47 cb b9 8f 40 74 3b
       -0.006004634 -0.00038772143 0.0037269925

batchNorm.running_mean f4 [3]
000000 1c 3b 67 40 54 70 64 bf 89 ee 17 3f
       3.6129827 -0.892339 0.5934835

batchNorm.running_var f4 [3]
000000 f2 cd a5 3d ee 5e 54 40 20 cb 78 3d
       0.080959216 3.318294 0.06074059

gru.weight_ih_l0 f4 [96, 3]
000000 07 7f 9f bd 5d 15 9a bd 70 c5 f5 bc a0 23 21 bc
       -0.077879004 -0.07523606 -0.030001372 -0.009835154
000010 62 95 10 3e c3 91 99 bd 47 8b 67 3d 5a 1f 05 3e
       0.14119485 -0.07498505 0.05652931 0.13000241
000020 b7 d0 67 bd f7 81 7c bd 95 5d ff 3c a6 a4 1a 3d
       -0.05659553 -0.06164738 0.031172553 0.037754677
000030 3c 65 94 3a 57 18 26 3e 72 76 87 3b 8b 7b c0 bd
       0.0011321674 0.16220222 0.004133993 -0.09398564
000040 90 56 df 3c 2c 6c 78 3c c2 1d 34 3d 57 32 c9 3d
       0.027262956 0.015162509 0.04397369 0.09824055
000050 b4 e1 8c 3b e1 23 e0 3c 05 d8 22 be a2 94 0c 3e
       0.004299367 0.027360858 -0.15902717 0.13728574
000060 1a 62 e6 bd c6 e0 17 bd 76 93 29 3d 16 43 0c bd
       -0.1124918 -0.037079595 0.041400395 -0.034243666
000070 cc 71 01 3e 09 5f 61 3d b1 6c 22 3e 41 68 e5 3c
       0.12641066 0.055022273 0.15861775 0.028003814
000080 70 2a 87 3d d7 a8 28 3d 09 6e d3 bd 4b 4b 81 3a
       0.06599891 0.041176643 -0.10323722 0.0009864358
000090 b8 8b 7f 3d d7 48 2a bd 82 5f a4 bd 17 7b dd bd
       0.062389106 -0.04157337 -0.08026029 -0.10814493
0000a0 42 90 e4 3d 6c f6 f5 bd f6 cf 34 3e b5 32 37 3c
       0.111603275 -0.12009892 0.17657456 0.011181523
0000b0 fe 36 ac 3b de 97 42 3e 86 cb d8 3d 5a 7d a6 3d
       0.005255579 0.19003245 0.10585694 0.08129378
0000c0 23 e9 0f be fa 5c 7d 3c 0a 9d 91 bd fa af 0f be
       -0.14053778 0.015464062 -0.07110031 -0.14031973
0000d0 c0 df be bd d1 4b ce 3d ba b4 ea bb 8b 43 1e 3e
       -0.09320021 0.100730546 -0.0071626576 0.15455453
0000e0 34 12 f2 bd 22 c2 9e 3d 20 6e c0 3d 95 71 d4 bd
       -0.11819878 0.07751872 0.09396005 -0.103732266
0000f0 22 3a 28 3e 45 5a c5 3d 6f 39 7d bc 5b f6 1c bd
       0.16428426 0.09636358 -0.015455588 -0.03832088
000100 07 82 a3 bd 76 b0 26 3e 70 db 55 3d 50 4f cb 3a
       -0.07983785 0.16278252 0.052211225 0.0015511308
000110 1c 89 19 3e 89 2d cc bd 5a 44 80 bd df 47 cc bd
       0.1499371 -0.09969623 -0.06263037 -0.09974646
000120 01 96 21 3e a1 0e 1d be be 55 88 3c ad f9 ff bc
       0.15779878 -0.15337612 0.016642448 -0.031246984
000130 4b 05 f4 bc d9 9b 22 be fe a9 a6 3d 0e bf 04 bc
       -0.02978768 -0.15879764 0.08137892 -0.008102192
000140 de 57 22 be 7f 17 09 bc b8 ac ee bd 7f 7e 8b 3d
       -0.15853831 -0.008367418 -0.11654037 0.068112366
000150 a8 3c 8e 3d 20 e8 c3 bd 01 83 f9 3d dd 3c dc 3c
       0.06945163 -0.09565759 0.1218319 0.02688449
000160 8e 1e 09 be 40 9e 5b 3c c8 59 92 bc 78 47 82 3d
       -0.13390562 0.013404429 -0.017865077 0.06361288
000170 cc ac 29 be bf cb 12 3d 2d 7f ac bd b0 22 a9 3c
       -0.16569823 0.03583884 -0.08422694 0.020646423
000180 91 ef d0 bd 2b 6d e8 3b 7f 1d ce bd da 7e 72 3d
       -0.10201944 0.007093092 -0.1006422 0.059203006
000190 87 5d 1e 3d 91 d2 ee 3d 06 df 16 3e af d2 56 3d
       0.038663413 0.11661256 0.14733514 0.052447017
0001a0 61 4c de bd dc 4c 5c bd c0 bd c8 3d b0 34 9e 3d
       -0.10854412 -0.053784236 0.09801817 0.07724893
0001b0 85 6c 08 3c 20 20 02 be a5 32 bd bd cd 37 cf 3b
       0.008326654 -0.12707567 -0.09238175 0.0063237906
0001c0 f0 60 63 3d a2 34 ca 3d 1c db b4 3d ef 60 c4 3d
       0.05551237 0.0987332 0.08830854 0.09588801
0001d0 ea ab 72 3c 6f 09 c4 3d 4b 35 b7 3d 6a 2b 17 3e
       0.014811495 0.09572112 0.08945712 0.14762655
0001e0 e9 95 64 3d 91 35 57 3d 37 43 f6 3c 88 ad 62 bd
       0.055807028 0.05254132 0.030061347 -0.055341274
0001f0 5a 72 2f be 78 5b 91 3d 1e 10 1d 3e b7 66 b0 3d
       -0.17133465 0.070975244 0.1533818 0.08613341
000200 58 2b 84 bc 8a 2d 05 be 87 14 1b be b0 86 58 3d
       -0.01613395 -0.13005653 -0.1514455 0.052862823
000210 9a 77 7e 3d 28 c4 b9 3d 95 dc e1 3d a5 8a 53 bc
       0.06212578 0.09070617 0.11028401 -0.012911473
000220 92 65 0e be 56 d8 25 3d fa be 1f be dd 27 45 3d
       -0.13905933 0.040489517 -0.15600196 0.04813372
000230 8a d9 34 bd 7d f1 a7 3d 30 4a 1f 3e 10 5b 9a bc
       -0.044152774 0.08200357 0.15555644 -0.01884225
000240 77 b3 95 3d 66 52 a7 bc e2 7e fe 3d d4 23 70 bd
       0.07309621 -0.020425033 0.12426545 -0.05862792
000250 6b 03 1e be 1c 6f 3b bd 98 ec d4 3c d5 86 a0 3d
       -0.15430991 -0.04576026 0.025991723 0.07838217
000260 12 55 01 3e c3 c6 27 bc 5c 11 59 3d 17 59 23 bc
       0.12630108 -0.01024026 0.05299507 -0.009969971
000270 02 3f 0f 3e b0 34 3e 3d 59 44 d2 ba a1 92 d2 bc
       0.1398888 0.046436965 -0.0016042098 -0.025704684
000280 41 bc 54 3d 0e 26 a9 bd 34 86 2e 3e 82 7d e8 3d
       0.051937345 -0.082592115 0.17043382 0.11352064
000290 85 58 35 bd f4 71 9e 3d 26 fa a4 bd ee 75 14 be
       -0.044273872 0.077365786 -0.080555245 -0.14498112
0002a0 8d 19 2a be c5 1f 2a be e6 60 91 bd 78 a1 e9 bb
       -0.1661131 -0.16613682 -0.0709856 -0.0071298443
0002b0 d5 30 86 bd a5 9e 51 3e f9 71 2e 3d 5f b4 c1 3d
       -0.06552283 0.20470674 0.04258916 0.09458231
0002c0 22 1f 27 3d fa e4 49 3d 57 31 f1 bc f9 89 b0 bc
       0.040801175 0.049290635 -0.029442472 -0.021550165
0002d0 87 e2 34 3e 18 55 02 3e d2 92 29 bc 10 af 35 3d
       0.17664538 0.12727773 -0.010349946 0.044356406
0002e0 d9 e3 d3 3d 72 76 ad 3d 47 3d db 3d 81 a9 3b bd
       0.10346193 0.08469857 0.10705047 -0.04581595
0002f0 59 6f 9f 3d 2b aa 32 3c 13 dd ab 3d 4e 61 0c bd
       0.0778491 0.010904829 0.08391776 -0.034272484
000300 6a 92 dc 3d 8c e2 b8 bd be e9 cc 3d b6 5c 42 3d
       0.10770114 -0.090275854 0.1000552 0.047451697
000310 84 5d b6 3d 80 6c 10 ba 89 ff 97 bd c1 9a d6 bb
       0.089045554 -0.0005509332 -0.07421786 -0.00654921
000320 3d d1 c5 3d 24 6a 87 3d 38 5a 1a be 04 f0 0c be
       0.0965905 0.066120416 -0.15073478 -0.13763434
000330 8d 2a 2e 3e 76 ef bf bd e0 ee 2e bd 76 62 e5 bd
       0.1700842 -0.093718454 -0.042708278 -0.112004206
000340 67 68 8b 3d 96 12 19 be 51 b0 dd 3d 95 6a e4 bd
       0.068070225 -0.14948496 0.10824645 -0.111531414
000350 92 df 37 be 3c b9 00 bd 86 56 0f 3d d4 ef 9c bd
       -0.17956379 -0.031426653 0.034994625 -0.07662931
000360 ce ab 8f 3d 80 63 ff bd 13 cc 16 3e 5f 9f 15 be
       0.07015191 -0.1247015 0.14726286 -0.14611576
000370 dd 9c 61 3d d9 ca e4 bc 2e da 78 bd f4 f7 1b 3e
       0.055081237 -0.027928757 -0.060754947 0.15231305
000380 ce d7 12 3e 93 3c 08 3e 0d 61 d0 bd 39 08 08 be
       0.14340135 0.13304357 -0.10174761 -0.13284387
000390 f2 39 1a be cd 85 a3 3d b3 5e b3 bb 68 1b a3 bd
       -0.15061167 0.07984505 -0.0054739355 -0.07964212
0003a0 06 bf c3 bd 6b 68 ac 3d 2d b8 03 bd f1 75 9f 3c
       -0.09557919 0.08418354 -0.032158066 0.019465419
0003b0 36 54 13 be b9 aa 24 3e e8 1e 3f bd 13 ae a2 3d
       -0.14387593 0.1608075 -0.046660334 0.07943358
0003c0 8d 00 0b be af ef 0a 3e a4 a8 0d 3e 71 bf c8 bd
       -0.13574429 0.13567995 0.13833863 -0.098021396
0003d0 c1 b3 68 bd 40 80 e4 bd d8 f3 25 3e b5 02 f4 3d
       -0.05681205 -0.11157274 0.162063 0.11914579
0003e0 5a 9d 84 3d 05 99 96 3d e2 84 f9 bd 5c 7d a8 bd
       0.06475325 0.07353405 -0.121835485 -0.082270354
0003f0 3e 75 f8 bd 31 d7 0e bd 67 d8 4e bd 69 6a ce 3d
       -0.12131737 -0.03487319 -0.050499346 0.1007889

gru.weight_hh_l0 f4 [96, 32]
000000 6a c4 28 bd f8 3c e0 bd bd e8 9f 3d e5 76 04 be
       -0.04120294 -0.10949129 0.07808063 -0.1293598
000010 23 f0 8d 3d 04 46 9f bd 98 54 1d 3e a2 e3 a5 3c
       0.06930568 -0.07777026 0.15364301 0.020250145
000020 4e 10 0d 3c 28 1f dc bc 95 99 43 bd 5e 39 89 3d
       0.008609844 -0.026870325 -0.04775389 0.06700395
000030 60 09 ef 3d e7 86 1d 3e 4a cb 15 bd 07 7c 82 3d
       0.1167171 0.15383492 -0.036570825 0.063713126
000040 87 fd f4 3d 91 7b 2d 3e c0 3b 30 be 94 12 50 bc
       0.11962419 0.16941668 -0.17210293 -0.012699742
000050 22 55 d9 bd 38 83 07 3e 21 c4 36 3e 2b c0 cd bd
       -0.10611941 0.1323365 0.17848255 -0.10046419
000060 e1 80 db 3c 0a 3b c2 3d 20 42 c9 3d 9c fb 08 3e
       0.026794853 0.09483917 0.098270655 0.13377231
000070 84 41 6b bd 75 d9 5d 3d 9e 14 3d 3b 0a b0 27 3d
       -0.057435527 0.05416246 0.00288514 0.04093937
000080 15 a1 9f bd 57 5e 14 bd 05 04 e7 3d 99 4e 06 3e
       -0.07794396 -0.036222782 0.112800635 0.1311592
000090 47 de 11 be 2d ab d8 3d b9 9a 3d ba 86 6b 9d 3d
       -0.14244948 0.10579524 -0.00072328333 0.07686524
0000a0 b4 07 b6 3d 0f a3 0a 3d ef 12 b4 3d d6 6d 9e 3d
       0.08888188 0.03384691 0.08792674 0.07735793
0000b0 bf 3f 24 bd 38 08 c8 3c 9a 4c 20 be 76 09 52 3d
       -0.040099856 0.024417982 -0.15654221 0.051278554
0000c0 10 fa 6d 3d 03 41 b0 3d bb d6 9e 3d 36 a0 12 3e
       0.058099806 0.0860615 0.077558 0.14318928
0000d0 ca 8c d3 3d 57 52 00 be c8 e7 f8 bc d0 15 f3 3d
       0.10329588 -0.1253141 -0.03038396 0.11869395
0000e0 04 d3 ff 3d ab c3 bd bd 58 22 97 bd 2f d0 f7 bd
       0.1249142 -0.09265836 -0.073795974 -0.12100255
0000f0 a5 ac a3 bd ca 01 06 be 6c f4 32 3d 35 46 dd 3c
       -0.07991914 -0.1308662 0.04369013 0.027011016
000100 46 99 77 bd 6f 14 6f bd 3d d3 02 be 4f 9d 1d be
       -0.060448907 -0.058369096 -0.12775894 -0.1539204
000110 a4 dc 6d bd 25 46 73 bd f3 0a 52 3d 52 2f 96 3d
       -0.058071747 -0.059393067 0.051279973 0.073332444
000120 59 a4 09 be dd 84 68 bc 6e e1 12 3e 4f 57 25 be
       -0.134416 -0.014191833 0.14343807 -0.16146587
000130 83 cb c9 3d a0 d1 cd 3d 2e a0 f0 bc d0 54 c9 bd
       0.0985327 0.100497484 -0.029373255 -0.0983063
000140 52 70 04 be 78 95 f7 3d 06 cd 03 be 51 d7 3e bd
       -0.12933472 0.12089056 -0.12871179 -0.04659206
000150 72 9c dc 3d a0 21 ac 3c e5 4e fd 3d 1e e7 15 3e
       0.10772027 0.021012127 0.123685636 0.14638945
000160 ef 1b 05 3d 3a 7f c9 bc 3e 59 87 3c 53 7c fa bc
       0.032497343 -0.0245968 0.016522046 -0.03057686
000170 1d 9e b9 bd e8 e5 3d 3c 18 29 ff 3d e0 c9 02 3d
       -0.09063361 0.011590458 0.1245901 0.031930804
000180 1a 21 54 3e 5d 34 9d bd cf cb 69 3d 40 1d 53 3d
       0.20715752 -0.07676003 0.057079133 0.051541567
000190 6d 33 89 3d aa 94 61 bd c1 0b 9c bc 50 e7 32 be
       0.06699262 -0.055073418 -0.019048573 -0.17471051
0001a0 76 e9 83 bd c2 89 ba bd aa 62 20 bd 4a 85 ee bd
       -0.064410135 -0.091083065 -0.039156593 -0.116465166
0001b0 64 fb b0 bd 64 3e c4 bd b6 9d 3b 3d 91 fb 94 3d
       -0.08641699 -0.095822126 0.0458047 0.07274545
0001c0 8a 6d ed bc a4 12 a3 3c 17 a7 36 be 26 25 b3 bd
       -0.028982896 0.01990635 -0.17837177 -0.0874732
0001d0 d7 26 98 bd f7 c9 cc bd 16 df b0 bd 85 86 8c bd
       -0.07429283 -0.09999459 -0.086363 -0.06861595
0001e0 b5 3c 32 3e fc cf 5a 3e 5d 88 b1 bb 5a 37 1c 3e
       0.1740597 0.21368402 -0.005417867 0.1525549
0001f0 1d 9d ba bd 13 72 6d 3d 49 fa b5 3c 04 02 16 be
       -0.09111998 0.057970118 0.022214072 -0.14649206
000200 5f 4e 62 bb c6 b8 2a 3e 66 a7 81 bd 87 be c1 3d
       -0.0034531576 0.16672048 -0.06330757 0.09460168
000210 a6 6f 02 3e 3a 05 70 bc 80 fd 22 3b 3d af b3 bd
       0.12737903 -0.014649684 0.0024870336 -0.087736584
000220 5d f1 ad bd b1 4c 75 bc 1e 9b 82 bd a0 0e f3 3d
       -0.08493302 -0.014971898 -0.063772425 0.11868024
000230 76 e5 f0 bd d5 24 a7 3d 9c 71 52 bb b1 cb 9d bd
       -0.11762516 0.08161322 -0.0032111173 -0.07704867
000240 fc 63 0b 3e 57 63 f4 3d a5 33 78 bd e0 65 ca 3d
       0.1361236 0.1193301 -0.060596127 0.09882712
000250 87 63 18 be 9e a6 2e be fe b8 1a be 41 13 e0 3d
       -0.14881717 -0.17055747 -0.15109631 0.109411724
000260 c2 93 24 3e 94 8e ae 3d 76 d7 d3 3d 7f d6 5a 3d
       0.1607199 0.08523288 0.1034383 0.053427216
000270 5d d4 84 bd 67 f5 29 3d c5 5b 77 bc 43 2c bd 3d
       -0.064858176 0.0414938 -0.015097563 0.09236958
000280 59 3e bd bd 94 11 f2 bd 80 28 92 bd ea 3c 20 be
       -0.092404075 -0.11819759 -0.07136631 -0.15648237
000290 d6 77 b7 3c c7 e9 5a bd 25 c5 3c be 1b 0c e1 3b
       0.02239601 -0.053445604 -0.1843458 0.006867898
0002a0 41 61 12 be 34 93 4d 3e cf 98 94 3d e3 4b 07 be
       -0.14294912 0.20075685 0.072557084 -0.13212542
0002b0 fe 78 a3 3d 92 f0 be 3d 52 ce af bd 43 f4 6d 3c
       0.07982062 0.09323229 -0.08584274 0.014523569
0002c0 8e dc bb 3c db 7a c9 bd 0a 5e 05 be 07 cc 89 3d
       0.022932317 -0.09837886 -0.13024154 0.06728368
0002d0 fe 47 2e 3e c6 7f 34 3e 61 24 d6 bd 97 cf 29 be
       0.1701965 0.17626867 -0.104561575 -0.16583095
0002e0 42 d1 75 bd 3c c1 72 3d 4b 0c 81 3d 79 32 a9 3d
       -0.060014017 0.059266314 0.06301173 0.0826158
0002f0 be a4 11 be 88 06 fe bb 2b c4 71 3d de 28 57 3d
       -0.14223 -0.0077522434 0.05902497 0.05252921
000300 9a e9 d0 3c 62 b6 92 bd 46 af fd 3d cc 60 46 be
       0.025502015 -0.07163693 0.123869464 -0.19372863
000310 9a 91 0c be 4b 81 5c 3c 5a f2 c3 3b 1c df 41 3d
       -0.13727418 0.01345856 0.0059798183 0.047331914
000320 5d 97 04 be 4b a6 16 3c 9f 2e 2e 3e 4c a6 39 3d
       -0.12948366 0.009194921 0.17009972 0.04532461
000330 0c 53 1b 3d 7f e8 d0 bc f4 a2 23 be be 2e 0a 3d
       0.037920997 -0.025501488 -0.1598013 0.033735983
000340 77 7c b6 3d ed 60 56 bd 5c 74 23 3e fa 88 39 be
       0.089104585 -0.05233853 0.15962356 -0.18118659
000350 5c 81 25 3e 89 f6 a5 bd ef 48 1e 3e 14 9f 22 3e
       0.16162628 -0.081036635 0.1545751 0.15880996
000360 b7 3c 05 3e 60 7e ba bd 70 9c cb bc f2 92 9c 3c
       0.13011442 -0.09106135 -0.024854869 0.019113038
000370 96 a7 38 bd 5f 67 88 bd 07 cb 1d 3c 3b 53 34 3e
       -0.045081697 -0.066603415 0.009630925 0.17609875
000380 80 0f c9 bd c6 5d 7a 3b da b5 4c 3d 59 d4 8a bd
       -0.098174095 0.0038202866 0.049978115 -0.06778783
000390 9c 7b 27 be 83 bf c4 3c cd a0 b2 3d 8e b7 3d 3d
       -0.16355747 0.024017101 0.087220766 0.04631763
0003a0 95 49 12 3e b9 67 f1 3d d0 33 07 3e b2 8b 1f 3e
       0.14285882 0.11787362 0.13203359 0.15580633
0003b0 b2 15 f4 bd 94 37 2c be 09 74 27 be b5 7f de 3d
       -0.119182006 -0.16818076 -0.16352858 0.10864202
0003c0 bd c1 1e be 99 a6 ff 3c f9 bf f1 bc 55 f8 68 3d
       -0.15503593 0.03120737 -0.029510485 0.056877453
0003d0 28 23 68 3d 27 29 14 3e 55 63 ef bd 4e 86 31 3e
       0.056674153 0.14468823 -0.11688868 0.1733639
0003e0 ed 17 02 be 44 eb 2a 3e 02 22 18 3e 20 2b 64 bc
       -0.1270444 0.16691309 0.14856723 -0.013926297
0003f0 d1 e5 0b 3e b4 fc d6 bd 6d 87 fc 3c 81 23 75 ba
       0.13661887 -0.10497418 0.030826295 -0.0009351299

gru.bias_ih_l0 f4 [96]
000000 0b 05 07 be a6 6d 12 be 19 29 dc bd a5 90 e5 3c
       -0.13185517 -0.1429964 -0.10750026 0.028023073
000010 e4 e2 d1 bd 04 e4 2f 3e 50 66 29 3e 8d 79 31 be
       -0.10248354 0.17176825 0.16542935 -0.17331524
000020 c5 33 af 3d c6 15 69 3d b4 d1 05 bb 65 af 7d bc
       0.08554796 0.05690553 -0.0020419182 -0.015483712
000030 f0 07 d1 bd d8 ec 06 3c 4d 1b 11 be b1 79 86 bd
       -0.10206592 0.008235179 -0.1417057 -0.065661795
000040 07 90 97 bd 1d f3 a9 3d f0 e0 e2 3c 2f ac fe 3c
       -0.07400518 0.08298323 0.02769515 0.031087963
000050 a1 b3 bb bc 53 e7 a2 3d 0e af 94 3d 34 36 c4 3c
       -0.022912802 0.07954278 0.072599515 0.023951627
000060 c5 5d 2b 3e 43 a1 ae 3c b5 f9 ac bc 93 1d 52 3d
       0.16734989 0.02131713 -0.021115163 0.051297735
000070 9c da 96 3d a9 f6 30 be 3c bc 32 be 23 23 26 be
       0.07365915 -0.17281593 -0.17454618 -0.16224341
000080 3e ba 16 be c4 58 ce bd a0 77 01 3e 2f f8 b1 3b
       -0.14719483 -0.100755244 0.1264329 0.005431197
000090 cd 8d 9d 3d e0 e2 e7 3c 58 d5 7a 3c ac d6 16 3e
       0.07693062 0.028306425 0.015309654 0.14730328
0000a0 c3 40 05 3e 7a 58 96 ba 89 e2 d5 bd 41 e9 37 3e
       0.13012986 -0.001147046 -0.10443599 0.17960073
0000b0 c9 9d 16 be c6 87 c1 3c f8 f4 f1 bd 9b c4 cc bd
       -0.14708628 0.023624312 -0.11814302 -0.09998437
0000c0 4e b2 b4 3c 6e c1 3d 3d f0 b6 27 3e 31 a8 2f 3e
       0.022057679 0.046327047 0.16378379 0.17154004
0000d0 cd d8 5d bc 33 4f ce 3d b6 18 8a 3d da 9b aa 3d
       -0.013540459 0.100737 0.067429945 0.083305076
0000e0 4e 7d 32 be 2b bf f3 bd b8 86 0f 3d 65 f8 1a bd
       -0.17430612 -0.11901697 0.035040587 -0.037834544
0000f0 47 9e f0 bd f6 32 ef bc 1e ef f7 3d e1 39 0b bc
       -0.11748939 -0.029199105 0.12106155 -0.008497686
000100 c3 de 45 bd 6c 1f 92 bc cc 46 6c bc bc 9a ed bb
       -0.048308145 -0.017837249 -0.014421176 -0.007251112
000110 2e 22 f0 bd af b3 b1 bc ea d4 2b bd 4f d0 17 be
       -0.11725269 -0.021692125 -0.041951098 -0.14825557
000120 45 f5 27 3e bd 58 c2 bd 0b 49 22 3c c5 bf 71 bd
       0.16402157 -0.09489582 0.00990511 -0.059020776
000130 0a 6f 8a 3d c7 07 0a 3e f9 c1 d8 bc 97 fa 9b bd
       0.0675946 0.1347953 -0.02645968 -0.076161556
000140 e3 54 25 3e 35 db 87 bb 54 9e 67 3d 58 d5 fb bd
       0.16145663 -0.0041460046 0.056547478 -0.122965515
000150 89 ec a3 bd af 28 82 bd ff 8b 7d bd 8a 04 2b 3e
       -0.080041 -0.06355416 -0.06190109 0.1670095
000160 79 a6 25 be d2 90 a5 3d 0c 6d 86 3d 2a 8c 4d bd
       -0.16176786 0.08084263 0.06563768 -0.0501825
000170 6d 94 b7 bd 8b 52 02 3e 8b 32 eb bd 9e 93 06 be
       -0.08963857 0.127268 -0.1148425 -0.13142249

gru.bias_hh_l0 f4 [96]
000000 a0 73 31 3e 8b 0c 11 3e 8e 16 5e 3a 8e 7f 2f be
       0.17329264 0.14164941 0.0008471989 -0.17138502
000010 a8 05 85 3b 62 0e 85 bc d7 cf 26 be f7 e1 2c be
       0.004059512 -0.01624221 -0.16290222 -0.16883074
000020 09 15 bf bc 75 c9 a3 bd 3b b9 04 be b6 4f 3e 3c
       -0.02332546 -0.07997409 -0.12961285 0.011615684
000030 65 90 03 be 80 9c 5d 3d 72 af bb bc c8 62 38 3d
       -0.12848051 0.05410433 -0.022910807 0.04501608
000040 16 0b 92 bd a0 46 2b 3e 9f 80 83 3d 73 d9 f6 bd
       -0.07131021 0.1672616 0.06421017 -0.12053194
000050 c5 9f 15 be 1a da 72 ba d6 11 e4 3d 8b 2e 00 be
       -0.14611728 -0.0009264067 0.111362144 -0.12517755
000060 5c 75 e0 bc 58 4b 66 3d d4 ea ad bc 56 2b c6 3d
       -0.027399711 0.056224197 -0.021230139 0.096762344
000070 f5 f3 16 be 0d 4b 11 be 3e 43 a3 3d 60 5b 27 be
       -0.147415 -0.14188786 0.0797181 -0.1634345
000080 27 3b e5 bd 75 84 e4 bd 00 08 8e bc bb 20 3b be
       -0.11192923 -0.11158077 -0.0173378 -0.18274204
000090 b5 39 18 3e f0 af d8 3c f2 ce fb bd eb cd 45 bd
       0.14865763 0.026451081 -0.12295331 -0.04829208
0000a0 18 b7 18 be f8 b7 13 3e 30 2c 26 bd 9b a9 a2 bd
       -0.14913595 0.14425647 -0.040569484 -0.07942506
0000b0 b1 75 f0 bd 42 3c 26 3e 8e ba 8e bd b0 c7 1d 3e
       -0.11741198 0.16233924 -0.06969176 0.15408206
0000c0 62 b9 16 be 89 7c 2b 3d 49 7a 63 bd 8a c3 25 3e
       -0.14719155 0.041866813 -0.055536542 0.16187873
0000d0 58 d3 ab bd 2c 34 25 bd 2e d1 0d bc 4d 14 24 3d
       -0.0838992 -0.040332958 -0.008655829 0.040058423
0000e0 d6 71 a3 bc f8 0c b4 3d 7a 62 39 bb fd d1 f8 bc
       -0.019951742 0.08791536 -0.0028287456 -0.030373568
0000f0 56 c6 b0 bd 95 1f 27 3e 70 3d 38 3e a7 17 37 bd
       -0.086315796 0.16320641 0.17992187 -0.04470029
000100 6f dc 10 3e af 8c 15 be 9b ce 2e 3e 1b 91 92 bd
       0.14146589 -0.14604448 0.17071001 -0.07156583
000110 86 ac 07 be d1 56 be bc d3 bb 0c 3e 38 5d a3 bd
       -0.13249406 -0.023234757 0.13743524 -0.079767644
000120 87 d2 2c 3e ce 5e cc 3d c0 b4 c6 3b 8c 79 02 bd
       0.16877185 0.0997902 0.0060640275 -0.031854197
000130 bf df d4 3c 39 d3 e8 bd 08 5a 59 3d 3b 62 bf 3c
       0.025985597 -0.113684125 0.053064376 0.02336227
000140 c9 10 12 bd 7f 63 94 bd 2e 41 f0 bc 59 4f 66 bd
       -0.03566054 -0.0724554 -0.029327955 -0.056228016
000150 93 fa 27 3d fd 9a 5a bc b3 9a 27 3e b6 4b f5 3d
       0.04101045 -0.013342616 0.16367607 0.11977331
000160 f7 41 1f be 05 da 26 be 17 65 bf bd e2 1c 10 3e
       -0.15552507 -0.16294105 -0.09345453 0.14073518
000170 93 5d e0 bd 5f cf 26 3e e1 03 94 bd e8 d0 92 bd
       -0.10955348 0.16290043 -0.07227302 -0.07168752

gru.weight_ih_l0_reverse f4 [96, 3]
000000 08 55 31 3c 50 d5 1b 3e e3 62 f7 bd 9f 1d 23 bd
       0.010823496 0.15218091 -0.12079408 -0.03982317
000010 78 da 7c bd df b2 bb 3c e4 58 72 bc 17 26 d9 3d
       -0.061731786 0.02291244 -0.014791701 0.10602968
000020 05 f5 f5 bd 72 27 33 3e 87 a9 28 3e fa 97 04 be
       -0.120096244 0.17495516 0.1647092 -0.129486
000030 c8 24 01 be e2 a4 e9 3d 58 5c d0 bd c8 fd 9e 3c
       -0.12611687 0.11408402 -0.10173863 0.019408122
000040 4f f1 c6 bb 5a cf dc bd a8 32 f7 bd 82 0a 50 bd
       -0.0060712467 -0.10781737 -0.12070209 -0.05079127
000050 08 76 1c 3e 8b e1 3e be 48 b7 8b bc 8c 5e 1f 3e
       0.152794 -0.18640725 -0.017055169 0.1556341
000060 ed 20 0f be 24 75 4d bb 81 03 24 3e 0f b2 98 3d
       -0.13977404 -0.0031350339 0.16016962 0.07455837
000070 fc ed 2b bd 84 0f 06 ba e8 f7 16 be b3 cf 12 3e
       -0.041975006 -0.00051140063 -0.14743006 0.14337043
000080 e2 c1 e9 3d 92 60 09 3d 6d 53 3d bd fa 62 0b be
       0.11413933 0.033539362 -0.04622214 -0.13611975
000090 57 e9 28 be 86 2b 33 be 85 99 19 be 16 b6 ab bc
       -0.16495262 -0.17497072 -0.1499997 -0.020960849
0000a0 ea 5e d9 bd 09 b1 19 bd 7d a5 34 be cf e3 9b bc
       -0.106138065 -0.03752235 -0.17641254 -0.019029526
0000b0 f2 33 3a be af 9e 16 3c df a6 d8 bd 38 53 8e 3b
       -0.18183878 0.009193107 -0.10578703 0.0043434165
0000c0 c3 07 80 3d c0 8e ec bd 17 d5 dd 3d 7b 65 e3 bd
       0.062514804 -0.11550665 0.10831659 -0.1110334
0000d0 e5 f2 55 bd bd 4a 8b 3d ae 21 1f 3e eb 26 d4 3a
       -0.052233595 0.068013646 0.15540192 0.0016185915
0000e0 02 62 59 3d 1d be 74 bd 0f 4f 6b 3d 36 f0 7b bc
       0.053071983 -0.05975162 0.057448443 -0.015377095
0000f0 fb c1 18 be 73 5b 2c 3d 43 ae 08 bc 9a d1 29 be
       -0.14917748 0.0420794 -0.0083423285 -0.16583863
000100 4a 0e 1f 3e 12 67 2c 3d c5 69 e0 bd 99 7c ca bd
       0.15532795 0.042090483 -0.10957674 -0.09887046
000110 03 f1 d8 3c 9d ff 36 3c a0 3e ce bd 6d 7c 0c be
       0.02648211 0.011169341 -0.100705385 -0.1371934
000120 92 98 ac bd ec e9 00 3d ed 2b 44 bd 29 99 c5 3d
       -0.08427538 0.031473085 -0.047893453 0.096483536
000130 a8 6f 2b bd 3c b7 52 bc f2 7c 8f bd 84 9f 90 3d
       -0.04185453 -0.012861069 -0.07006253 0.07061675
000140 53 11 a7 bb 5a 13 c0 bd 0c e1 3c 3e b8 3b 05 bc
       -0.0050985008 -0.09378691 0.18445224 -0.008131914
000150 f3 a4 49 3d 68 1d f6 bc 34 82 1f be 80 96 23 3e
       0.049229573 -0.030043319 -0.15577012 0.1597538
000160 25 2f 3a 3e be 1a 04 bd c7 b3 ac bc 40 9f 23 bd
       0.18182047 -0.032252066 -0.021081818 -0.039946795
000170 cd bc 8f bd c5 0f c8 bc a4 c2 1a 3e 24 c6 b8 3c
       -0.07018433 -0.024421582 0.15113312 0.022555418
000180 00 30 86 3d 69 a5 5d bd fe f5 6a 3c 03 24 30 be
       0.06552124 -0.054112826 0.014340876 -0.17201237
000190 fc 75 bf 3d 57 70 11 be f7 8d 91 bd d4 39 07 be
       0.093486756 -0.1420301 -0.07107156 -0.13205653
0001a0 87 c0 c9 bd 5c da cf 3d 4c 12 89 bd 49 47 63 bb
       -0.09851175 0.101490706 -0.06692943 -0.003467994
0001b0 6d 85 83 3d 2d 30 8a 3c c9 2b 25 3e 13 4f 30 be
       0.06421933 0.016868675 0.16129984 -0.17217664
0001c0 fc cf 63 3d 2d 5d 1d be c9 75 b2 3d b4 24 7d bc
       0.05561827 -0.15367575 0.08713872 -0.015450645
0001d0 39 42 2e bc 68 e6 bf 3d 5d 97 dd 3d cb 23 4d 3e
       -0.010635906 0.093701184 0.10819886 0.20033185
0001e0 62 ba c5 3c 58 34 a0 3d a4 9e cb 3c fd d8 0e be
       0.024136726 0.07822484 0.02485592 -0.13949962
0001f0 e9 33 88 bd 9e aa 15 3e f4 2c e5 3d e4 00 a4 3d
       -0.06650526 0.14615867 0.11190215 0.080079824
000200 44 65 05 3e bd e4 c6 bc 07 a6 4c 3e fd 21 10 be
       0.13026911 -0.024278993 0.1998521 -0.14075466
000210 b6 1b 16 3e a6 d0 bd 3c a2 31 a3 3d 3d c8 2c 3e
       0.14659008 0.02317078 0.07968451 0.1687326
000220 00 79 df 3d 74 5e ba bd 70 2e 16 be b5 e8 94 3d
       0.10911751 -0.09100047 -0.14666152 0.07270948
000230 fd 02 38 bd 98 7f f3 3d 08 8c 48 3d 76 88 eb 3c
       -0.044924725 0.11889571 0.04896167 0.028751593
000240 dd 28 21 3e fb 69 fb 3c e4 04 28 3e f3 37 53 3d
       0.15738244 0.030690184 0.16408116 0.05156703
000250 90 5e bd bc 85 9b 3b be f2 1c 2b 3b 63 7c e3 bd
       -0.02311638 -0.18321045 0.0026109782 -0.11107709
000260 40 5e 27 3e a6 06 02 3e 5f 0b e9 3d 25 c3 28 3d
       0.16344547 0.12697849 0.11379122 0.04120173
000270 8d b6 23 be 57 71 de 3c 49 c6 c5 3d e5 6b 18 3e
       -0.15987606 0.027153654 0.096569605 0.14884908
000280 c7 a5 dd bd aa d3 24 3e 91 5d 35 3d e0 82 26 bd
       -0.10822635 0.16096368 0.044278685 -0.040652156
000290 c8 93 29 3d 79 d5 ae 3d d5 09 fb 3c 69 a7 02 3d
       0.0414007 0.085368104 0.030644337 0.031897936
0002a0 79 f9 da bd c2 a4 15 3e b9 42 32 bd 68 aa 4f 3e
       -0.106921144 0.14613631 -0.043520663 0.20279849
0002b0 1b e1 a2 bd b3 1a 8d 3d 91 12 53 3d 10 b0 17 be
       -0.07953092 0.06889858 0.05153138 -0.14813256
0002c0 59 91 a1 bd 03 c2 a7 bd 5c 9b 0e 3e 22 55 cb bc
       -0.07889051 -0.08191302 0.13926452 -0.024820868
0002d0 ec 6f 5c bd fb 77 ac 3c 45 3b c4 bd 59 7c af bc
       -0.053817675 0.021053305 -0.09581617 -0.021421598
0002e0 e4 5b 1e 3e 13 84 0e be ab 95 87 bd fb a8 7b 3b
       0.15464741 -0.1391757 -0.06620344 0.003840028
0002f0 c1 b3 e2 bd 65 cd db bd 62 59 8f bc 8c 31 b4 bd
       -0.110694416 -0.10732535 -0.017498676 -0.08798513
000300 a9 d1 93 bd 51 d9 c1 bd 9c f3 99 3d 3e f4 a4 3d
       -0.07217724 -0.09465278 0.07517168 0.08054398
000310 cf 2b 18 3e 3e 96 c5 3d a9 19 00 be 24 c7 fd bc
       0.14860462 0.09647797 -0.12509789 -0.030978747
000320 ad d6 71 bd 79 5e a9 3c 8f 05 7f 3c d4 c0 9a bd
       -0.05904262 0.02067493 0.01556529 -0.0755631
000330 9a d3 b3 3d 65 de 95 3c ec 75 96 bc 74 68 12 be
       0.08780594 0.018294523 -0.018366776 -0.14297658
000340 ab 23 0a be 53 f8 7a 3d 7a dd 18 3e 4a 31 5e 3d
       -0.13490169 0.061271977 0.14928237 0.054246224
000350 2e e9 10 3e 7d ab 8d 3c 8d 59 02 be 2f c7 da 3d
       0.14151451 0.017293686 -0.12729473 0.106825225
000360 a8 25 b9 bc d0 20 f1 bd 42 7d 93 bc 82 56 b2 bd
       -0.022600964 -0.117738366 -0.018004064 -0.08707906
000370 73 5d 1e 3e 92 67 21 3e 3f 1d a3 bd 1b 9c 03 be
       0.15465336 0.15762165 -0.079645626 -0.12852518
000380 7a 26 87 3d 51 fa 91 3d 16 99 9b bd e6 43 1a be
       0.06599136 0.07127822 -0.07597558 -0.15064964
000390 80 75 29 3d aa e8 2e bd 41 d9 06 be d3 6d 2e 3e
       0.041371822 -0.042702354 -0.13168813 0.17034082
0003a0 26 a9 e3 bd 07 aa af bd cb 34 b3 3c 00 45 1d be
       -0.11116247 -0.08577352 0.02187576 -0.15358353
0003b0 88 5b de 3c bd a8 28 3d d3 ce 94 3c 2e 0c 0e 3e
       0.027143255 0.041176546 0.018165028 0.13871834
0003c0 cb a3 08 3d 5f e4 5a bc 4a 5f 95 3c c2 9b 0a bd
       0.03335933 -0.013360112 0.018233914 -0.03383995
0003d0 e2 66 f0 3d 8c b7 a9 3d 2b 47 95 bd 19 42 81 bc
       0.11738373 0.08286962 -0.07288965 -0.015778588
0003e0 2b 14 83 bb c9 f4 08 bc 41 26 37 3c 4d ac 01 3e
       -0.004000207 -0.008359143 0.011178554 0.12663384
0003f0 39 43 cf bd 16 ea 05 be 35 7a 9d 3d 30 58 2a be
       -0.101202436 -0.13077578 0.07689325 -0.16635203

gru.weight_hh_l0_reverse f4 [96, 32]
000000 52 3b eb bc 32 0e 1d 3c b6 57 a6 3c 25 48 2a be
       -0.02871481 0.009585904 0.020305496 -0.16629083
000010 9e 30 2a be 7d f8 57 3d 3e 99 a8 bd f0 66 13 3e
       -0.16620108 0.05272721 -0.08232354 0.14394736
000020 61 d8 32 3d 4f 1e 48 3d b3 e2 26 be d1 a3 5c 3d
       0.043663386 0.04885703 -0.16297416 0.053867165
000030 8a 08 eb bc e4 98 f1 bc 56 98 fa bd d9 ce 2b be
       -0.028690595 -0.02949185 -0.12236087 -0.16778125
000040 56 be fc 3d 0f 9b e2 bd 6d d4 07 3d 93 6c dc bd
       0.12340991 -0.11064731 0.03316157 -0.107628964
000050 c3 9d fa bd c9 08 b4 3d 8c 94 f9 3c 3b 96 b6 bd
       -0.12237122 0.08790738 0.03046634 -0.08915373
000060 13 3e a3 3d 71 ac c9 bd d6 5e e1 bd 85 16 fe 3b
       0.07970824 -0.09847344 -0.11004417 0.0077541494
000070 b7 75 55 3c e9 19 12 be b3 6d d2 bd ef 14 b9 bd
       0.013028554 -0.14267696 -0.1027483 -0.09037196
000080 07 66 88 bd 05 13 a9 3d a7 0a 16 be 83 cd 01 3e
       -0.06660085 0.08255581 -0.14652501 0.12676053
000090 83 20 cb 39 70 12 d3 bc 81 87 ce bd 80 1c 22 be
       0.000387434 -0.025765628 -0.10084439 -0.15831184
0000a0 20 32 88 bd 3f 3f 9a 3d b7 b6 13 be 9f 7c 2a 3e
       -0.066501856 0.075315945 -0.14425169 0.16649102
0000b0 16 83 e4 bd b6 20 cf 3d 6b ca 30 be 13 5d 38 be
       -0.11157815 0.10113661 -0.17264716 -0.18004255
0000c0 7f 98 99 bd 98 e8 05 3e 38 20 b3 3d 33 21 e5 bd
       -0.074997894 0.13077009 0.087463796 -0.11187973
0000d0 56 90 2a 3d 19 93 b4 bd 8b 96 31 3e 6d 9f 32 3e
       0.041641556 -0.08817119 0.17342584 0.17443629
0000e0 e6 42 55 bb 25 69 fa 3d b6 2a 92 bd de 5f 96 3d
       -0.0032541095 0.12227086 -0.07137053 0.07342504
0000f0 85 3d dc 3d 07 d7 bc 3d ff 0c 79 3d b1 f6 28 3e
       0.107539214 0.09220701 0.06080341 0.16500355
000100 4a d5 16 3d fd c9 d9 3d 47 d3 c3 3d d0 1c 75 3c
       0.036824502 0.10634229 0.09561782 0.014960483
000110 bd 68 2c bd 95 9f 03 3e af 2d 15 3e d5 79 14 3e
       -0.042092074 0.12853844 0.14568208 0.144996
000120 05 ba 26 3d 36 de b4 3d 4e 8c d1 bd ec 01 d3 bd
       0.040704746 0.08831446 -0.10231839 -0.10303101
000130 45 09 23 3d a1 d8 0e be f1 8a c0 bd 1a b5 c7 3d
       0.039803762 -0.13949825 -0.09401501 0.09751339
000140 b4 6e c0 bd fd cc f3 bd c3 5a 1c be a5 30 d3 3d
       -0.09396115 -0.11904333 -0.15268998 0.103120126
000150 88 a8 e7 3d 13 6f 04 3e 0b ca 35 bc 6e f4 a4 bd
       0.11311442 0.12932996 -0.011095534 -0.08054434
000160 55 30 1b 3e 77 7c ec bd 3f cd 0a 3e 8b 7f 37 3d
       0.15155156 -0.11547177 0.13554858 0.04479937
000170 3e 13 86 bd d7 9b 9c 3d a3 e8 b9 bd 6c 4d 80 3c
       -0.06546639 0.076469116 -0.09077575 0.015661918
000180 df e0 f9 3d a0 c2 d9 bc 06 99 2c 3d 10 c7 f8 3d
       0.12201094 -0.026582062 0.042138122 0.12147343
000190 8f 70 49 bd bc 53 cd 3d 67 5f 0e 3e 67 55 8d 3b
       -0.04917961 0.10025737 0.1390358 0.0043131593
0001a0 8b 7b fe 3d 81 7e 1d 3e 27 42 15 be 63 e0 ac 3d
       0.12425908 0.15380289 -0.14576016 0.08441236
0001b0 9e f9 52 bb 02 76 9b bd 19 78 f3 3d fc 51 56 3c
       -0.003219224 -0.075908676 0.11888141 0.01308107
0001c0 5d 46 60 bc 00 57 99 3d 2c 3d 5e 3d 46 c6 43 3c
       -0.013688651 0.07487297 0.054257557 0.011949128
0001d0 ce df 8f 3d d1 13 1b bc 41 1f 00 be ac 25 a9 3d
       0.07025109 -0.009465174 -0.12511922 0.082591385
0001e0 bc 47 fa bc 39 55 99 bd 72 d8 d7 bd b4 e4 c7 3d
       -0.030551784 -0.07486958 -0.105393305 0.097604185
0001f0 c8 02 8a 3d 4f 2e 13 be 31 a1 da bd d3 c8 01 bd
       0.06738812 -0.14373134 -0.10675276 -0.03168566
000200 96 ee 31 3e 29 8f a9 3d da 0c 3f be 05 5b 04 be
       0.1737617 0.08279259 -0.18657246 -0.12925346
000210 96 44 18 3e 31 92 0f 3e ee cf f8 3d 53 e6 67 bd
       0.14869913 0.14020611 0.121490344 -0.05661614
000220 fd a5 c5 3d b0 a3 73 3c ec 8e 2b be 81 06 d0 3b
       0.096508004 0.014870569 -0.16753739 0.0063484316
000230 dc 1a ca 3d c7 8c 1a 3e c6 0a ff 3d d6 40 63 bc
       0.09868404 0.15092765 0.12453227 -0.013870439
000240 ef ed 30 3d 23 91 01 be 02 d7 15 be 2e 45 bd 3c
       0.04319566 -0.12653022 -0.146328 0.023104277
000250 28 d7 0c be f3 5d e0 bd 43 52 30 be d3 6b 14 be
       -0.1375395 -0.109554194 -0.1721888 -0.14494257
000260 e2 91 0e 3e 47 7b 7f 3d 8d cc bc bd 00 6f d6 3d
       0.13922837 0.062373426 -0.092187025 0.1047039
000270 bb e7 dd bd 3b 7e f1 3d 42 60 88 3c e8 cc 09 3e
       -0.10835215 0.11791655 0.016647462 0.13457072
000280 be d1 a1 3d 33 a4 cc bd 19 b6 1d be c1 23 b0 3d
       0.07901333 -0.09992256 -0.15401496 0.086005695
000290 07 36 f2 bb f5 92 7a bd c8 a3 63 bd 67 9e 7e 3d
       -0.0073916945 -0.061175305 -0.055576116 0.062162783
0002a0 01 fb 0c be 46 8c 89 bb 16 f6 1e 3e 87 45 99 3c
       -0.13767625 -0.00419763 0.15523562 0.018709911
0002b0 94 48 39 3d 35 ea b1 3d e6 08 03 bd eb cc 90 bc
       0.04523523 0.086872496 -0.031990908 -0.017675838
0002c0 d2 5d c5 3c c8 53 e3 bc 24 ea 24 be d5 63 c8 bc
       0.024092589 -0.027749911 -0.16104943 -0.024461666
0002d0 9b 0b ee bd 21 b5 4f bd cd 6c af 3c 13 53 25 be
       -0.11623307 -0.050709847 0.021414185 -0.16144972
0002e0 18 1f d1 bd 91 88 bd 3c 0d df c8 bd bd 2e d0 3d
       -0.10211009 0.023136409 -0.098081686 0.101651646
0002f0 e8 ba 5d 3d b5 a5 c8 bd 4f 3d 58 3d ea 89 43 bc
       0.054133326 -0.09797231 0.052792843 -0.011934737
000300 db bf c3 3d 99 56 0f be 25 94 ce bd 85 a7 ea bd
       0.09558078 -0.13997878 -0.1008685 -0.11457733
000310 a2 8e 1a be 80 a5 1a 3d 8f 3e d8 3c b1 d8 e5 bd
       -0.15093473 0.03775549 0.026397018 -0.11222971
000320 f7 29 82 bc ee d0 2c 3e 74 97 f5 3d b3 80 b2 3d
       -0.015889151 0.16876575 0.11991778 0.08715954
000330 e7 4b c7 bd c2 1c 05 3e 1a 72 c3 bb e2 a6 1f be
       -0.09731274 0.12999251 -0.0059645297 -0.15591004
000340 fd ed da bc e2 ca c9 bd 87 35 48 bc 93 22 ac bd
       -0.02672481 -0.0985315 -0.012219793 -0.08405032
000350 ca f7 58 3d 4a 4c 0e bd 09 e3 52 bd f1 c8 65 bc
       0.052970685 -0.034740724 -0.05148605 -0.014024959
000360 05 02 a1 bc c2 b2 86 bd 49 e6 24 bc eb 84 0d be
       -0.019654283 -0.06577064 -0.01006467 -0.13820235
000370 c9 7d 82 bc 52 89 25 3e 7d 50 95 bd a1 c8 c8 3d
       -0.01592912 0.16165665 -0.072907425 0.09803892
000380 df d0 b6 bc 3a 6f 80 bd e8 c8 13 be d5 6e 19 be
       -0.022316394 -0.06271215 -0.14432108 -0.14983685
000390 21 cf 2c 3e cc 1c 13 be 0c 60 33 3e a8 d5 0c be
       0.16875888 -0.14366454 0.17517108 -0.13753378
0003a0 90 22 cb 3d 3a 63 6c bd 10 70 35 be 62 01 b8 3c
       0.09918702 -0.057711817 -0.1771853 0.022461597
0003b0 b8 ac b0 3d 74 38 17 3c b8 f0 f6 bc b3 ef 01 be
       0.086266935 0.009229768 -0.03014408 -0.12689094
0003c0 9d 99 c3 bd 3a aa 11 be 7b 6b dc 3d 95 9d 8f 3d
       -0.09550784 -0.14225093 0.10762688 0.07012478
0003d0 c2 8b 21 be c9 5e 97 bd 6e 4a c0 bd d8 e0 c9 3d
       -0.1577597 -0.07391126 -0.09389196 0.09857339
0003e0 6a d5 bb bc e0 49 fb bd da b6 3f be 9a 5f c0 3d
       -0.022928912 -0.1226995 -0.18722096 0.093932346
0003f0 7b fb 3d 3e 28 27 0c 3e 61 59 65 3d 3e 9f 8b ba
       0.18552963 0.13686812 0.05599344 -0.0010652316

gru.bias_ih_l0_reverse f4 [96]
000000 a0 84 2c 3e 7f 54 0c bd 61 a6 1b be bb af 64 bd
       0.16847467 -0.03426027 -0.15200187 -0.055831652
000010 42 46 e0 bc f8 f3 b8 3d f3 64 08 3d dc 80 49 3d
       -0.027377252 0.09030908 0.033299398 0.049195156
000020 65 27 32 3d 64 65 e8 3d c1 2e 13 3e d3 2e 1e 3e
       0.0434946 0.11347464 0.14373304 0.1544755
000030 0e 68 b0 3b 2d 0c fb bd d5 ea 9d bd 6d 99 ac 3d
       0.005383498 -0.12258182 -0.07710806 0.08427701
000040 0c aa 06 bd 70 a0 73 bd 3a 68 36 bd ca f9 24 be
       -0.032877013 -0.059479177 -0.044532992 -0.16110912
000050 73 05 24 be 71 5c c1 bd 45 ae 5b bd 99 9e 1f 3c
       -0.16017704 -0.0944146 -0.053632993 0.0097424025
000060 a4 43 10 be fa 5d 20 3e 19 38 23 3e d0 6f 39 bd
       -0.14088303 0.15660849 0.15939368 -0.04527265
000070 5f b5 01 3e 92 28 92 3d 9b 38 01 3e 87 b3 28 3e
       0.12666844 0.071366444 0.1261925 0.16474734
000080 90 e8 22 3e 6e ef 58 bd 44 73 8d 3c 11 84 41 bd
       0.15909028 -0.052962713 0.017266877 -0.04724509
000090 a7 b2 18 3e 24 af af bd ed 0d b3 3d 21 70 b2 3c
       0.149119 -0.08578327 0.087428905 0.021781983
0000a0 97 80 ba bd e7 0b 47 bd 8a 64 1f 3e 61 6a 16 be
       -0.09106558 -0.048595335 0.15565696 -0.14689018
0000b0 b1 f5 d9 3d 8f 07 b9 bb f5 98 e0 bc 83 66 24 3e
       0.10642565 -0.005646653 -0.027416686 0.1605473
0000c0 c6 b3 19 3e db 26 e2 3d d5 10 ff 3c d4 d1 e1 3d
       0.15009984 0.11042567 0.031135956 0.1102635
0000d0 dc 54 12 3e dd 07 80 bd b0 5a 2f 3d 82 51 95 bd
       0.14290184 -0.062515 0.042811096 -0.07290937
0000e0 b0 fa 00 3d 29 b3 44 be 6e d4 b7 3d 56 4f b1 3d
       0.031489074 -0.19208969 0.089760646 0.0865771
0000f0 f7 45 21 3e 2b a2 13 3e 3c a0 db 3d c3 22 10 3e
       0.15749346 0.14417331 0.10723922 0.1407576
000100 bc d4 ed 3d 54 21 e9 bd fb 05 07 3d 2b eb 9a bd
       0.116128415 -0.1138331 0.032964688 -0.07564386
000110 7a 4a 10 bd 66 39 1e be 78 03 cf bc 77 28 9e bd
       -0.035227276 -0.15451583 -0.025270209 -0.07722562
000120 b2 f0 2a be 07 c5 f8 bc 28 2a 1d 3e dd 09 39 3e
       -0.1669338 -0.030367387 0.15348113 0.18070169
000130 1e 31 ba 3d 8c bb 1a 3e 66 23 52 bd 5c f2 3b 3d
       0.090913996 0.15110606 -0.05130329 0.04588543
000140 71 71 a9 bd ce 02 c4 3d 06 ff f4 3d b0 b2 ea bd
       -0.0827359 0.095708475 0.11962704 -0.11459863
000150 ef a0 29 be 1b c7 7f 3d 7d 58 97 3c 42 37 df bd
       -0.16565298 0.06244574 0.018474812 -0.108992115
000160 b5 4f 9e 3d c5 fe db bc dd 03 3b bd 38 f8 20 3d
       0.07730047 -0.026854882 -0.04565798 0.03929922
000170 93 17 c6 bc 3c d3 b3 3b ea 4d 1d be e7 63 83 3d
       -0.024181163 0.0054878276 -0.15361753 0.06415539

gru.bias_hh_l0_reverse f4 [96]
000000 b9 35 83 bc af c4 24 be 92 b3 b8 3c ea 5b 88 bd
       -0.016016828 -0.16090654 0.022546563 -0.06658156
000010 7f ba 25 3e ad b1 06 be 29 06 35 bd e8 83 f1 bd
       0.16184424 -0.13153715 -0.044195328 -0.11792737
000020 09 7a 9a 3d 15 cd 75 3d a1 09 28 3e 9b 86 a1 bd
       0.075428076 0.060010035 0.16409923 -0.07887002
000030 a6 47 04 be f8 41 27 3d 6f f8 1f 3e 7d ee 20 3e
       -0.12917957 0.040834397 0.15622114 0.15715976
000040 f9 d6 a1 bd 68 ad 17 be 10 67 04 bd 4e 17 70 bd
       -0.07902331 -0.14812243 -0.03232485 -0.058615975
000050 6b 11 67 3d d7 a1 3c bd c1 af 2e be 57 7f d5 bd
       0.056413095 -0.04605278 -0.17059232 -0.10424679
000060 fd f8 be bd b1 ad 1d 3e ca 56 d8 bd cc 8a 6d bd
       -0.093248345 0.1539829 -0.10563429 -0.057993695
000070 f8 ba 27 be 14 bd 45 bd 78 da af 3d f1 da 09 3d
       -0.16379917 -0.048276022 0.085865915 0.033656064
000080 c8 70 02 3d 75 f5 b2 3b c5 8a c4 3d 91 28 07 3e
       0.031845838 0.0054613897 0.09596781 0.13199069
000090 f1 62 5b 3d 91 a6 df 3d 19 12 f4 3c 7e 52 7e bd
       0.053561155 0.10920442 0.029793786 -0.06209039
0000a0 4f 18 6b bd 98 62 68 3d 60 e9 e3 bd b2 8e 0c be
       -0.05739623 0.05673465 -0.11128497 -0.13726309
0000b0 24 a0 12 be 0c c1 5c bd 86 37 1d 3e f5 9a 04 be
       -0.14318901 -0.05389504 0.15353212 -0.12949736
0000c0 4b d0 34 3c 85 0f f2 bd 4a de 61 3d db 05 32 be
       0.011035989 -0.11819366 0.055143632 -0.17385046
0000d0 4b df 99 3d 20 78 d2 bc d6 2b c4 3d a7 ce 29 3e
       0.07513293 -0.025692046 0.095786735 0.16582738
0000e0 71 1e 05 3e ab 14 a0 3d 17 47 4d bc 1b 50 10 bd
       0.12999894 0.07816442 -0.012529156 -0.035232645
0000f0 c4 7d 29 3e b7 62 22 be 37 6d 03 3e 89 7e 3c bc
       0.16551882 -0.15857969 0.12834631 -0.011504778
000100 55 93 1a be b1 db 7e bd 59 c6 f2 3d 2c 36 bd bd
       -0.15095265 -0.062221233 0.11854238 -0.09238848
000110 f9 bc 88 3d aa 51 70 3d 82 48 92 bd 21 90 cd bc
       0.06676669 0.05867163 -0.07142736 -0.02509314
000120 fe cf ce b9 07 9e f4 3d c4 94 0d bd ed d6 15 bd
       -0.00039446348 0.11944204 -0.034565702 -0.036581922
000130 92 c6 33 3e 3a 13 eb 3c 22 13 ef bb e2 89 bb bc
       0.17556217 0.028695691 -0.007295982 -0.022892896
000140 3e ff fd bd d7 75 11 3e 85 72 3e bd 5f 22 0a 3e
       -0.12402199 0.14205109 -0.046495933 0.13489674
000150 33 62 7b 3d 25 fe 2c be 3c d5 9c bb ba ed a3 3d
       0.061372947 -0.16893823 -0.0047861617 0.08004327
000160 c8 89 bd 3d 76 60 ea 3a 7d 94 d7 bd 66 a1 20 3e
       0.09254795 0.0017881531 -0.10526369 0.15686569
000170 96 43 a4 3b 80 36 60 3d e5 7a 82 bc dc 30 89 3d
       0.0050129397 0.054739475 -0.015927741 0.06698772

output.weight f4 [1, 2048]
000000 bb 61 26 3b 24 ca 31 bc 5c 1b 44 3c 42 68 7c bc
       0.0025387842 -0.010851417 0.011969414 -0.015405716
000010 36 6b 11 3c 07 f3 99 3c b2 c3 9b 3c b1 56 09 bc
       0.008875659 0.018792642 0.019014213 -0.008382485
000020 a5 82 11 bc fa 14 37 bc ca 84 a4 3c 00 35 8b bc
       -0.008881246 -0.011174435 0.02008285 -0.016993046
000030 f9 81 05 3c ab f7 da 39 1b 39 b2 bc dc 5c b6 3c
       0.008148664 0.00041764727 -0.021755746 0.022261076
000040 5b e4 ca 3b 05 fd 22 3c f1 c3 8e bc 7d 0c a0 bc
       0.006191773 0.00994802 -0.017427417 -0.019537205
000050 ab 10 bd bb 7e 05 6d bb 70 3d 9a 3c 3f 9e 38 3b
       -0.0057698092 -0.0036166604 0.018828124 0.0028170494
000060 f3 d4 38 3c 94 89 58 3c 4b 27 e8 bb 2a 40 d7 3b
       0.01128124 0.013216395 -0.007084762 0.0065689282
000070 0c 10 86 3c 37 51 25 bc 94 50 b9 3a 05 16 69 bc
       0.016365074 -0.010090164 0.0014138394 -0.014226441
000080 97 3f 93 bc f6 fe 9e 3b 66 fe 5b 3c 6d fc f6 bb
       -0.017974658 0.004852171 0.0134273525 -0.0075374157
000090 6b 20 7e bb be bb 16 3c a7 7d 89 bb 37 67 6f 3b
       -0.0038776647 0.009200035 -0.004195887 0.0036530027
0000a0 d5 e0 09 3c bd 66 3f bc 68 30 4b bc c4 93 c0 3c
       0.008415421 -0.01168221 -0.012401678 0.02350796
0000b0 fd 1a d0 bb bd ac 8c 3c 9c 0d 99 3b 3d 0e 00 3c
       -0.0063508735 0.017172212 0.004670812 0.007815895
0000c0 6c 9c bc bb a1 21 cf 3c 73 5f 89 bc b7 1d 3f 3b
       -0.0057559516 0.02528459 -0.016769147 0.0029161999
0000d0 cd 60 ab bc 45 3b 59 3c e3 30 4f bc 12 18 77 b9
       -0.020920182 0.01325876 -0.012645933 -0.00023564723
0000e0 c7 70 68 3c 7e db 8e 3c 04 fe 20 3b cd 98 07 bc
       0.014187044 0.017438646 0.0024565468 -0.008276177
0000f0 96 67 5a 3b 30 09 54 3c 4c 19 81 bb a8 ba a5 bb
       0.0033325902 0.012941644 -0.003939783 -0.0050576515
000100 ce ba 3e bc bb cd 99 bc 69 7f af 3b f6 76 60 bc
       -0.011641217 -0.018774858 0.0053557646 -0.0137002375
000110 9d a4 48 bc 57 6e 15 ba 65 50 b7 bc c5 ad 7a bc
       -0.012246278 -0.0005700341 -0.022377202 -0.015300219
000120 61 d6 e6 3a 9a 7d 86 3c 86 ba c7 3b 61 0b 0d bc
       0.0017611497 0.016417313 0.0060952334 -0.00860867
000130 95 5a 14 3c 74 c2 72 3c 8a 5c 22 b9 a3 aa 19 3c
       0.0090548 0.014816869 -0.00015483997 0.009379062
000140 ea b3 44 bc 98 02 7a bb b2 f6 d9 bb 9a 03 01 bb
       -0.0120057855 -0.0038148519 -0.006651723 -0.0019685985
000150 f5 42 ed bb ae 96 83 bc 38 3c c5 3b fb f9 41 39
       -0.007240648 -0.01606306 0.0060191415 0.0001849904
000160 89 3b b0 bb 17 9b 86 bc 47 f6 8e 3b 5c 4a 55 3c
       -0.005378191 -0.016431374 0.0043628546 0.013018217
000170 05 ff af 3a 97 78 05 bc 79 15 8d 3b 97 c4 9d bc
       0.0013427442 -0.008146427 0.0043055383 -0.01925878
000180 9f 98 2d 3c 2a 34 cd bc 2a dc cf 3b 78 75 52 bb
       0.01059547 -0.025049288 0.0063433843 -0.0032113474
000190 b7 a8 62 bb ee 85 6f bc 8f 7b b4 3c be 36 09 3c
       -0.0034585425 -0.014619334 0.022031574 0.008374868
0001a0 62 d6 ea bb 0e 1f 54 3c c8 22 8a 3c 57 12 5d bc
       -0.0071666697 0.012946857 0.016862288 -0.013493142
0001b0 7d 3f fb bb c4 f5 33 3c 27 76 9c bc 80 a6 47 3c
       -0.0076674805 0.010983888 -0.019099308 0.012185693
0001c0 2d c2 4a 3c 26 04 c7 bb e7 cc cb bb b9 55 28 bc
       0.012375397 -0.0060734926 -0.0062194946 -0.010274344
0001d0 87 53 0d 3c c5 b8 03 bc 18 f7 a4 ba 1f 87 88 3c
       0.0086258715 -0.008039658 -0.0012585847 0.016665993
0001e0 c3 fd b1 3c 76 24 5b 3b e2 94 35 3c 5a 85 81 3c
       0.021727448 0.003343848 0.01108286 0.015810657
0001f0 9c 27 8c bc 07 33 b4 bc f4 32 bd bb 1f 6d c1 3c
       -0.017108731 -0.021996988 -0.0057738964 0.023611603
000200 42 93 76 39 b6 e2 ba 3a 0a ac 0f 3b f1 db 4d 3c
       0.00023515246 0.0014258239 0.0021922612 0.012564645
000210 8f 92 19 bc ab a3 62 bc a6 a1 64 3b 9c bc 41 3c
       -0.009373321 -0.013832967 0.003488639 0.011824753
000220 e3 4f 6a bc cf 32 bd 3b da 20 9f 3c 04 7e ec bb
       -0.014301273 0.005773879 0.019424845 -0.0072171707
000230 85 58 26 3b 9c f8 01 3c c5 46 93 3b 76 25 42 b9
       0.0025382352 0.007932808 0.0044945204 -0.00018515237
000240 cc a9 2a bc 5e 7a 48 3c 2a c3 6e bc 40 fb 0b bc
       -0.010416459 0.012236206 -0.014572898 -0.008543789
000250 2d 9a ae bc ad 1f 82 bc 9c d9 f8 3b 1e cd 6d bc
       -0.021313751 -0.015884245 0.0075943004 -0.014514236
000260 9c 17 a6 bc cc a4 11 bc 4d 45 c3 3b d8 77 f6 3b
       -0.02027493 -0.008889388 0.005959189 0.0075216107
000270 b4 5f 88 bb 3f df 87 bc 69 c0 22 bb 5e a3 83 3b
       -0.0041617993 -0.016585944 -0.0024833924 0.0040172776
000280 e2 51 aa 3c b8 65 01 3b a0 38 d2 bb 71 38 b2 bc
       0.020790998 0.0019744467 -0.0064154416 -0.021755429
000290 a9 7e d2 bb 3b ac 48 3c d7 f8 9b 3c 32 d7 70 3c
       -0.0064237905 0.012248094 0.019039555 0.014699744
0002a0 19 e3 f4 bb eb 2a 3e 3a e9 b3 17 bc 21 ed dd 3b
       -0.007473361 0.000725432 -0.0092592025 0.0067726527
0002b0 65 cb 75 3c f1 0c 7d 3c fb 2c 90 3c c7 22 ab 3a
       0.015002106 0.01544498 0.017599573 0.0013056629
0002c0 b4 cd 8b bc 4a 26 f9 3b c5 a8 8b 3a 0e af c4 3c
       -0.01706586 0.0076034414 0.0010655156 0.024009254
0002d0 04 d2 58 3c e3 61 e5 bc 89 f8 b0 3c ac ec 9c bb
       0.013233665 -0.028000778 0.021602886 -0.0047889557
0002e0 2a c7 7c bc 03 c5 9e bc ec 6b bf bc 99 8f 6f bc
       -0.015428344 -0.019381052 -0.02336689 -0.014621639
0002f0 ea 58 cb bb 44 10 99 3b fe 65 a7 3b f3 8d 10 3a
       -0.0062056677 0.0046711285 0.005108594 0.0005514316
000300 ff 17 96 ba ae 9a de bb ee 26 35 bc 1b 58 fa 3b
       -0.0011451243 -0.0067933416 -0.011056645 0.0076398975
000310 f0 eb 7e 3a ed d3 57 b9 80 76 10 3c 6d 81 a0 bc
       0.00097244885 -0.00020582946 0.008817315 -0.019592965
000320 ee b4 1a 3c 86 c0 05 3b a9 5f d0 bc 94 1b 87 bb
       0.009442551 0.0020408942 -0.02543624 -0.0041231606
000330 1c 49 15 3c 20 28 c0 3c f7 21 61 3c a4 4f 40 bb
       0.009111669 0.023456633 0.013741008 -0.0029344345
000340 aa 1f c1 3c 1d fd b9 bc 29 c9 11 3c 86 48 ba bc
       0.023574669 -0.022703702 0.008898058 -0.02273966
000350 81 8c 42 3b ef 22 98 3c d3 56 b6 3c 31 20 90 bb
       0.0029685798 0.018571345 0.022258198 -0.0043983688
000360 25 26 79 bc eb 94 8b bc 74 77 75 bc 09 01 1c 3c
       -0.015206848 -0.017038783 -0.014982093 0.009521731
000370 c9 a3 1f bc dc 9a 86 3c 02 e2 b8 bc c4 ba 66 3c
       -0.009743639 0.016431265 -0.022568706 0.014082614
000380 ef 12 80 bb 1b ae ba bb 91 55 79 bc 9a ae 8a bb
       -0.003908507 -0.0056970245 -0.0152181545 -0.00423224
000390 e2 20 21 bc de 5e 42 bc f3 0c be 3b 9f 66 9d 3c
       -0.0098345 -0.011863438 0.0057998835 0.019213973
0003a0 86 5e 2d 3c 2d 61 85 bb 22 ff 33 bc c0 d8 0e 3c
       0.010581618 -0.004070422 -0.010986121 0.008718669
0003b0 44 5a 9f 3b 8b 42 7c bc b1 28 bf bc 02 b6 7a bc
       0.0048630554 -0.015396724 -0.023334833 -0.015302183
0003c0 62 68 8b bb e1 f8 76 bc 35 e7 2e bb 58 86 f6 bb
       -0.0042543868 -0.015073986 -0.0026688103 -0.0075233392
0003d0 76 b5 36 3c f0 cf 9c 38 da b3 99 3c 10 d1 dc 3b
       0.011151662 7.477391e-05 0.018762518 0.0067387894
0003e0 d3 af 36 3c 6a aa 17 bc 07 67 83 bb c6 38 8a 3c
       0.011150318 -0.0092569385 -0.0040100846 0.016872775
0003f0 41 e1 d6 bc fe d7 57 3c a5 b0 03 bc ce 3e b9 bb
       -0.026230456 0.013174055 -0.008037721 -0.005653239
