model_save/biLSTM.pth (torch, 49413 bytes, 13 tensors)

batchNorm.weight f4 [3]
00000000: a29e 6d3f 0e7e 663f 5be1 803f
0.9282018 0.90036094 1.0068773

batchNorm.bias f4 [3]
00000000: 4045 813b f433 e0bc ef83 b83b
0.003945023 -0.027368523 0.005630962

batchNorm.running_mean f4 [3]
00000000: fd7c 6740 ea6a 61bf ae54 183f
3.6170037 -0.8805376 0.5950421

batchNorm.running_var f4 [3]
00000000: c7db 9f3d 8455 4e40 a778 783d
0.07805591 3.2239695 0.060661938

bi_lstm.weight_ih_l0 f4 [128, 3]
00000000: 4ee8 6dbd 66e6 aebd 7c28 a5bc e8df 1ebc
00000010: d89c 2a3e 8d9f acbd de8f 843d cba3 043e
00000020: 5dd7 5fbd 1cf1 83bd 5f19 963d d147 073d
00000030: 93dc babb d23b 353e dd5c 493c af4c a8bd
00000040: b0b0 fcbb d139 393d 103e f03c 47e9 453d
00000050: 1439 703c 6b69 d93c 816b 19be b91c 023e
00000060: a762 d9bd 40eb 80bd b6f1 503d ba01 ecbc
00000070: 6c81 ba3d 169f 833d 9ec1 1e3e 6bd8 6b3d
00000080: bc81 553d 93f6 033d 9c5e bdbd 4b80 113d
00000090: b10c 8a3d b6cf 04bd 80ee b7bd 121c b8bd
000000a0: b531 f23d f8e4 f2bd 53ce 383e 5202 20bc
000000b0: b533 633d feae eb3d a6ba f83d ca88 403d
000000c0: 6f40 1cbe 37e9 763c d6f3 80bd 24aa 1abe
000000d0: 1cb7 92bd b81a a83d 429c f13c dc68 283e
000000e0: 8488 bcbd 4417 b53d 67ff 163e cfd7 cdbd
000000f0: aafc 223e e9be 973d 3a72 36bb f467 e6bc
00000100: 0f11 92bd 717d 193e b0eb 5e3d 0a15 a9bc
00000110: 2136 293e c1cd b5bd 5d3f 92bd a658 9dbd
00000120: f661 203e e6ae f7bd 9675 fe3b 5eb5 80bc
00000130: bc9b e4bc d8e0 12be ea56 be3d f9d0 dbbc
00000140: a1cf 11be 3ea3 4abc 8b0f 09be 6144 553d
00000150: b523 a43d 1003 c3bd b1a9 223e b4be dd3c
00000160: 59e9 16be 4703 e23c 72e4 0d3c 98bb a83d
00000170: 3431 16be 8e94 013d 62f1 b6bd b8c1 2e3d
00000180: 480b d5bd d4c1 cc3c e95f 0bbe 4c2c 623d
00000190: 7f45 0a3d f27c 0b3e 3e92 2d3e 15b7 483d
000001a0: f30a 8cbd 865c 86bd ea3c b33d 02be c53d
000001b0: cb42 303a 9304 e7bd fc97 b5bd a7f4 f73c
000001c0: 2a79 6d3d b6b4 df3d 36e8 bc3d b0a6 033e
000001d0: 4dac 58bb 2b42 f43d 19a5 053d d48c 393e
000001e0: 4050 d73d 6f22 d93c ade0 723d ea6d 43bd
000001f0: a287 30be 11bb 803d adb9 253e d228 ab3d
00000200: 9c79 0c3c bac6 2abe 7827 fdbd eb61 9f3d
00000210: 829f 733d d96a f23d ab4d cf3d 3717 7e3b
00000220: 74eb 0cbe 485c 9c3d 30a9 0abe 2df5 473d
00000230: bfa4 25bc 8cb9 a83d 88b7 163e 210b 25bc
00000240: 0060 9d3d 7593 ae3c f158 ce3d 462e b3bd
00000250: 9a62 39be 55d4 86bd 8d7c d63c 7d75 ac3d
00000260: debc fe3d 64f7 4fbb 3a33 883d 0217 893c
00000270: 1f71 193e e9d2 653d ce8b 213c ea8d 043d
00000280: 07f2 903d adbf fbbc 1d01 1e3e 9338 b63d
00000290: 9ca7 80bd 0672 923d 46a2 8cbd ef49 16be
000002a0: a0bd 26be 0fd7 1fbe 80c8 9abd 455f 9dbd
000002b0: 9ab3 88bd 9359 183e c74e 1b3d 9697 b43d
000002c0: 4dbd 6a3d c348 733d 8727 7cbc 9c23 523c
000002d0: ea0b 313e 607a f93d ca0e 6f3b 48b4 4b3d
000002e0: 7174 de3d 3258 cc3d 186a d33d a9d1 83bd
000002f0: 7b21 923d a903 1c3c 27eb a03d 6034 84bc
00000300: e11f ff3d c4ff 02be b334 e73d 618a 4c3d
00000310: 56ce af3d d48b 223c 159d a7bd fb95 d1bb
00000320: 681b af3d 043b 343d e950 1cbe cd0f 07be
00000330: 99fe 323e 16bd dbbd ff72 30bd 8465 dcbd
00000340: f5de 313d 6948 1bbe 3c7b e73d 2ed3 b6bd
00000350: d550 3bbe 64f2 f1bc f3cc dc3c b644 a5bd
00000360: c520 953d b402 34be 295e 173e 1073 13be
00000370: 9803 3a3d 67ef 09bd a570 66bd 5749 003e
00000380: 2de9 1b3e a97d 0e3e 0b66 b1bd a7eb 0abe
00000390: 809c 1fbe b946 9a3d efce 89bc 6892 a6bd
000003a0: c31b aabd ba41 a93d 5173 10bd ba7f 623d
000003b0: d660 11be 49e8 243e 88c8 3ebd 27e1 a43d
000003c0: 6fd9 0fbe 714d 043e 3bf5 113e e3f6 c9bd
000003d0: cc17 8bbd de90 dabd 61af 2a3e 8aa4 d13d
000003e0: b406 a43d 91cb 993d 9bf4 f6bd 83dc b2bd
000003f0: d44e f6bd 25f0 56bd f1a3 31bd 55c7 d63d
-0.05808287 -0.08540039 -0.020160906 -0.009696938 0.16661394 -0.084288694 0.06472753 0.12953107
-0.054648746 -0.06442472 0.07329058 0.033027474 -0.005702564 0.17698601 0.012290207 -0.08217751
-0.0077114925 0.045221154 0.029326469 0.048318174 0.014662046 0.026539525 -0.14982416 0.1270627
-0.106145196 -0.062948704 0.051011764 -0.028809417 0.091067165 0.064268276 0.15503547 0.05757944
0.052125677 0.032217573 -0.09246561 0.03552274 0.06740702 -0.03242465 -0.08981037 -0.08989729
0.11825887 -0.118600786 0.18047456 -0.009766178 0.055469234 0.115079865 0.12144975 0.047005452
-0.15258954 0.015070251 -0.06296508 -0.15103966 -0.071638316 0.08208221 0.029493455 0.1644625
-0.09205726 0.08842328 0.14745866 -0.10050928 0.15916696 0.0740946 -0.002783908 -0.02812574
-0.0713216 0.14989258 0.054423988 -0.020639915 0.16524555 -0.08877135 -0.07140992 -0.07682924
0.15662369 -0.12093906 0.007765482 -0.015711483 -0.027906291 -0.14343584 0.09293921 -0.026833044
-0.1423936 -0.0123680215 -0.13384835 0.052067164 0.08014623 -0.095220685 0.15885045 0.027068473
-0.14737453 0.027589453 0.008660423 0.08238906 -0.14667207 0.031635813 -0.08932759 0.042665213
-0.10402542 0.024994768 -0.13610806 0.055218026 0.033757683 0.13621882 0.16950318 0.049002726
-0.06838026 -0.06560616 0.08751853 0.09655382 0.000672382 -0.11280169 -0.08866879 0.030268027
0.05797688 0.1092314 0.09223978 0.12856555 -0.0033061684 0.11926683 0.032628153 0.18120128
0.10513353 0.026505677 0.0592963 -0.047712244 -0.1723924 0.0628568 0.16184111 0.08357395
0.008573916 -0.1667737 -0.12361044 0.07782348 0.05947829 0.11836786 0.10122236 0.0038771161
-0.13761693 0.07634789 -0.13541102 0.048817802 -0.010110079 0.08238515 0.14718449 -0.010073454
0.07684326 0.021310547 0.10075558 -0.0874906 -0.1810402 -0.06583468 0.026182437 0.084208466
0.12438367 -0.003173315 0.06650396 0.016734604 0.14984559 0.056109343 0.009859992 0.032361902
0.07077413 -0.030731047 0.15430112 0.088975094 -0.06281969 0.071506545 -0.06866889 -0.14676641
-0.16283274 -0.15609382 -0.075577736 -0.07684187 -0.06674881 0.1487792 0.037916925 0.08817975
0.057309438 0.059395563 -0.015390283 0.012825873 0.17289701 0.12181544 0.003647732 0.049732476
0.10862053 0.099777594 0.1032297 -0.06436474 0.07135292 0.009522357 0.07857352 -0.016138256
0.12457252 -0.1279288 0.112893485 0.049936656 0.08584277 0.009921033 -0.08184258 -0.006396053
0.08550149 0.044001594 -0.1526524 -0.13189621 0.17479934 -0.10729425 -0.04307842 -0.1076155
0.04342552 -0.15164341 0.11302802 -0.08926998 -0.18292554 -0.029534526 0.026953196 -0.08069746
0.07281641 -0.17579156 0.14782013 -0.14399362 0.045413584 -0.033675577 -0.05625977 0.12527977
0.15225668 0.13915123 -0.08662041 -0.13566457 -0.15587044 0.075330205 -0.016822306 -0.081333935
-0.083060764 0.082644895 -0.035266224 0.05529759 -0.14197096 0.16104235 -0.04657796 0.08050757
-0.14047788 0.12920167 0.14253704 -0.09861543 -0.06791648 -0.106721625 0.16668464 0.102364615
0.08009091 0.0750953 -0.120583735 -0.087334655 -0.12026754 -0.052475113 -0.043369237 0.10487238

bi_lstm.weight_hh_l0 f4 [128, 32]
00000000: 66e8 343e c607 89bc 8f65 233d 4d1a 733d
00000010: 58de 753d 3541 53bd 8550 7dbd abb8 39be
00000020: 9815 bebd 94ae c3bd 3501 493c 572e 12be
00000030: 210a 14bd f501 0cbe 7c8d 883d 4414 263d
00000040: cfd2 71bc d091 903c 033f 28be ec57 dcbd
00000050: 0f20 c0bd 394e 68bd 4a23 c5bd 6635 d8bd
00000060: 26a6 0b3e 3116 533e 3d0f 873d fd99 1f3e
00000070: 5254 05be bdf9 cb3d 3392 19bd 16a5 c4bd
00000080: c86f 1fbc 28c7 323e 0b35 8fbd 4b62 b33d
00000090: 4845 063e f337 88bc 6179 c0bb aed8 b2bd
000000a0: ae49 bfbd 8450 82bc 75b2 4ebd d1f5 e63d
000000b0: e608 f7bd d597 993d da31 3f3b 0916 a0bd
000000c0: dc59 113e 3ef7 e73d 8ed1 66bd 322e c33d
000000d0: dbd2 1abe a9e1 26be 14b3 28be fca2 cb3d
000000e0: d298 2a3e a74a bd3d df6e c23d 8274 5c3d
000000f0: c868 68bd f3ab 3c3d 33c5 4abc 7058 d63d
00000100: 0fe2 84bd 62bd 07be d7cc 89bd cc2b 19be
00000110: 6166 553d f8b2 9bbd ce52 30be dbf3 87bb
00000120: ce31 d3bd d5e9 2e3e 0651 473d e5c1 d7bd
00000130: f0d1 5e3d cabf eb3d 61cf ddbd 603b 1b3d
00000140: fc51 1a3c 43a8 efbd ca53 06be 58b7 a23d
00000150: c039 2b3e 198f 163e fefb c0bd f45b 2cbe
00000160: d626 37bd 8e47 a53d 04cc 2a3d 787d bc3d
00000170: 12e0 10be cea0 bbbc 4d6e 5c3d 2baf 073d
00000180: ad2c 5e3d 417b b0bd 8bb6 023e 0529 2dbe
00000190: 520b f4bd 9064 363a 50d8 b43c 3676 193d
000001a0: 907b e9bd 6618 7fbc 6fea fd3d 4b95 833d
000001b0: 80a3 f73c 2828 3abc 5c9c 2ebe 6fa8 373d
000001c0: 11de 973d 93f6 3dbd 5d1f 133e 1d8f 20be
000001d0: a6a1 353e fdba d4bd b490 393e fe80 2f3e
000001e0: 205e 133e ebd2 9bbd a09d 48bd 801a 253d
000001f0: f1b3 02bd c08b a6bd 50a6 193c 3e50 033e
00000200: 41d5 e1bd 5fb6 043c 0d15 823d 75ce 83bd
00000210: 76f8 2abe 85c8 073d dafd b03d bb5f 633d
00000220: a770 073e a866 043e 5b1e 0a3e 19b8 0a3e
00000230: 1e95 f0bd bc6e 2abe 83cf 1dbe a7d1 c53d
00000240: a8c1 08be 78ec 043d 620f 07bd bf90 613d
00000250: 823b 6e3d 7309 113e 73c6 00be b02e 2e3e
00000260: db21 03be c48f 1e3e 6bb2 253e 307b 3dbc
00000270: 1d5d 013e e534 babd 4fde fa3c cf0b 1c3c
00000280: 8248 383c bcb0 133e 5457 bebc f837 8b3d
00000290: 48fa 163e bfd0 22be 7090 703d 9bc2 643d
000002a0: 2cea 363e f7ce 753d 9c9a d93d 70dc 46bd
000002b0: 2100 fa3d c39a a63d 7f31 75bd c401 77bd
000002c0: 1a3e 18be 34cb b4bd 9c32 eabd 2f8d 4d3d
000002d0: 407b 86bd 9e12 e43d 2e9b 2ebd ea9b 0a3e
000002e0: 5441 39bc 125b 253e 3f48 22be 33b6 06bc
000002f0: 235c 9abd f65b 28be daf1 883d ef0d 50bd
00000300: fa02 563d dd4d f93d 146b c03d 9d8e 26be
00000310: eaac 5fbc cfab 0a3e 6f54 7f3b 846e 17be
00000320: 2370 1dbe a0e9 313c 8d93 8ebc 0bf0 a13d
00000330: 45e2 233d 5cba 30be 0886 07be deb9 31be
00000340: f0ec 333e fdf9 193e 04d2 2abd 1cd6 0bbd
00000350: cda2 273e c289 863d 25a5 353e deba c33d
00000360: d889 e3bd 2188 173d 5877 603d 768d 91bc
00000370: e264 453d 980f e13d 492c 21be 383c 2cbe
00000380: ba86 2b3d 9708 2f3e d08b 4dbd 1026 31be
00000390: 40be b5bd a3d3 6cbd 5a4d 013d fa79 1f3e
000003a0: 73e2 623c 6801 33be fc2c bc3d b202 233e
000003b0: 26ac d33d 94de 0b3d 9394 fabd 59f6 0fbd
000003c0: 43db 0cbe 79df 05be 5c33 21be 5b79 1d3e
000003d0: a0a1 04be c5f9 1fbe a258 d23d 11f9 10be
000003e0: d714 033e e187 ddbc 1d61 5a3d 78b7 8e3c
000003f0: 723c c73d 8831 113e a23d cf3c 66d4 bf3c
0.17666778 -0.01672734 0.039891776 0.059351254 0.060026497 -0.05157586 -0.061844368 -0.18136851
-0.092814624 -0.095547825 0.012268354 -0.1427549 -0.036142472 -0.13672622 0.06667611 0.04054667
-0.014759733 0.017647654 -0.16430287 -0.10758957 -0.09381115 -0.056715224 -0.096258715 -0.1055706
0.136376 0.20613934 0.06594703 0.15586086 -0.13020447 0.09959743 -0.037492942 -0.096018
-0.009731241 0.17458785 -0.06992539 0.08758982 0.13112366 -0.016628241 -0.0058738445 -0.087327346
-0.09340225 -0.015907533 -0.05046316 0.112773545 -0.12062244 0.07499663 0.0029174 -0.07816703
0.14194435 0.113264546 -0.05635219 0.095302954 -0.15119497 -0.1629702 -0.16474563 0.09943196
0.16659859 0.092427544 0.09493803 0.053822048 -0.056740552 0.04606242 -0.0123761175 0.10466087
-0.0648843 -0.13255838 -0.06728523 -0.14958113 0.05209959 -0.07602495 -0.17219087 -0.004148943
-0.10312234 0.17081387 0.048661254 -0.10535029 0.05439943 0.1151119 -0.1083057 0.03789842
0.009418961 -0.11702015 -0.131179 0.07945126 0.16721249 0.14703025 -0.09423064 -0.16831952
-0.04471477 0.080702886 0.04169847 0.09203619 -0.14147976 -0.022903826 0.05381613 0.033126038
0.054241825 -0.08617259 0.12764947 -0.16910179 -0.11916222 0.0006957734 0.022075802 0.03746625
-0.11400521 -0.015569782 0.1239823 0.0642496 0.03022933 -0.011362113 -0.17051834 0.044838365
0.07415403 -0.04637773 0.14367433 -0.15679593 0.17737445 -0.10387228 0.18121606 0.1713905
0.14391375 -0.07608589 -0.048978448 0.040308475 -0.031909887 -0.08132124 0.009378031 0.12823579
-0.11027003 0.008100121 0.06351671 -0.06435863 -0.16696343 0.033150215 0.08642168 0.055511218
0.13226567 0.12929785 0.13488142 0.1354679 -0.11747192 -0.16643804 -0.1541119 0.09659129
-0.13355124 0.032452077 -0.032973655 0.05506968 0.05816222 0.14163761 -0.12575702 0.17009997
-0.12805884 0.1548453 0.16181342 -0.011565015 0.12633176 -0.0909212 0.030623583 0.0095243
0.011247756 0.14422888 -0.023235 0.067977846 0.14743912 -0.15899943 0.058731496 0.055849653
0.17862767 0.06001183 0.106251925 -0.04855007 0.12207056 0.08134987 -0.059861656 -0.06030442
-0.1486744 -0.088278204 -0.11435434 0.05018347 -0.06566477 0.111363634 -0.04262846 0.13536039
-0.011307079 0.16148022 -0.15847872 -0.008222151 -0.07537105 -0.1644133 0.066867545 -0.050794538
0.052248932 0.12173054 0.093954235 -0.1626534 -0.013652066 0.13542102 0.0038960238 -0.14788252
-0.15374808 0.010858923 -0.017404342 0.07907113 0.04001071 -0.1725859 -0.13234723 -0.17356059
0.17570853 0.15036769 -0.041704193 -0.034139737 0.16370697 0.06569244 0.17738779 0.095571265
-0.11110276 0.036995057 0.054801315 -0.01776765 0.048191912 0.109893024 -0.1573955 -0.16819847
0.041876532 0.1709312 -0.050182164 -0.17299676 -0.08874178 -0.05781902 0.03156791 0.15573874
0.013847935 -0.17481005 0.091882676 0.15918997 0.10335569 0.034147814 -0.122353695 -0.035147045
-0.13755517 -0.1307353 -0.15742248 0.15378325 -0.1295228 -0.15622623 0.102708116 -0.14157511
0.12800919 -0.027042331 0.05331527 0.01742147 0.09728326 0.14179051 0.025297944 0.02341671

bi_lstm.bias_ih_l0 f4 [128]
00000000: 4dd0 53bd 81c4 153b a9c0 dcbd 20b1 c4bd
00000010: 4218 b5bd 05cc 223e ab9c 07be f56a d83d
00000020: a357 18be 66d3 23bd 074e 05be 01d2 383d
00000030: cec1 ee3d cb58 8f3d 6a40 0cbe b896 6a3c
00000040: d81a 34bd f358 403b 8e1c 30bd 16f0 623d
00000050: a332 b3bc 7fa0 bbba 614c 83bd 3c42 923c
00000060: 9c61 323e 372c 313d dc01 e5bd 846d 12be
00000070: 8bac 17be ed91 05be 5a25 f7bc 8a09 6db9
00000080: 2020 2b3e a535 053e d637 1a3e 5595 de3d
00000090: 43f4 19bc 3ed4 30be 828c 0cbd b113 063e
000000a0: 71e2 08be ca05 c5bd 4900 27bd 76d5 c53c
000000b0: c791 323e b3b8 093d 8ae9 ff3d 5090 d23d
000000c0: 0116 123e 80dc eebd 58fe 3dbd cad4 f3ba
000000d0: 757e 46bd 9e02 073e a407 0cbe 0356 143e
000000e0: a853 c13b 23f0 263e 2f8e 3c3d a2cc 13be
000000f0: 661d 293e 4a0c 473d 7149 a73d 9176 fe3d
00000100: 84cb 39bd a163 b53c 6103 94bd 63fd bc3d
00000110: c778 5ebb 740e 493d 2021 cebd 79e6 acbd
00000120: 5568 a7bd 85bf e3bd cc1f 103e b95d 07be
00000130: 6c75 d53d 0955 19be 680a 1b3e 1beb 31be
00000140: 5de1 073e bb28 343c dd09 1cbd be1b bcbd
00000150: 6e71 e53d 038f 633d 13a0 af3d f1fe 203d
00000160: fdab e53c a51d 143e c423 9b3d 5d70 1c3e
00000170: b0eb 00be b669 d2bc 1f52 3fbd 2ce8 8d3d
00000180: e67a 323d 0a3a d2bd b1a1 b03d a52a 9abc
00000190: 4146 fcbd a255 2f3e c069 febd 556a 93bd
000001a0: c388 243e bc89 5dbd 139c dd3d 916c 3cbd
000001b0: fe6d 85bd 20f3 213e 3357 29be 0ee3 b73c
000001c0: cb4a 663c 8493 e6bd da96 d63c 50a4 63bd
000001d0: 9072 5c3d 540b c6bd c1a6 eabd b53a 19be
000001e0: 8e02 343d 6bcc 003c ef9b 1bbd 4fa5 04be
000001f0: 09c1 973b d366 0cbe 4c87 563d d8b8 d8bc
-0.051712323 0.002285272 -0.107789345 -0.096040964 -0.088425174 0.1589814 -0.13243358 0.105672754
-0.14877181 -0.039996527 -0.13018046 0.04512215 0.11658059 0.06999358 -0.13696447 0.014318161
-0.043970913 0.0029349893 -0.042995982 0.055404745 -0.021874731 -0.0014314799 -0.064110525 0.017853849
0.17420048 0.043255057 -0.11181995 -0.1429959 -0.14811914 -0.13043948 -0.030169178 -0.00022605635
0.16711473 0.13008745 0.15060362 0.108683266 -0.009396615 -0.17268464 -0.034313686 0.13093449
-0.1336763 -0.09620245 -0.040771756 0.024149638 0.17438422 0.03362341 0.12495716 0.10281432
0.14266206 -0.11663151 -0.04638514 -0.0018602845 -0.048460443 0.13184592 -0.1367479 0.14485936
0.005899865 0.16302542 0.046034034 -0.1443353 0.16515121 0.048595704 0.08168305 0.124249585
-0.045360103 0.022142233 -0.07227207 0.09228017 -0.00339465 0.04908605 -0.10064912 -0.08442397
-0.08174197 -0.11120514 0.1407463 -0.13219346 0.10422787 -0.14973845 0.15140688 -0.17374842
0.13269563 0.010996039 -0.038095344 -0.09184979 0.112032756 0.05555631 0.085754536 0.03930563
0.028036112 0.14464433 0.07575181 0.15277238 -0.12589908 -0.025685173 -0.046709176 0.06929049
0.043574236 -0.10264976 0.0862459 -0.018819163 -0.12318087 0.1712251 -0.12422514 -0.071980156
0.16067795 -0.05408643 0.108207844 -0.046001974 -0.0651512 0.15815401 -0.1653717 0.022447135
0.014055918 -0.11258605 0.026194979 -0.055576622 0.053820193 -0.096701294 -0.11457587 -0.14963801
0.04394775 0.007861237 -0.037990507 -0.12953685 0.004631166 -0.137111 0.052375123 -0.026455328

bi_lstm.bias_hh_l0 f4 [128]
00000000: 1053 b3bd 1a32 873d 7b45 fdbd 3b6a 0e3a
00000010: 8fd5 bc3d 7b97 173e ee26 86bd b945 17be
00000020: 3e5d f73d 9bb5 d23c 5612 27be 5f11 b2ba
00000030: 8e72 833c 204b 29bd 76da fe3d 460c 1f3d
00000040: 898a b5bd 82ca 8ebc a2a9 f43b 72a5 aebd
00000050: e8fe adbd 5dc4 29bd d4b5 9cbc c6cd e7bd
00000060: 5127 1a3e d322 373e 54d3 fbbd aa5e c63d
00000070: 3fd3 05be a693 513d 8fba 363e 91bd fd3c
00000080: 68e5 00be bf45 cdba 8d9e 06be 4100 11be
00000090: 50a3 4cbd 8019 e6bd f51d 833d 903c 353d
000000a0: 6fba 1abe 0e7e dcbc 175e 2c3e e4c7 033e
000000b0: 6157 d13d 3e63 873d 6753 09be b5bc 1b3e
000000c0: c3aa 2e3e 8b21 37bd 6f7c 18be a565 cebc
000000d0: 85d3 6fbb 9dc9 df3d 46c8 cb3d 6146 11be
000000e0: edaf c2bd 7593 073d ea63 093e fe70 7abb
000000f0: 451d 2dbe 3cc0 b33d 8865 fabc 1158 683d
00000100: 0b7a a63d f26c b93d 8cd1 ab3b aea3 7f3d
00000110: 8242 693d ad4d 8ebd efd3 333d da7b e43d
00000120: 8250 09be ec11 0d3d 754e 143e 10c2 913d
00000130: 3684 babd 7a13 363d 0c97 a3bb b8a2 133e
00000140: 7594 c1bd 3735 b53d 7ca2 893c 9876 163c
00000150: 0060 933a 01c2 11be 23c4 923d b2d5 f3bd
00000160: d75a 303e 388d 843d 3abb a7bd 7c5b 123e
00000170: 8065 063e ba71 2c3e e817 a63d 73ef 293d
00000180: 4ca9 b1bd 64cb 2b3e ba73 bb3d fba5 b73d
00000190: de47 263e 70ef 043e 5945 b3bd f458 083e
000001a0: 8059 8f3d df0b 86bd 4ae3 183e 2cf7 7ebd
000001b0: dcdd 5ebd 00c3 083c a2b7 1d3c 91e1 013e
000001c0: 13c5 9ebd a191 25be 42de 7f3d efdf e6bd
000001d0: a889 19be 7324 10be 13b0 03be 1858 44bd
000001e0: 7fe6 f2bd 3b8f f13d d2c1 8cbd 7bc0 ee3d
000001f0: 970c bebd 03ed f53d c08c db3c 7f36 24be
-0.08756077 0.06601353 -0.12366768 0.00054326997 0.092204206 0.14803879 -0.06550394 -0.14772691
0.120783314 0.025721362 -0.16315588 -0.0013585499 0.016045835 -0.04133141 0.12444012 0.038830064
-0.08864314 -0.017430548 0.007466511 -0.0852765 -0.08495885 -0.041447032 -0.019129671 -0.11318545
0.1505406 0.17884378 -0.12296167 0.096860245 -0.13068865 0.0511662 0.17844604 0.030974181
-0.12587512 -0.0015661045 -0.1314642 -0.14160253 -0.049960434 -0.112353325 0.06402198 0.04424721
-0.15110181 -0.026915576 0.16832767 0.12869221 0.10221744 0.06610726 -0.13410722 0.15208705
0.17057328 -0.044709723 -0.14891218 -0.025194952 -0.0036594581 0.109271266 0.099503085 -0.14187004
-0.095062114 0.03309961 0.1341702 -0.0038214321 -0.16905697 0.087769 -0.030565992 0.05672461
0.081287466 0.09053983 0.005243486 0.062411956 0.056948192 -0.06948409 0.043903288 0.11156435
-0.13409618 0.03444092 0.14483054 0.071170926 -0.091072485 0.044452168 -0.0049923714 0.14417541
-0.09452144 0.088480406 0.016801111 0.009183548 0.001124382 -0.14234163 0.07166316 -0.119059935
0.17222153 0.06472248 -0.081900075 0.14292711 0.13124657 0.16840258 0.081100285 0.041488122
-0.08674869 0.16776806 0.091529325 0.08967205 0.16238353 0.12981963 -0.087534614 0.13315183
0.06999493 -0.06545233 0.14930454 -0.06224744 -0.0544108 0.008347273 0.009626301 0.12683703
-0.07752433 -0.16168834 0.06246782 -0.11273181 -0.14993918 -0.14076404 -0.12860136 -0.047935575
-0.1186037 0.11794897 -0.06872906 0.116578065 -0.09279745 0.12008097 0.026800513 -0.16036414

bi_lstm.weight_ih_l0_reverse f4 [128, 3]
00000000: 4b29 9cbd 0f2c 313e 01b4 233e f10d eb3d
00000010: 6f44 033e 6d5a 3b3d b858 0abe a871 43bd
00000020: 190d 05be 6b54 c73d e2ea f03d 29db 5d3d
00000030: b0a1 fa3d e7c1 dfbc f127 a73d c6b1 79bc
00000040: 5b80 aebc b71a e0bd ac08 e6bd 4b68 203c
00000050: 2cd7 b6bd 7789 d33c ecf2 a4bd 8cf3 9bbc
00000060: 42c6 05be 9c7e 07be a1d8 983d 1de7 063e
00000070: 7a09 303c e2c0 233d 1816 5c3d 1262 0c3e
00000080: aee1 3bbc 9057 293e 1ca4 5c3c e857 e13d
00000090: 0fb1 52bb 632d 68bd 96db 0d3c 64d5 1ebe
000000a0: 14a4 de3c fdca fdbc 08ee 783d 7657 24be
000000b0: 0af7 093e 96fc 10bd 66b7 28bc 712f 143d
000000c0: 2023 123e 2f95 1f3e 6664 04be de0f 263e
000000d0: c0be e3bd 2aa6 cfbd 5eb2 bebc fddb e83c
000000e0: 52e7 143e 616b 1b3e e982 e4bd 4068 933d
000000f0: d063 d7bd f351 5b3d 8022 74bc d36d 9fbb
00000100: 3c53 51bc 561f b23d 4497 e7bd ac81 c3bd
00000110: f086 113e 6469 cbbd b737 2c3e 14e4 fcbd
00000120: af5c 273e 1601 213e 08f7 1bbc 36bf d3bd
00000130: c589 0f3e 19e4 cbbd 759f a83c 6ccc db3d
00000140: d427 fbbd b861 e03c 3bcc 313e f37e 1fbe
00000150: 2511 ebbc be2c 083d 5b24 0fbe f618 08be
00000160: 6b82 3ebe 6c7e f93d a5fd d0bd faf4 1b3e
00000170: 43a5 2b3e 80d6 a0bc 5979 39bb ecc3 b83d
00000180: 8b84 f1bd d1a9 e0bd 1658 b5bd 6c5c fa3d
00000190: ffa9 c1bd 1030 a83d ee21 ffbc 40ac 163e
000001a0: cc1f cdba 2951 5cbc e3d7 dfbd b19d 023e
000001b0: 9ec7 edbd b603 30be 6920 67bd 1c30 23bd
000001c0: c21e 08be fb63 2c3e a171 c63c 14bb b63d
000001d0: d826 173e 50ae 343e 95fa 1abd d178 863d
000001e0: 307c 9cbc 946a 763d b270 1bbd 0cf8 6dbc
000001f0: 0feb 3e3e a155 023e b32f 103e 5ac9 38be
00000200: b164 5c3d 7826 b73d 58f3 0cbe 4220 44bd
00000210: 8a21 a03d 9e59 b8bd 64b9 7ebd 7b09 86bd
00000220: 7e18 93bd 33e3 afbd 66b0 793d 2e8d a63d
00000230: 8db1 6ebd bbf3 623d 9464 f1bd cb74 e23d
00000240: 4d9f 093e 7bce 80bc cc72 e83d 3449 90bd
00000250: 8a95 a43c 051d f93d e6d9 01be f1cd febd
00000260: 121b 083d 5c0b 733d da2a 803d db37 1c3e
00000270: 434c 073d c10e ed3d 1db7 8ebd cc77 503c
00000280: 3eae 05be d008 71bd 48c7 a53d e175 6f3d
00000290: 251d 0c3e 64e9 4fbd bf47 0d3d ac44 ecbd
000002a0: a1ae 0a3e 1084 03be c8be b83d 3308 7abd
000002b0: 5641 ef3d 08d5 d4bd d6ea 08bd aee7 493d
000002c0: 458b 823d 9900 b1bd 6c98 abbc 4c85 853d
000002d0: cbda e7bd aa94 1fbd b0e1 b23b 42a0 2e3e
000002e0: d10a b03c 224e 91bd b8a8 a23b 124a f7bd
000002f0: 8370 9b3d 3d14 26be 4dba 1fbe 8d75 16bc
00000300: 5f1f 7dbd 9d77 22be 77a8 ce3d 51aa 2b3e
00000310: 32ef 623d 9087 31be 7fe5 bcbc 70a4 b3bd
00000320: 6e39 eb3d d327 813d 3f33 283e 4085 e53c
00000330: 2314 36b8 ed79 303d 18f9 b1bd 7c45 b2bd
00000340: a45e a03d b05d 1f3e cccf 2b3d fa01 e5bd
00000350: f0d7 84bd 18d5 25be 7ffa 353d 5896 803d
00000360: 7edf 7bbd 727b ac3d 2beb 06be 40c7 51bd
00000370: cc1c 0bbc 6745 31be 2fca 043e d7ec 25be
00000380: fcd3 113d 8a31 f9bd d2f8 efbd 3931 0fbe
00000390: f232 8cbd b825 693d 4175 26be 5072 a1bc
000003a0: e1c4 dfbd 0e79 35bd 9641 e3bd 4fc4 c23d
000003b0: f625 8b3c 6559 413b 6d38 3a3e 1c02 143e
000003c0: 0f5a 86bc 8dd8 753d e21f f3bd 2a5c e33d
000003d0: d381 8b3d 5d56 a93d 4cb3 2ebe 785b 943d
000003e0: fe7a 0cbe c86d 043e 72e6 e8bd 4ae9 2abc
000003f0: b912 f6bd 8609 9f3c 00f6 e53c 1a62 913c
-0.076250635 0.17301963 0.15986635 0.114772685 0.12819074 0.045740534 -0.13510406 -0.047715813
-0.12993278 0.09732898 0.1176355 0.054164086 0.12237871 -0.02731414 0.08161915 -0.015240138
-0.021301439 -0.109425955 -0.11232123 0.00979049 -0.089277595 0.025822384 -0.08054146 -0.01903703
-0.1306391 -0.13231891 0.07463194 0.131741 0.010744447 0.03997887 0.053732008 0.13709286
-0.01146738 0.16537309 0.013466861 0.11003095 -0.0032148992 -0.05668391 0.00865831 -0.1551109
0.027177848 -0.030980581 0.06077388 -0.16048989 0.13473144 -0.035397135 -0.010297632 0.036178056
0.14271212 0.15584253 -0.12928924 0.1621699 -0.11120367 -0.10139115 -0.023278411 0.028425211
0.14541367 0.1517768 -0.11157782 0.071976185 -0.105170846 0.05354495 -0.014900804 -0.004865387
-0.012776192 0.08697383 -0.113081485 -0.09546217 0.14211631 -0.09932211 0.16818129 -0.1234819
0.1634395 0.1572307 -0.009519346 -0.10339205 0.14017399 -0.099556156 0.020583848 0.1073235
-0.12263456 0.027390346 0.17363064 -0.15575771 -0.028694699 0.033245794 -0.13978712 -0.13290772
-0.18604438 0.12182316 -0.10204629 0.1523017 0.16762261 -0.019633532 -0.0028301089 0.09021744
-0.11792859 -0.1096989 -0.08854692 0.12224659 -0.09456252 0.08212292 -0.031144109 0.14714146
-0.0015649735 -0.013447084 -0.10929849 0.12755467 -0.116103396 -0.17188916 -0.056427393 -0.039840803
-0.13292983 0.16835015 0.024224104 0.08922401 0.14760911 0.1764462 -0.03783663 0.06566013
-0.019102186 0.060160235 -0.03794927 -0.014524471 0.18644355 0.12727977 0.14080696 -0.1804556
0.053806964 0.08942884 -0.13764703 -0.047882326 0.07818897 -0.09001468 -0.06218852 -0.06544777
-0.07182406 -0.08588257 0.060959242 0.08132397 -0.058274794 0.05540822 -0.11786762 0.11057433
0.13439675 -0.015723458 0.11350021 -0.070452124 0.020090837 0.12163738 -0.12680778 -0.12441624
0.03322894 0.059337005 0.06258173 0.15255682 0.033031713 0.1157508 -0.0696852 0.012723874
-0.1305475 -0.058846295 0.080946505 0.058462027 0.13682993 -0.050759688 0.03449225 -0.115365356
0.13543178 -0.12843347 0.09020764 -0.061042976 0.11682384 -0.10392195 -0.033427082 0.049293213
0.0637422 -0.08642692 -0.020946704 0.06519565 -0.11321028 -0.038960136 0.005459033 0.17053321
0.021489533 -0.07094981 0.0049639605 -0.12074675 0.07589819 -0.16218658 -0.15598412 -0.0091833
-0.061797496 -0.15865941 0.10090726 0.1676419 0.055403896 -0.17336869 -0.023058651 -0.08771598
0.11485563 0.06306424 0.16425799 0.02801764 -4.3410935e-05 0.043085027 -0.08690089 -0.08704659
0.07830551 0.15563083 0.041946217 -0.111820176 -0.06486499 -0.1619457 0.044428345 0.06278676
-0.061492436 0.08421983 -0.13175647 -0.05121541 -0.008490752 -0.17311631 0.12967752 -0.16203628
0.035602555 -0.12167652 -0.117173806 -0.1398362 -0.068456545 0.056920737 -0.16255666 -0.019707829
-0.109262235 -0.0443049 -0.11096494 0.09510099 0.016985875 0.0029502746 0.18185587 0.1445393
-0.016400365 0.060020972 -0.118713155 0.11101563 0.068118714 0.082684256 -0.17060584 0.07244009
-0.13718793 0.12932503 -0.11372079 -0.010431597 -0.1201529 0.01941372 0.028071404 0.017746974

bi_lstm.weight_hh_l0_reverse f4 [128, 32]
00000000: f2db fdbd ab7c 1cbe 80c9 033e b74d 943d
00000010: f45e e2bc afad f8bc fc13 30be d716 93bc
00000020: 0f35 653d da26 343e 3629 383d accd 353e
00000030: ec35 c6bd 34ad b7bd 9e12 3c3d e703 a7bd
00000040: cc6f 973d b0bb 0b3d 7f4c 2e3d 759b 97bd
00000050: 5134 143e 3c83 16be 6de6 243e 6b7c 9a3d
00000060: ae8c 40bd e929 3ebd b177 293c f67c 8dbd
00000070: bdc6 f43d ed89 23be 4678 a23d cf30 b33d
00000080: 13a7 21be 22d6 db3d 694f ca3d 1f64 eebd
00000090: 5cb1 b1bc c92d 1fbe 8be1 963d 4615 0a3c
000000a0: 2982 f03c 9675 103e a277 1abe 44fd 4c3d
000000b0: 6aea d5bd d469 fd3c 1395 9cbd 0335 1d3e
000000c0: 7390 fbbd 0322 ac3d 9734 75bd ae2b 843d
000000d0: bbfd 383d e34f e4bd 066e 193e 4d6e 04be
000000e0: d078 50bd 130e b33d 0a91 1ebe 6c8c 0e3e
000000f0: ad2c 79bd 100b 35be 548a a5bd 8e1e eb3d
00000100: 5ae0 aebd e30d cd3d f5e0 e93d 60e5 193e
00000110: 2973 b5bc 43e7 133e 858e 023e d770 ba3d
00000120: 4aa6 9f3c 3fbe ed3d 841f 733d bee7 fe3d
00000130: 334c 023d faed a33d e9cb e63d 99c9 123e
00000140: 8032 103e 9f88 25be 5ee7 01be 6314 473d
00000150: 3a80 d6bb f954 703d 0444 9bbd e514 4e3b
00000160: 05c8 02bd ad68 9abd a7ca a8bd c930 91bd
00000170: 4f34 80bd 7279 103d 636e df3d 575e 1c3d
00000180: 79b4 1dbd 7bc4 ad3d e2e1 12bd 6a8f dc3d
00000190: ebe4 353e 9303 2ebd 9dc4 0e3e 06ae a4bd
000001a0: 181c 2fbe ae76 0f3e 552f bf3c f39a 68bd
000001b0: 5d91 ff3d 183b 76bd 871c afbd a87c 03be
000001c0: 8852 833d da38 46bd f5fa 0c3e 88d3 27be
000001d0: ed50 0d3e 60d4 d13d 80b6 493d 40eb f2bc
000001e0: ece0 febc 27f8 913d 7e5d 3fbd 9a44 22bd
000001f0: c545 0abe ef51 c63d c7c8 d43d 7b8f 053e
00000200: a951 18be 69eb 853d b464 33be acca d5bd
00000210: b685 dc3d e811 d2bd 9c8e 073e 1765 05bd
00000220: 1d94 febd bb53 233d 2563 26be 5e88 3a3d
00000230: 90f5 f23c 9fd1 afbb e755 14be b541 1bbe
00000240: c3a9 a0bd eab5 b73c e912 a1bc 7a7b 5a3d
00000250: 418f 0c3e dab8 f0bd ab77 083e 2218 05be
00000260: 74e4 223e ae78 1d3e 751b d83c f23e c4bd
00000270: a429 adbb fec8 283e 0ce3 e63c 2a3c 9e3d
00000280: 1916 263e b21d b8bc f76b c43d b0db 05be
00000290: 7735 1a3e f0d2 9cbd 7964 1fbe 93fb 0c3e
000002a0: 22e0 49bc 6b03 d03d 948f 1e3c fb9a 0c3e
000002b0: a780 873b eff9 113e 6808 bebd e36e 09be
000002c0: 55c1 8d3d 426c d33d 9fa6 823d 9e53 09be
000002d0: c64b 5e3d 2fa0 9e3d abfb 9fbd eff7 0b3e
000002e0: aacb d5bd cf05 1abc a7d1 4bbd c536 25be
000002f0: 1d26 d43d 175d c4ba 9629 a8bd 1d21 c7bd
00000300: 1b9c 24bd 0e5d 1cbe e011 3dbd 8d63 22be
00000310: c5e6 2ebd 0959 ff3d c6d8 12be 9a20 0abe
00000320: eb4c 273e fea7 d1bd de68 09be c1c6 3bbd
00000330: 54c8 02bb 1cc9 303e 6ccd a2bd 0ca1 06be
00000340: f5f0 1abe ad81 e3bc 0276 033e f0b2 613d
00000350: 230e 55bd 830c 9b3d f689 24be a2a5 05be
00000360: 931b cdbb d890 c53d a9bb 7e3b 69c1 143e
00000370: a489 d33c 229d 9b3c a54a 863d 2497 eebd
00000380: 253e f23d 6c3f 33be ac72 b5bd dd4c 1bbe
00000390: de4d 85bd 0b2c 4e3d 1ab8 52bd f76a dcbd
000003a0: 768b 5fbc dfb5 b43d af1b b33c 345a 70bb
000003b0: fc8e edbb f5be 663b e722 26be 4d16 e5bd
000003c0: d429 22be f548 953c c691 2c3e ef9d 08be
000003d0: 6ac1 f6ba 11e6 cabd 2bef 9cbd af50 cebd
000003e0: f32d b13d 35cf 54bd 36a4 dcbd 5ab0 8abd
000003f0: 125c 823c 5ec9 1ebe aa48 283e cd88 0ebe
-0.12395467 -0.15281932 0.12869835 0.072413854 -0.027633168 -0.030356256 -0.17195123 -0.017955227
0.055958804 0.17592946 0.044961177 0.17754239 -0.096782535 -0.08968583 0.045916192 -0.08155041
0.073943704 0.03411454 0.04255342 -0.07402698 0.14473082 -0.146985 0.16103525 0.07543262
-0.047009163 -0.046426687 0.010343478 -0.069086 0.11951969 -0.15970583 0.079330966 0.08749544
-0.1578639 0.10734202 0.098784275 -0.1164019 -0.021691017 -0.1554481 0.07367238 0.008427924
0.02935894 0.14107355 -0.15084699 0.05004622 -0.104451016 0.030934252 -0.07645621 0.15352254
-0.12283411 0.08404925 -0.059864607 0.06453644 0.04516385 -0.1114805 0.14983377 -0.12932701
-0.050896466 0.08742919 -0.15485016 0.13920754 -0.06083362 -0.17680001 -0.080830246 0.11480437
-0.085388854 0.10012414 0.1141986 0.15028906 -0.02214964 0.14443688 0.1274968 0.09103554
0.019488472 0.11608552 0.059356228 0.12446545 0.03181095 0.08004375 0.112693615 0.14334716
0.14081764 -0.16165398 -0.12685916 0.048603427 -0.0065460475 0.058674786 -0.07581332 0.003144556
-0.031929035 -0.075394966 -0.08241778 -0.07089383 -0.06259977 0.03527207 0.109097265 0.038175907
-0.03850219 0.08484741 -0.03585995 0.107695416 0.17763107 -0.042483877 0.1394219 -0.08041005
-0.1710056 0.14010116 0.023338 -0.056788396 0.12478898 -0.06011495 -0.08550363 -0.12840521
0.06412226 -0.04839406 0.13767608 -0.16389287 0.13800402 0.102455854 0.04924631 -0.029653192
-0.03111311 0.071274094 -0.04672002 -0.039616205 -0.13503177 0.09683596 0.10389858 0.13043015
-0.14874901 0.065390415 -0.17518884 -0.10439047 0.10767691 -0.102573216 0.13237995 -0.03256711
-0.12430594 0.039874773 -0.16248758 0.045540206 0.029658109 -0.005365565 -0.14485894 -0.15161784
-0.078448795 0.02242561 -0.019662337 0.053340413 0.13726522 -0.11754008 0.133269 -0.12997487
0.1590746 0.15378067 0.02638028 -0.09582318 -0.005284505 0.16482922 0.028184436 0.07726319
0.16219367 -0.022475097 0.09590905 -0.13072085 0.15059458 -0.07657421 -0.15565671 0.13767843
-0.012321504 0.10156902 0.009677786 0.13730995 0.0041352096 0.14255498 -0.09278947 -0.13421206
0.06921641 0.10323383 0.06379437 -0.13410804 0.054271482 0.07745396 -0.07811674 0.13668798
-0.104392365 -0.009400799 -0.049760487 -0.16134174 0.10358832 -0.0014981356 -0.08211057 -0.09723113
-0.040187936 -0.15269873 -0.046159625 -0.15858288 -0.042700548 0.12468154 -0.14340505 -0.13488999
0.16337936 -0.1023712 -0.1341891 -0.045843843 -0.001995583 0.17264217 -0.07949337 -0.13147372
-0.1513098 -0.027771795 0.12837985 0.05510229 -0.052015435 0.07570746 -0.16068253 -0.13051465
-0.0062593906 0.096467674 0.0038869178 0.14526905 0.025822468 0.018995825 0.06557206 -0.116499215
0.118282594 -0.17504662 -0.088597625 -0.1516604 -0.065089926 0.05033497 -0.051445104 -0.107625894
-0.01364409 0.08823752 0.021863787 -0.003667486 -0.007249711 0.0035209034 -0.16224252 -0.11185894
-0.15836269 0.018223265 0.16852483 -0.13341497 -0.0018825952 -0.09907163 -0.07662805 -0.10073983
0.08651342 -0.05195542 -0.10773508 -0.06771918 0.015913043 -0.15506503 0.16433969 -0.13919373

bi_lstm.bias_ih_l0_reverse f4 [128]
00000000: 4a20 82bd 7e11 103e 054d fdbd 3816 ef3d
00000010: 5112 5f3d c74a 92bc eb3b 203e 53b0 f93d
00000020: ff23 5a3d 9851 06be fb3d b7bd 86c1 09be
00000030: 0cbc 133e 8289 92ba c5a1 34be d637 ee3d
00000040: e809 0dbe 1b06 23be 4158 2e3e db76 8fbd
00000050: ccf7 8e3d fb78 01be 2b3e f8bd 293e 7f3d
00000060: 0be6 0bbe 2359 16be c197 b4bc c57c 383d
00000070: b128 a43d 2cf0 0d3e 3bb0 083d 34cc 89bd
00000080: 0eb7 d7bd 453a d3bd f5cc f4bd 9204 f8bb
00000090: 7a27 243e 2d55 0fbe 2bdd 2bbe 0aa6 fcbc
000000a0: 262c a93d 9ffb 823d 4a2e 003d 61f6 003e
000000b0: 343a ef3d d063 f73d 07d5 fdbc 8500 bbbd
000000c0: 51b9 fa3d a219 fc3d 26e4 273e 7bdc 0c3e
000000d0: baf6 633d 2123 bd3d 6643 13bd cedd ef3d
000000e0: 7a66 573c 065c 043e e7bd 913d f191 bd3d
000000f0: bd48 813d ddca 6d3d 3885 0cbd adf3 fbbd
00000100: b6f8 d0bc 7579 bebd fcfe 07be 7f07 cc3b
00000110: 31a6 03be 9cf5 273e 4bb7 893d 88e6 98bd
00000120: 9cf1 00bd 6bcd 5cbd 9340 203e 99e7 35be
00000130: 83d5 f23d e891 0f3e b941 07be 7fa8 bfbd
00000140: af33 90bd 7156 833d ff8c d33d 512f f93d
00000150: 968c 54bd 1920 8c3b 6204 37be c3d3 aabd
00000160: 3716 a0bb a06c 0cbe 5458 a83d 1d06 2c3e
00000170: 0129 a53d 6f11 aabd 5733 e1bc 35e7 07be
00000180: 94d6 b23a 2703 f13c e427 2cbe df23 c6bd
00000190: 1b79 b9bd fc8b cdbb 2171 ae3d 8e88 cf3d
000001a0: 584b 5dbd a688 7d3d 6319 f9bd deec a5bd
000001b0: 7e47 cf3b dd9e 093e 4be4 123d 24e4 323c
000001c0: 43c0 76bd 214b 1cbc 9108 c0bb 3a65 d0bd
000001d0: 5846 0abe 2a87 533d 0fb4 763d 8d22 bdbd
000001e0: 92a0 f6bd 397d 833d 4023 0ebe 589e 2a3e
000001f0: f71d 523c 0281 143e e1b4 51bd fffc 97bd
-0.06353815 0.14069173 -0.12368206 0.1167416 0.054460827 -0.017857922 0.15647857 0.12191834
0.053256985 -0.13117063 -0.08947369 -0.1345273 0.14427203 -0.0011179897 -0.17639835 0.116317436
-0.1377331 -0.15920298 0.17025854 -0.07005092 0.06980857 -0.12643807 -0.121212326 0.06231514
-0.13661973 -0.1468244 -0.022045018 0.045040864 0.08015574 0.1386115 0.03337119 -0.06728402
-0.10532962 -0.103138484 -0.11953155 -0.007568904 0.16030684 -0.13997336 -0.16783588 -0.030840892
0.08260374 0.06395649 0.031294145 0.12593986 0.11681023 0.120795846 -0.030985368 -0.091309585
0.122423775 0.123095766 0.16395625 0.13755982 0.05565522 0.09235216 -0.035952948 0.11712228
0.013146991 0.12925729 0.07116299 0.09256352 0.06312702 0.058054794 -0.034306735 -0.12302337
-0.02550922 -0.0930051 -0.13280863 0.0062264795 -0.12856366 0.16402286 0.067244135 -0.07465845
-0.031480417 -0.05390684 0.15649633 -0.17764129 0.118571304 0.14020503 -0.13208665 -0.0935831
-0.07041108 0.06412972 0.10329627 0.12167228 -0.051891886 0.0042762873 -0.17872766 -0.083411716
-0.0048854607 -0.13713312 0.08219972 0.16799207 0.080644615 -0.083041064 -0.027490301 -0.13271792
0.0013644272 0.029420448 -0.16812092 -0.096748106 -0.09056302 -0.006272791 0.085176714 0.101334676
-0.05402693 0.061897896 -0.12163045 -0.081018195 0.006325661 0.13439508 0.03586225 0.010918651
-0.06024195 -0.0095393965 -0.005860396 -0.101755574 -0.13503397 0.051642574 0.06023031 -0.09235106
-0.12042345 0.06420369 -0.13880634 0.16661966 0.012824527 0.14502338 -0.05119789 -0.07421302

bi_lstm.bias_hh_l0_reverse f4 [128]
00000000: bd12 12be 63a2 14be 5031 a73d c8e2 053d
00000010: 878e 2dbe 384a dc3d 8a44 2cbe c3e2 073e
00000020: f095 8fbd 1483 913d a1e8 8cbd 2c72 b7bd
00000030: 706d dabd 13c6 1d3d bec2 bcbd 4da7 5fbd
00000040: 1c2e f4bb b8cd 0b3e 61d6 1dbe 84f0 dc3d
00000050: 659e 003e a2a0 09bd 66fe 1bbe 48c7 74bd
00000060: 8d85 73bd c47d 0a3e 61f3 c6bd 322c 643c
00000070: 7b30 8fbd 4881 c4bd 7ee9 153e 2231 f13d
00000080: 8dc0 7abc 70d7 5d3d 33b5 1b3e f3ce 423d
00000090: e824 d43c c02f 40bd 37e0 23be 3953 473a
000000a0: 9799 203e 4190 30bd 0e0a fabd 3201 103e
000000b0: 65e3 c8bd 59ae 40bd c8c3 0f3e 2f47 29bd
000000c0: 14a0 8abd 0a76 a63c ee0a 4a3c 0be0 d2bd
000000d0: 725b 183d c6a3 a8bd babb 223e a591 46bc
000000e0: b74f aa3d c83c 95bd a46a 503d 95ce 883d
000000f0: 6736 03be 18f6 1f3e 203a 02be 7b6f b3bd
00000100: a00a 373e 20c9 debb 5ed7 42bd 6cf6 e53d
00000110: 01cb 44bc 3944 2a3e f122 283e ea23 39be
00000120: e018 8a3c 5519 6fbc 98e2 6fbd 789f 523c
00000130: e313 eebd 35af b73d ae6c a93d 1467 c23d
00000140: 7d9b c2bd ea06 243e 7071 b9bd 32cf 13bc
00000150: 64c7 2c3d ee56 adbd 7a96 e03c 0474 b13d
00000160: 8cb0 c13d ac1c 033e c1c7 143e a0f7 1c3e
00000170: b314 c23d d141 cebd 7b56 763c d980 6338
00000180: d21f ac3d 866b cb3d 19f0 2f3e 216f 51bd
00000190: ec2b d4bd 2f92 4db9 d63f 873d d4e5 353e
000001a0: 6fb4 99bd 9202 f3bd aeb3 243e a61e 31be
000001b0: bdeb 0dbd 5802 ec3d 8c7f a0bd 944d 333d
000001c0: c5eb 11bd 5df8 03be ac26 27bc 2cf3 58bc
000001d0: 0241 2f3e b0bf 1bbe 6ede c13d 47f2 853d
000001e0: 8dc8 b2ba 651a d93d 786f a9bd 7a3f 1a3e
000001f0: 8fa3 f7bd d28a 86bc 16d5 98bc e381 29bd
-0.1426496 -0.1451507 0.081637025 0.03268698 -0.16948901 0.107563436 -0.1682302 0.13270096
-0.0701102 0.07105079 -0.06880308 -0.089573234 -0.10665405 0.038518976 -0.092168316 -0.05460291
-0.0074517857 0.13652694 -0.1541381 0.10788062 0.12560423 -0.033600457 -0.15233764 -0.059760362
-0.059453536 0.13524538 -0.097143896 0.013926553 -0.06991669 -0.09594971 0.14639851 0.117769495
-0.015304697 0.054160535 0.15205841 0.047560643 0.025896505 -0.046920538 -0.160035 0.00076036487
0.1568359 -0.04310632 -0.12208949 0.14062956 -0.09808997 -0.04704127 0.14039528 -0.04132765
-0.06768814 0.020319957 0.012331707 -0.10296639 0.037196584 -0.08234362 0.15891925 -0.012119685
0.08315986 -0.07286984 0.05088295 0.066800274 -0.12813722 0.15621221 -0.12717485 -0.087614976
0.17875147 -0.0067988783 -0.04756867 0.11228642 -0.0120112905 0.16627587 0.16419579 -0.18080106
0.016857564 -0.014593442 -0.058565706 0.012855403 -0.11624887 0.08968965 0.08272682 0.09492317
-0.09502313 0.16018263 -0.090548396 -0.009021567 0.04218234 -0.08463846 0.027415503 0.08664706
0.09457502 0.12803906 0.14529325 0.15328836 0.09476604 -0.10071147 0.015035267 5.4241016e-05
0.08404507 0.09932618 0.17181434 -0.05113137 -0.1035994 -0.00019604781 0.066039726 0.17763454
-0.07505118 -0.118657246 0.16084167 -0.17296848 -0.034648646 0.115238845 -0.07836828 0.043775156
-0.035625238 -0.12887712 -0.010202091 -0.01324157 0.17114642 -0.15209842 0.09466253 0.06540351
-0.0013640091 0.106007375 -0.08273214 0.15063277 -0.12091743 -0.016423617 -0.018656295 -0.041383635

output.weight f4 [1, 2048]
00000000: 870e a6bb 6775 80bc e36c 423c 28cd 3f3c
00000010: b556 38bc ee19 013c 9e2d aeba 4a22 acbc
00000020: 46c7 613c 2ada a6bc 1f62 4ebc 63ba e7bb
00000030: 2517 b5bb ed65 07bc ae73 8cbc 78a8 e1bb
00000040: 01a7 ca3c 80ce 5ebb 2315 8d3c ef19 723c
00000050: ad9b e138 3c6f 833b 4894 b53c 4e45 b3bc
00000060: 6653 f7bb 7e80 903c f4bf bb3c c66f 50bc
00000070: 5474 a03c 470f ea3b 6847 b73b 0773 56bb
00000080: 126a c93c b25f f2bb 1ebd 86ba 6d3a 3b3c
00000090: 57cd b3bc 3a64 b63c 580d c4bb 0a66 c1bc
000000a0: 28cc a23b dcad 82bc 75dc 903c 1c9c 8cbc
000000b0: ccaf e53a 7abf 09bb 06b5 863c 80f8 92bb
000000c0: 4087 adbb 18a0 5c3c 7dfe 883b 4427 913b
000000d0: 9d37 0b3c ec56 3fbc a2fc 583c c833 1bbc
000000e0: dca7 0cbc eac5 2c3c 9268 783c d530 a23c
000000f0: 8c9c c23b 499a 823c 25b5 003c 11d7 e33b
00000100: 2dec 7bbc 7bff 8a3c 4253 7339 ac38 7d3c
00000110: 4b12 09bc 1a54 a8bc 9573 85bc a9bf c4bc
00000120: 8856 02bc fdb9 17bc e407 d4bb 4a2d 20bb
00000130: 62f8 983c 7f25 cb3b 6d44 85bb c0a1 553c
00000140: 9f33 963a cca8 1e3b 3544 b13b 80ea 2fbc
00000150: 1275 a03c a5d2 99bb c88b 273b 23ce 14bb
00000160: e768 943b 4386 5e3c b660 2abc e2ad 913c
00000170: 6362 d63c 7d77 9f3c 3021 963c e0bb 8c3c
00000180: b1e1 b63c 7174 c3bc 4589 babc d50f d5b9
00000190: 7d7e a0bc d0d0 4bbc 70d0 c53b 712d 27bc
000001a0: 21e5 833c a8db cebc 737a 5bbb 0a54 0cbc
000001b0: 9794 8d3b 8a84 3e3c a4b0 193c 62bd be3c
000001c0: 406c f6bb 66c2 8bbc c853 b3bc cc4b c13c
000001d0: 6deb 1c3c 89b9 143c d096 b7bc 76d7 f0bb
000001e0: 28c6 51bc cb03 61bb fafe d63a 166f 873c
000001f0: 6337 36bc 0d30 823c 3ff2 263c b153 6dbc
00000200: 6fe8 8a3c 9ca8 8e3c 8abd c5bc 101d 5d3c
00000210: dbc6 cdba 7a60 b23a 5613 91bb c0b5 343c
00000220: 59cb 42bc 168f 953c d745 d5bb 9881 7bbb
00000230: ce17 093c 295e fd3b 7a0c b93c ebaa 44bc
00000240: 1ddd b8ba 7873 a23c cd24 8bbc 05f4 813c
00000250: 77dc 2d3c 9b90 aa3b 5528 9bbb 2bd1 0c3c
00000260: 8cf8 7bbc 8724 7a3c 26f7 a33b 0b52 153c
00000270: 5bc1 cf3c f130 893b adb6 48bc 54b8 863b
00000280: e5a6 d6bb 7310 95bc 4bbd aebc f240 94bc
00000290: 4aa6 ad3a 74a8 3abc 33df bf3b 1232 d53b
000002a0: 76ba bf3b f14f 0b3b 9ed7 1dbb 6e80 13bc
000002b0: 2c05 27bb 726d 053c 9615 943c d18e e3bb
000002c0: 1f45 dc3b 510e 40bc d535 5abc e5b6 9a3c
000002d0: 513f 903c c373 c63c 78cf b83b e4f2 753c
000002e0: 946e 823c 740b f13b d8bf 7c3c 5cab cf3c
000002f0: 7370 01bc e5ae 88bb c927 e8bc 9a4a 823c
00000300: d37f 313c a6fe d43b 295d 6c3b aa2d 493c
00000310: 483f 993c b6f5 59bc fb5c 9dbc b2e3 88bb
00000320: af0a 8abc 0fd5 863b 14ea 023c a32d a03b
00000330: 5dee 84bc ad5f 92bc ab57 75bc 918e 303c
00000340: bea0 82bc eeec 9a3c 949d 4b3c e284 fcbb
00000350: d584 c53c ca65 343c 1484 8e3c e624 163c
00000360: 35cb d9bb a74b e0ba 5011 f5bb 0dc0 9e3b
00000370: 3ee8 613c b277 be3c 10bd 553b e2f4 ba3c
00000380: c5a0 86bc e675 68bc 80d5 403a 855a 1abc
00000390: 6521 7fbc 50df cc3a cff3 b13c e193 85bc
000003a0: b344 2cbc 7fd3 823c 8704 8d3b dfd1 6cb8
000003b0: 4643 663c f4c1 3fbb 5785 98bc e22b 053c
000003c0: 7fc0 76bc 9dfa c43b 312f 3e3c c697 2bbc
000003d0: caab 543c 26c0 7bbc 277e a7bc 8257 023b
000003e0: ec9a 25bc b893 973c fc1b 813c ce7b 283b
000003f0: bea6 c73c 9885 8fbc 60d2 bbbc a22e 593c
-0.0050676498 -0.015680982 0.011866781 0.011706628 -0.011251141 0.007879717 -0.0013288741 -0.021012444
0.013780421 -0.0203677 -0.012596636 -0.0070717796 -0.0055264407 -0.008264047 -0.017145004 -0.006886538
0.024737837 -0.0033997595 0.017221993 0.014776691 0.00010757833 0.004011063 0.022165433 -0.021883633
-0.0075477837 0.017639395 0.022918679 -0.012721961 0.01958672 0.0071429345 0.005593229 -0.003272237
0.024586711 -0.0073966617 -0.001027975 0.011427504 -0.0219485 0.022264589 -0.005983036 -0.023608226
0.004968185 -0.015952043 0.017683247 -0.017164283 0.0017523705 -0.002101867 0.01644374 -0.00448519
-0.005295664 0.013465904 0.004180728 0.0044297297 0.008497146 -0.011678439 0.013243826 -0.009472795
-0.008584943 0.010545233 0.01516165 0.019798676 0.005939072 0.01594271 0.007855688 0.006953128
-0.015376133 0.016967526 0.00023205302 0.015455406 -0.008366178 -0.020547915 -0.016290465 -0.024017172
-0.007955201 -0.009260652 -0.006470667 -0.0024441057 0.018673126 0.0061995382 -0.004066995 0.0130390525
0.0011459476 0.0024209497 0.0054097422 -0.0107370615 0.019587073 -0.0046943002 0.0025565494 -0.0022705875
0.004529107 0.013581815 -0.010399034 0.01778311 0.026169961 0.019466156 0.018326372 0.01717943
0.022324415 -0.023859235 -0.022770533 -0.00040638322 -0.019591564 -0.0124399215 0.0060368106 -0.010203705
0.016100468 -0.025251225 -0.0033489733 -0.008564958 0.004320692 0.011628279 0.009380493 0.023283664
-0.0075202286 -0.01706047 -0.021890536 0.023595713 0.009577614 0.009077438 -0.02241078 -0.0073499037
-0.012803592 -0.0034334536 0.0016402893 0.016532462 -0.011121604 0.015892053 0.010189592 -0.014485286
0.016956536 0.017414384 -0.02413823 0.013495699 -0.0015699522 0.0013609075 -0.004427354 0.011029661
-0.011889302 0.018256705 -0.0065085697 -0.0038376804 0.008367492 0.007732172 0.022588957 -0.012003641
-0.0014103983 0.01983045 -0.016985321 0.015863428 0.010611645 0.0052052266 -0.0047350326 0.008594791
-0.015379082 0.015267498 0.0050038276 0.009113799 0.025360754 0.0041867425 -0.012250585 0.004111329
-0.006550657 -0.01819632 -0.021330496 -0.018097375 0.001324841 -0.011392701 0.005855465 0.006506213
0.0058510853 0.0021257366 -0.0024084817 -0.009002788 -0.002548526 0.00814377 0.0180767 -0.0069445153
0.006722107 -0.011722163 -0.013318499 0.018886039 0.017608317 0.024225121 0.0056399666 0.015011523
0.015921868 0.0073561016 0.0154265985 0.025350265 -0.007900345 -0.0041712397 -0.028339284 0.015904713
0.010833698 0.006500083 0.003606627 0.012278954 0.018706933 -0.013303211 -0.019209376 -0.004177534
-0.016850797 0.004114754 0.007990379 0.004888253 -0.016226942 -0.017867887 -0.014974515 0.010776178
-0.015945788 0.018911805 0.012427706 -0.0077062706 0.02411119 0.0110105965 0.017396964 0.009164071
-0.0066465386 -0.001711239 -0.0074788705 0.0048446716 0.013788281 0.023250435 0.003261391 0.022821847
-0.016434083 -0.014188265 0.0007356033 -0.009420996 -0.015571927 0.0015630517 0.021722702 -0.016305866
-0.010514426 0.01596999 0.004303518 -5.6462242e-05 0.014054125 -0.0029259892 -0.018618269 0.008128138
-0.015060543 0.0060113207 0.011607931 -0.010473197 0.012980411 -0.015365636 -0.020445896 0.0019888585
-0.010107737 0.018503055 0.015760414 0.002570856 0.024371501 -0.017519757 -0.022927463 0.013255747
