model_save/biRNN.pth (torch, 20923 bytes, 13 tensors)

batchNorm.weight f4 [3]
0	0x3f5fd3af	0.8743238
1	0x3f4583f2	0.7715446
2	0x3f8045e6	1.0021331

batchNorm.bias f4 [3]
0	0xbc0dba53	-0.00865038
1	0x3a47f2c2	0.00076274213
2	0x3b44aa0f	0.003000859

batchNorm.running_mean f4 [3]
0	0x40672348	3.6115284
1	0xbf641083	-0.89087695
2	0x3f17a5cb	0.59237355

batchNorm.running_var f4 [3]
0	0x3da442fe	0.0802059
1	0x40458481	3.0862124
2	0x3d761701	0.060080532

lstm.weight_ih_l0 f4 [32, 3]
0	0xbd8b5ce5	-0.068048276
1	0xbd98fbbd	-0.0746989
2	0xbceee13d	-0.029160136
3	0xbc5ae1ba	-0.0133594815
4	0x3e056278	0.13025844
5	0xbdb66cf7	-0.08907502
6	0x3d5f8c6c	0.054577276
7	0x3e0b4e6f	0.13604139
8	0xbd5bf2f1	-0.053698484
9	0xbd89672f	-0.06709134
10	0x3da30ff6	0.07962029
11	0x3ce3aa5d	0.027791196
12	0x3a964143	0.0011463541
13	0x3e16f1d6	0.1474069
14	0x3c279856	0.010229191
15	0xbdaa8b30	-0.08327329
16	0x3acef614	0.001578989
17	0x3d3794ef	0.04481977
18	0x3d3a97f9	0.04555509
19	0x3d9684e9	0.07349569
20	0x3c143c6a	0.009047607
21	0x3cb5e35c	0.02220314
22	0xbdf22c56	-0.11824863
23	0x3e00291e	0.12515685
24	0xbdc22771	-0.09480179
25	0x3b08fdb6	0.0020903177
26	0x3d2b015e	0.04174935
27	0xbce77746	-0.028255116
28	0x3dd9df02	0.106382385
29	0x3d8cf0fc	0.068819016
30	0x3e203efd	0.15649028
31	0x3d8d4457	0.068978004
32	0x3d373995	0.04473265
33	0x3d19cab9	0.037546847
34	0xbde4913c	-0.11160514
35	0x3c981b16	0.018567603
36	0x3d6efac0	0.058344603
37	0xbd4c879f	-0.049934026
38	0xbdb3101f	-0.08743309
39	0xbdd6d675	-0.10490123
40	0x3df80a27	0.121113114
41	0xbdf5a4c0	-0.11994314
42	0x3e339a25	0.1753927
43	0x3c6ad61a	0.014333272
44	0x3d46872f	0.048468765
45	0x3df4311b	0.119234286
46	0x3dea5a3b	0.11442991
47	0x3d4cacea	0.04996959
48	0xbe06c30e	-0.13160345
49	0x3c8a3d86	0.01687504
50	0xbda6780c	-0.08128366
51	0xbe123513	-0.14278059
52	0xbd81ada4	-0.063319474
53	0x3db382a6	0.087651536
54	0x3cd11c00	0.025526047
55	0x3e0a3885	0.13498123
56	0xbdbb13e2	-0.09134652
57	0x3daabbfb	0.08336636
58	0x3e0f9833	0.14022903
59	0xbdeeb63f	-0.116558544
60	0x3e231553	0.15926103
61	0x3daa4e65	0.08315734
62	0xbbc3c083	-0.005973877
63	0xbd5d6689	-0.054052863
64	0xbdc928c5	-0.09822229
65	0x3e10887b	0.14114563
66	0x3d61ac3c	0.055095896
67	0xbcbcdb7b	-0.023053875
68	0x3e2ab9c3	0.16672425
69	0xbdbc2e08	-0.09188467
70	0xbde0ef4a	-0.10983141
71	0xbda03d36	-0.07824175
72	0x3e27e048	0.1639415
73	0xbe00aab2	-0.12565115
74	0x3c71a4bf	0.014748751
75	0xbc27bee6	-0.010238385
76	0xbc0bd306	-0.008534199
77	0xbe1c0d80	-0.15239525
78	0x3dabe6e0	0.08393645
79	0xbc15dc15	-0.00914671
80	0xbe258bb3	-0.16166572
81	0xbc21544b	-0.009846757
82	0xbde5b759	-0.112166114
83	0x3d3fe6fd	0.046851147
84	0x3d98b5ce	0.074565515
85	0xbd8f06f7	-0.0698375
86	0x3e15ac7f	0.14616583
87	0x3d4b7a2e	0.049677067
88	0xbe19d079	-0.15020932
89	0x3c897e60	0.016783893
90	0x3b5da011	0.003381733
91	0x3d8afebb	0.06786867
92	0xbe1ecc29	-0.15507568
93	0x3cdc944c	0.026926182
94	0xbd937384	-0.07199767
95	0x3cb7719d	0.022393042

lstm.weight_hh_l0 f4 [32, 32]
0	0xbdfdf73a	-0.1240067
1	0x3c7df4e7	0.015500284
2	0xbe1ca61d	-0.15297742
3	0x3d4349d4	0.04767783
4	0x3cf74d14	0.03018812
5	0x3e0ab49a	0.13545457
6	0x3e23b92e	0.15988609
7	0x3d57f821	0.05272687
8	0xbd886c26	-0.06661253
9	0xbd62b0d8	-0.055344433
10	0x3dcdd6cf	0.10050737
11	0x3dbf3549	0.09336335
12	0x3bce7de8	0.0063016303
13	0xbdf3f5c7	-0.11912113
14	0xbdc1b07a	-0.09457488
15	0x3cb56bfa	0.022146214
16	0x3d7a5ae0	0.06112182
17	0x3dda56b6	0.1066107
18	0x3dd90541	0.10596705
19	0x3dfbf9d1	0.12303508
20	0xb9d35705	-0.0004030989
21	0x3ddeacc4	0.10872796
22	0x3d8082c6	0.06274943
23	0x3e2ed42e	0.17073128
24	0x3dd9354d	0.106058694
25	0x3c3901f3	0.011291969
26	0x3d76a14d	0.060212422
27	0xbd4d86f7	-0.05017754
28	0xbe1c86f7	-0.1528586
29	0x3d899e3c	0.06719634
30	0x3e212c00	0.15739441
31	0x3d9cc29e	0.07654308
32	0x3ad8d653	0.0016543366
33	0xbe1dec21	-0.15422107
34	0xbe11e2a7	-0.14246617
35	0x3d79bd0c	0.060971305
36	0x3d4c5dda	0.04989419
37	0x3dd5d68a	0.10441311
38	0x3dceef92	0.10104288
39	0xbc1ede04	-0.009696487
40	0xbe1c8082	-0.15283397
41	0x3d90acf8	0.07064241
42	0xbe0ecb71	-0.13944794
43	0x3d469d9e	0.04849016
44	0xbc691155	-0.014225324
45	0x3db567ae	0.08857666
46	0x3e26ac04	0.16276556
47	0xbb4bc71d	-0.0031094023
48	0x3db67a9a	0.08910103
49	0x3be77e62	0.0070646266
50	0x3db4058e	0.08790122
51	0xbdad45d2	-0.08460583
52	0xbe2c3a75	-0.16819175
53	0xbd84456c	-0.06458554
54	0x3c9a02af	0.018800108
55	0x3db3beee	0.08776651
56	0x3df8a197	0.12140196
57	0xbb1fabfe	-0.002436399
58	0x3d8d427e	0.06897448
59	0x3b84d8cf	0.004054166
60	0x3e1f5ba0	0.15562296
61	0x3d8007a2	0.06251456
62	0x3c1426f1	0.0090424875
63	0xbbb20574	-0.005432779
64	0x3d43f477	0.04784056
65	0xbd30211c	-0.043000326
66	0x3e2143e9	0.15748562
67	0x3dccc042	0.09997608
68	0xbd60a9a9	-0.0548493
69	0x3d90e816	0.07075517
70	0xbda4f149	-0.08053834
71	0xbe16f6d2	-0.14742592
72	0xbe20de10	-0.1570971
73	0xbe22181b	-0.15829508
74	0xbd95abed	-0.07308183
75	0xbd9d8fc4	-0.07693437
76	0xbd2749e5	-0.040841956
77	0x3e179d7b	0.14806168
78	0x3ce1b95e	0.02755421
79	0x3db0588e	0.086106405
80	0x3d253cf8	0.040341347
81	0x3d72c36d	0.059268404
82	0xbc1c1f6b	-0.009528975
83	0x3c118874	0.008882631
84	0x3e28f9e3	0.16501574
85	0x3e087996	0.13327631
86	0xbb9aff86	-0.004730168
87	0x3d491ee3	0.04910172
88	0x3db818f1	0.08989132
89	0x3db78c20	0.089622736
90	0x3dd11c51	0.10210479
91	0xbd81e120	-0.06341767
92	0x3d867e73	0.06567087
93	0x3a9706c0	0.0011522397
94	0x3d9a3fda	0.0753171
95	0xbd0f3f04	-0.034972206
96	0x3ddc4d57	0.10756939
97	0xbddc79fd	-0.10765455
98	0x3ddd2dfd	0.10799787
99	0x3d849005	0.06472782
100	0x3dc0d069	0.09414751
101	0x3ad5623c	0.0016279886
102	0xbd9c97f3	-0.076461695
103	0xbba9573c	-0.00516787
104	0x3db84378	0.08997244
105	0x3d3e2252	0.04641945
106	0xbe2504b1	-0.16115071
107	0xbe1e8279	-0.15479459
108	0x3e2d4d63	0.16924052
109	0xbdc3c54b	-0.09559115
110	0xbd4378ff	-0.047722813
111	0xbddbc437	-0.107307844
112	0x3d95ef6a	0.07321055
113	0xbe18da67	-0.14927064
114	0x3de31bf3	0.11089315
115	0xbdd8e65a	-0.10590811
116	0xbe39d583	-0.18147855
117	0xbcd6d898	-0.026226327
118	0x3d20a3c7	0.03921869
119	0xbd9c9647	-0.07645851
120	0x3d87f26a	0.06638034
121	0xbe1f2dd8	-0.15544832
122	0x3e1ba75e	0.15200564
123	0xbe1ab8a4	-0.15109497
124	0x3d42e6bb	0.047583323
125	0xbd236413	-0.03989036
126	0xbd54749c	-0.05186902
127	0x3e17f217	0.14838444
128	0x3e1807f2	0.14846781
129	0x3e0afaa1	0.1357217
130	0xbde18764	-0.11012152
131	0xbe0306d0	-0.12795568
132	0xbe1e53ff	-0.1546173
133	0x3dbb977b	0.09159752
134	0xbc401294	-0.011723179
135	0xbda4901d	-0.080353
136	0xbdb8ffca	-0.09033163
137	0x3db81fc5	0.089904346
138	0xbce7fd17	-0.028318925
139	0x3cdbfa26	0.026852679
140	0xbe0e988a	-0.13925377
141	0x3e242b49	0.16032137
142	0xbd23337a	-0.039844014
143	0x3d9ca98e	0.076495275
144	0xbe139bea	-0.14414945
145	0x3e0bcba4	0.13651901
146	0x3e0d4a2c	0.13797826
147	0xbdd0681b	-0.101761065
148	0xbd8c3d6c	-0.06847653
149	0xbde19a4c	-0.11015758
150	0x3e2b7edb	0.1674761
151	0x3dc717dc	0.09721348
152	0x3d9877e1	0.0744474
153	0x3d933036	0.0718693
154	0xbe0de9c4	-0.13858706
155	0xbda17062	-0.078827634
156	0xbdf80cdc	-0.12111828
157	0xbd3c010a	-0.04589943
158	0xbd4e29b0	-0.050332725
159	0x3dd61ee2	0.10455109
160	0x3dfa1dfb	0.122127496
161	0xbe1d08d1	-0.15335394
162	0xbb760f9a	-0.003754592
163	0xbe2521bb	-0.16126148
164	0xbdf15316	-0.117834255
165	0xbdad32b4	-0.084569365
166	0xbd99f1c9	-0.0751682
167	0xbd9a8fc4	-0.07546952
168	0x3e06e080	0.13171577
169	0xbe03e288	-0.12879384
170	0x3d7bd1fa	0.061479546
171	0xbd6a8a54	-0.057260826
172	0x3d2ea86d	0.042641092
173	0x3e142d6e	0.14470455
174	0x3df645d0	0.120250344
175	0x3ddb31ec	0.10702881
176	0xbd8a25c4	-0.067454845
177	0xbd3d83b9	-0.0462682
178	0xbda072c3	-0.07834389
179	0xbbce14b7	-0.0062890905
180	0x3d0b710b	0.034043353
181	0xbd9fd4e3	-0.07804277
182	0x3e092e72	0.13396624
183	0xbdfb649a	-0.122750476
184	0x3e277666	0.16353759
185	0x3d6e39c1	0.058160547
186	0xbd8922be	-0.0669608
187	0x3c71539f	0.0147294095
188	0x3c98f869	0.018673139
189	0xbd085f7a	-0.03329418
190	0x3e0e3770	0.13888335
191	0x3d9b46c1	0.075818546
192	0xbd317781	-0.04332686
193	0xbdd56a86	-0.10420708
194	0x3d98d98c	0.07463369
195	0xbe0946f5	-0.13405974
196	0x3d8e736b	0.06955608
197	0xbda4dbb4	-0.080497175
198	0x3e20b50d	0.15694065
199	0x3c75148c	0.014958512
200	0x3be3c992	0.0069515193
201	0xbce30c42	-0.027715806
202	0xbd3d76aa	-0.046255745
203	0x3d837d29	0.06420357
204	0x3df3513f	0.11880731
205	0x3e1dd1a3	0.15412001
206	0xbd0cc25e	-0.03436505
207	0x3d816ac7	0.06319194
208	0x3dfaa0a1	0.12237669
209	0x3e26a9ed	0.16275759
210	0xbe282ba7	-0.16422902
211	0xbbf64142	-0.0075151036
212	0xbde29273	-0.11063089
213	0x3e09eaf4	0.13468534
214	0x3e2d7c6d	0.16941996
215	0xbdd9c5bb	-0.10633417
216	0x3cc943d3	0.024568474
217	0x3dbccba9	0.092185326
218	0x3df7e624	0.12104443
219	0x3dfd873e	0.12379311
220	0xbd7f4ec8	-0.06233099
221	0x3d4a1adf	0.049342033
222	0x3b8a441d	0.0042195455
223	0x3d281f5d	0.041045535
224	0xbdb0699e	-0.08613895
225	0xbceab029	-0.028648453
226	0x3dd7ffbe	0.10546826
227	0x3e1399dd	0.14414163
228	0xbe0d1799	-0.13778533
229	0x3dee8e7a	0.11648269
230	0x3a763823	0.00093925203
231	0x3da74ec4	0.0816932
232	0x3dac8adf	0.08424925
233	0x3d39a001	0.045318607
234	0x3dcb99d9	0.099414535
235	0x3d8bf977	0.06834691
236	0xbcf81655	-0.030284086
237	0x3c937adc	0.01800292
238	0xbe166497	-0.1468681
239	0x3d25a696	0.04044207
240	0x3d6306c6	0.05542638
241	0x3dbb7f25	0.0915511
242	0x3da79285	0.08182243
243	0x3e17f5b6	0.14839825
244	0x3dd80e7c	0.10549638
245	0xbdef93f4	-0.11698142
246	0xbd046a38	-0.03232786
247	0x3dcd60ae	0.10028206
248	0x3df35c48	0.118828356
249	0xbde6047c	-0.11231324
250	0xbd5c8c4e	-0.053844742
251	0xbe050821	-0.12991382
252	0xbdb3a728	-0.08772117
253	0xbe0a8f35	-0.13531192
254	0x3d4f6e30	0.050642192
255	0x3ceb06d6	0.028689783

lstm.bias_ih_l0 f4 [32]
0	0x3e29451f	0.16530274
1	0xbe115925	-0.14194162
2	0xbdfae8e6	-0.12251453
3	0xbdce4c52	-0.10073151
4	0x3d54d01d	0.051956285
5	0x3d00ed23	0.03147615
6	0xbe13236f	-0.14368986
7	0x3db88f32	0.09011687
8	0x3d114bee	0.035472803
9	0xbcceeb6d	-0.025258744
10	0x3dff21ef	0.12457644
11	0x3d969892	0.07353319
12	0x3cfbf9bb	0.03075873
13	0x3d4d5268	0.050127417
14	0x3dd713f2	0.10501851
15	0xbe140aea	-0.14457288
16	0xbc99f995	-0.018795768
17	0x3da58290	0.080815434
18	0x3d2723c7	0.040805604
19	0xbd29b33b	-0.041430693
20	0x3e2b1ca7	0.16710149
21	0xbd7afa4f	-0.06127387
22	0xbcec07c2	-0.028812293
23	0xbdc459e6	-0.09587459
24	0x3c66c5f5	0.014085283
25	0x3c5eaecf	0.013591482
26	0xbda8e794	-0.08247295
27	0xbd36842e	-0.04455965
28	0xbe266fa9	-0.16253532
29	0x3d253dc1	0.040342096
30	0xbd99d8fa	-0.07512088
31	0xbd8ea863	-0.06965711

lstm.bias_hh_l0 f4 [32]
0	0xbd644a01	-0.055734638
1	0xbd79fc76	-0.06103178
2	0xbd9f1e7e	-0.07769488
3	0x3d5837a0	0.052787423
4	0x3dc638ff	0.0967884
5	0x3d966bc1	0.07344771
6	0xbe148da9	-0.14507164
7	0x3ceb5220	0.028725684
8	0x3d23d065	0.039993662
9	0x3e135779	0.14388837
10	0x3de9c3d1	0.11414302
11	0xbe1d2f72	-0.1535013
12	0x3df46ae4	0.1193445
13	0xbd892ffe	-0.06698607
14	0xbde789f0	-0.11305606
15	0xbe149eaa	-0.1451365
16	0x3c75a27e	0.014992354
17	0x3d130ca4	0.035900727
18	0x3df75a8d	0.12077818
19	0xbd64ec76	-0.05588957
20	0x3bbb970a	0.0057247924
21	0xbe27450e	-0.16334936
22	0x3e2b1d36	0.16710362
23	0x3de13117	0.10995691
24	0xbdb96ff5	-0.09054557
25	0xbd39a4c4	-0.04532315
26	0x3d81986f	0.063279025
27	0x3ccee157	0.025253935
28	0x3d94f9c3	0.07274201
29	0x3dae3d58	0.08507794
30	0x3e14361d	0.14473768
31	0xbd2f9b63	-0.042872798

lstm.weight_ih_l0_reverse f4 [32, 3]
0	0xbc732816	-0.0148411
1	0x3d08d4c0	0.03340602
2	0x3d8ce74a	0.068800524
3	0xbc7e2a43	-0.015513006
4	0x3d4136eb	0.047171514
5	0x3db71d2c	0.08941111
6	0x3c1521f1	0.009102331
7	0x3d9edf00	0.077573776
8	0x3d489703	0.04897214
9	0xbc7210be	-0.014774499
10	0xbe21e6d5	-0.15810712
11	0x3d838af1	0.06422985
12	0xbe1f8645	-0.15578564
13	0x3d5d5582	0.054036625
14	0xbc09f865	-0.008421038
15	0x3e2ee3ad	0.17079039
16	0x3dc9d626	0.09855299
17	0x3dbf38ef	0.09337031
18	0xbd64a8ea	-0.05582515
19	0xbcd7e8c3	-0.026356107
20	0xbd23b773	-0.039969873
21	0x3c2943f1	0.01033114
22	0xbdbb8655	-0.09156481
23	0x3def8b49	0.116964884
24	0xbdc192d1	-0.09451831
25	0xbda0be2d	-0.07848773
26	0xbdeb84e6	-0.11499958
27	0x3e2c11fe	0.16803738
28	0x3daaf72f	0.08347928
29	0x3df4599b	0.119311534
30	0x3cf77efc	0.030211918
31	0x3d1345b7	0.035955157
32	0x3e33d131	0.17560269
33	0x3e2975b3	0.16548805
34	0x3dc6b23d	0.09701965
35	0x3e073582	0.13204005
36	0xbd04e83a	-0.03244803
37	0x3db8a401	0.09015656
38	0x3aea2ef4	0.0017866776
39	0xbd820fce	-0.06350671
40	0x3cedc1f8	0.029023156
41	0x3ddfaed1	0.109220155
42	0x3c893c39	0.01675235
43	0xbd7f3adb	-0.06231199
44	0x3e183e95	0.14867623
45	0xbdc871fd	-0.097873665
46	0xbe0a0988	-0.13480198
47	0x3e1cf252	0.15326813
48	0x3db5a2f9	0.08868975
49	0x3d474359	0.048648212
50	0xbc091221	-0.008366139
51	0x3b9c7ff9	0.0047759977
52	0xbdc8bef4	-0.098020464
53	0xbd94bca1	-0.072625406
54	0x3d30c6f2	0.04315848
55	0x3cd4274c	0.025897644
56	0x3e257313	0.16157179
57	0x3d830f52	0.063994065
58	0x3e08bcf4	0.1335333
59	0x3d929237	0.071567945
60	0x3e2189e6	0.1577526
61	0xbcd869f4	-0.02641771
62	0x3e35ff8c	0.17773265
63	0x3d7c3511	0.061574046
64	0x3d785929	0.060631905
65	0xbd71ac6f	-0.059002336
66	0xbd1a96a0	-0.037741303
67	0xbe1d6f34	-0.15374452
68	0xbd8c24d3	-0.06842961
69	0xbd81d828	-0.06340057
70	0x3de98d5a	0.11403914
71	0x3e20c77f	0.15701102
72	0x3caf41ed	0.02139374
73	0x3c63ad4c	0.013896298
74	0x3ce2c0cc	0.027679823
75	0xbe1fa92d	-0.15591879
76	0x3cc28bd6	0.02374832
77	0xbd2be386	-0.04196503
78	0x3e12449f	0.1428399
79	0x3ded8431	0.11597479
80	0xbdb7a210	-0.08966458
81	0x3e1ffad5	0.15623029
82	0x3d80597d	0.062670685
83	0x3d00c156	0.03143438
84	0xbdf5478f	-0.11976539
85	0x3dc5c83d	0.09657333
86	0xbdcfe100	-0.10150337
87	0xbd1db083	-0.038498413
88	0x3dbf3dfa	0.09337993
89	0xbdead63a	-0.11466642
90	0x3d2c3c2e	0.04204958
91	0xbccfe0c2	-0.025375728
92	0x3e1d7ad9	0.15378894
93	0xbd9045e9	-0.07044584
94	0x3dac47bc	0.0841212
95	0xbcfbaf0f	-0.030723123

lstm.weight_hh_l0_reverse f4 [32, 32]
0	0x3e33d7cc	0.17562789
1	0x3e08a6e5	0.13344915
2	0xbe1e43f1	-0.15455605
3	0xbc2f5c95	-0.010703226
4	0x3d857bf4	0.06517783
5	0x3c95327d	0.018212551
6	0xbe2e68ff	-0.1703224
7	0xbe0485ba	-0.12941638
8	0xbd58cade	-0.052927844
9	0xbe2d0cb3	-0.16899376
10	0x3b7c07d8	0.0038456824
11	0x3c95436c	0.018220626
12	0x3cef9755	0.029246965
13	0x3e047fbb	0.1293935
14	0x3c0ca1af	0.00858347
15	0x3d39b050	0.04533416
16	0x3e25ae63	0.16179805
17	0x3daae68e	0.08344756
18	0xbd21b5c6	-0.039479993
19	0xbe15a5c8	-0.14614022
20	0xbc015ce9	-0.007895687
21	0xbd94ad36	-0.072596
22	0x3d69c466	0.057072066
23	0xbe04db33	-0.12974243
24	0x3e2f5df3	0.17125683
25	0xbdc2632e	-0.09491573
26	0x3e0252ad	0.12726851
27	0xbe1f8982	-0.15579799
28	0x3dfef5e0	0.12449241
29	0x3dd48f0b	0.10378846
30	0x3e003239	0.12519158
31	0xbb6b250e	-0.003588024
32	0xbc5df6c9	-0.013547608
33	0x3e083b7d	0.13303943
34	0x3d92193f	0.071337216
35	0x3e1cc98e	0.15311262
36	0xbc5dcbd7	-0.013537369
37	0x3d3373bd	0.04381155
38	0xbbda07c9	-0.00665376
39	0xbd108070	-0.035278738
40	0x3e036d5c	0.12834686
41	0xbe2f092e	-0.17093346
42	0x3d495e27	0.049162056
43	0xbddac401	-0.10681916
44	0x3df08020	0.11743188
45	0x3e0fd9e0	0.14047956
46	0xbdd7cf88	-0.1053763
47	0x3d4b483f	0.049629446
48	0xbdcf21f9	-0.10113902
49	0x3b1edf14	0.0024241852
50	0x3c734c18	0.014849685
51	0x3e2e6d87	0.17033969
52	0xbc920fcd	-0.0178298
53	0xbde537c4	-0.11192277
54	0x3dfa21d2	0.12213482
55	0xbdd98a82	-0.106221214
56	0x3d4e230f	0.050326403
57	0xbe078e72	-0.13237932
58	0xbe05d357	-0.13068901
59	0xbc5da80e	-0.013528837
60	0x3d43b591	0.047780577
61	0x3e1d4ff2	0.15362528
62	0x3d6e75a6	0.058217667
63	0xbc6a8f26	-0.014316356
64	0xbc06d1e9	-0.008228757
65	0xbd658b86	-0.056041263
66	0xbd62782a	-0.05529038
67	0xbe10baef	-0.1413381
68	0x3e10897d	0.14114948
69	0x3de46d3d	0.11153648
70	0x3e0fffac	0.14062375
71	0x3ce69bba	0.028150428
72	0x3d3fa015	0.046783525
73	0x3ddc4520	0.10755372
74	0xbe0415c2	-0.12898925
75	0x3c911004	0.017707832
76	0x3e0f5b89	0.13999762
77	0xbd6c29b5	-0.057656962
78	0x3e0e4585	0.13893707
79	0x3da441db	0.080203734
80	0xbd6ed363	-0.058307063
81	0x3e1c6a43	0.1527491
82	0x3e252883	0.16128735
83	0xbe282e10	-0.16423821
84	0x3d92a4ea	0.07160361
85	0x3c4999de	0.012304751
86	0xbddce79e	-0.10786365
87	0xbd038dae	-0.03211754
88	0x3dbb605f	0.09149241
89	0x3d80683c	0.06269881
90	0x3c922af8	0.017842755
91	0x3ca355e5	0.019938419
92	0x3bd71c3b	0.0065646446
93	0xbe1c1b0d	-0.15244694
94	0x3da22856	0.0791785
95	0x3b8f5e6d	0.00437527
96	0x3e019cd2	0.12657478
97	0xbe09f09d	-0.13470693
98	0x3d9a2e77	0.07528394
99	0x3dbcaa2c	0.09212145
100	0xbdf17e6b	-0.117916904
101	0xbdceb986	-0.100939795
102	0x3e205bed	0.15660067
103	0x3d9c09cb	0.07619055
104	0x3e337617	0.17525516
105	0x3db69013	0.08914199
106	0x3dd5a28d	0.10431395
107	0x3cf84fcd	0.03031149
108	0xbdb8d006	-0.09024052
109	0x3da1364f	0.07871687
110	0xbdc91018	-0.09817523
111	0x3c4e172b	0.012578766
112	0x3e0881d1	0.13330771
113	0x3e172f90	0.14764237
114	0xbd7b9e7c	-0.06143044
115	0xbde8d073	-0.113678835
116	0xbd861fe2	-0.0654905
117	0xbe32b3a2	-0.17451337
118	0x3c91cd19	0.017797993
119	0xbe2ce20b	-0.16883104
120	0x3ddd07c6	0.10792498
121	0x3d59710f	0.053086337
122	0xbc817191	-0.015801223
123	0xbe183fce	-0.1486809
124	0xbad99037	-0.0016598766
125	0x3d583c28	0.052791744
126	0xbdc833c5	-0.09775499
127	0x3c2b6c83	0.010462883
128	0xbb0ad68c	-0.0021185009
129	0x3dd4bf8a	0.10388096
130	0x3d09d219	0.03364763
131	0x3d2cecd8	0.04221806
132	0xbd9b8c73	-0.07595148
133	0xbd970fa8	-0.07376033
134	0xbde5bfeb	-0.11218246
135	0xbdeabdc4	-0.11461976
136	0x3dd4f265	0.103977956
137	0xbe177d51	-0.14793898
138	0x3e289fde	0.16467234
139	0xbe2558c5	-0.16147144
140	0x3e03267f	0.12807654
141	0x3e18a865	0.14907987
142	0x3dbc3b3d	0.09190986
143	0xbd1ecef4	-0.038771585
144	0x3dfda286	0.123845145
145	0x3d84a91d	0.06477568
146	0xbe1df130	-0.15424037
147	0xbd357359	-0.044299457
148	0x3cd4b737	0.02596627
149	0xbdab3561	-0.083597906
150	0x3dd6977c	0.10478112
151	0x3de5750d	0.11203966
152	0xbdd90d61	-0.10598255
153	0xba346a5e	-0.0006882305
154	0xbb567d6a	-0.0032728561
155	0x3ce814bf	0.028330205
156	0x3e21bd7f	0.15794943
157	0xbe35a0ec	-0.17737168
158	0x3ddb5f40	0.10711527
159	0x3e0eaa0d	0.13932057
160	0x3e1aec9c	0.15129322
161	0xbd2e0dc1	-0.042493585
162	0xbd7691c9	-0.060197625
163	0x3d395fac	0.045257255
164	0xbce7f96f	-0.028317181
165	0xbdbb00c8	-0.091310084
166	0x3d5bcf75	0.053664643
167	0xbe13bf96	-0.14428553
168	0x3e3179fd	0.17331691
169	0x3e23035c	0.1591925
170	0x3d74b816	0.05974587
171	0xbdf1cd85	-0.11806778
172	0xbd5dfcfd	-0.054196347
173	0xbddb3e7b	-0.107052766
174	0xbd9d6d11	-0.076868184
175	0xbd19ce3b	-0.037550192
176	0x3e15cf47	0.14629851
177	0x3cbbb99b	0.022915652
178	0x3dd459cc	0.1036869
179	0x3c451c3b	0.012030656
180	0xbe2e70b1	-0.17035176
181	0xbbbfe060	-0.005855605
182	0xbe1e60cb	-0.15466611
183	0xbe33c721	-0.1755643
184	0xbdd7a661	-0.10529781
185	0x3cc6b178	0.024254546
186	0xbe240d96	-0.16020808
187	0x3d452d43	0.048138868
188	0x3e25cf9e	0.16192481
189	0x3c5f6458	0.013634764
190	0x3e04d7cf	0.1297295
191	0xbd92573f	-0.07145547
192	0xbcf90116	-0.030396026
193	0xbc90ab00	-0.017659664
194	0x3d4da097	0.05020198
195	0xbd439ea3	-0.04775871
196	0x3d6cef52	0.05784542
197	0x3debcccb	0.115136705
198	0x3d905876	0.070481226
199	0xbd03fc06	-0.03222277
200	0x3c937edd	0.018004829
201	0x3cec8de8	0.02887626
202	0xbdeda194	-0.11603084
203	0xbc82ab3f	-0.015950797
204	0xbdcfc879	-0.10145659
205	0x3bd73efa	0.0065687867
206	0xbe0af734	-0.13570863
207	0xbdb9a9f2	-0.090656176
208	0x3c4e3ea1	0.012588174
209	0xbe2e9e57	-0.1705259
210	0x3e2e4574	0.17018682
211	0x3d43b316	0.04777821
212	0x3c9121a6	0.01771624
213	0x3a2cd3e3	0.0006592853
214	0xbe1b40b1	-0.15161397
215	0x3da0a3fe	0.07843779
216	0xbe1ee077	-0.15515314
217	0x3d8a4291	0.06750978
218	0xbe191031	-0.14947583
219	0x3e125b7a	0.14292708
220	0xbdf02afd	-0.11726949
221	0xbe29e94c	-0.16592902
222	0x3dd8db77	0.105887346
223	0xbc6bce84	-0.014392499
224	0x3dd52bc7	0.104087405
225	0xbdcecf69	-0.10098154
226	0x3df4ee73	0.11959543
227	0x3d0baa5d	0.034098018
228	0xbe1c1072	-0.15240648
229	0x3e1ca112	0.15295818
230	0xbe1d1032	-0.1533821
231	0x3d5f256f	0.05447906
232	0x3dce96a3	0.100873254
233	0x3e006a7f	0.12540625
234	0x3d8966a0	0.06709027
235	0x3d3c776a	0.04601232
236	0x3d8df03f	0.06930589
237	0xbdc4d8a9	-0.09611637
238	0xbe22adfe	-0.15886685
239	0xbd9d0a91	-0.07668031
240	0x3d7f02f3	0.062258672
241	0xbccb8790	-0.024844915
242	0xbc6ff244	-0.014645163
243	0x3ca3b4db	0.0199837
244	0x3dee1811	0.11625684
245	0xbe1741fe	-0.14771268
246	0xbde964d2	-0.11396183
247	0xbdfc2a4c	-0.12312755
248	0xbe0ae939	-0.1356553
249	0x3d5ec7c7	0.05438974
250	0x3e250b5e	0.16117617
251	0xbd7c4d33	-0.06159706
252	0xbdb9466a	-0.090466335
253	0xbd0501f9	-0.032472584
254	0xbd98b39b	-0.07456132
255	0xbdcda666	-0.100415036

lstm.bias_ih_l0_reverse f4 [32]
0	0x3de0c6b1	0.109753974
1	0xbdea301e	-0.11434959
2	0xbe339268	-0.17536318
3	0x3e245dd2	0.16051415
4	0x3de7bc53	0.11315217
5	0x3e0dda31	0.13852765
6	0x3e08e79c	0.13369602
7	0x3dfbe218	0.12298983
8	0x3d2bef57	0.0419763
9	0x3d927c88	0.07152659
10	0x3de6de39	0.11272854
11	0xbe16675b	-0.14687864
12	0x3d945de3	0.0724447
13	0x3e2fbcfc	0.17161936
14	0x3d8e8613	0.069591664
15	0x3e16d924	0.1473127
16	0xbe263a3a	-0.16233149
17	0x3de107db	0.109878264
18	0xbe014499	-0.12623824
19	0xbdaa4f30	-0.08315885
20	0xbd5ea0a2	-0.05435241
21	0x38a1bd99	7.7123936e-05
22	0x3e2a8f06	0.16656122
23	0xbde0a672	-0.10969247
24	0xbce0d24e	-0.027444031
25	0x3d281be4	0.041042224
26	0x3cd6b611	0.026209863
27	0x3d19da7c	0.03756188
28	0xbd567b41	-0.052363638
29	0x3df0db32	0.11760558
30	0xbcb94fb1	-0.022621008
31	0x3e16dc63	0.14732508

lstm.bias_hh_l0_reverse f4 [32]
0	0x3e1a9afb	0.15098183
1	0x3d639f48	0.055571824
2	0xbdef1577	-0.11674016
3	0x3e09efc8	0.13470376
4	0xbe0a9126	-0.13531932
5	0x3d32193b	0.043481093
6	0x3d615374	0.055011228
7	0x3ca32f3a	0.01991998
8	0x3e0aa35d	0.1353888
9	0xbda81ad2	-0.082082406
10	0x3d073822	0.033012517
11	0xbdc1cd6f	-0.094630115
12	0xbe043a80	-0.12912941
13	0x3dcdc406	0.10047154
14	0xbd97f09a	-0.07418938
15	0xbdd89648	-0.10575539
16	0x3c02b801	0.00797844
17	0x3d05a00b	0.032623332
18	0xbde376cd	-0.11106644
19	0xbd71090c	-0.05884652
20	0x3db976f2	0.0905589
21	0xbe2af3e9	-0.16694607
22	0xbdfad863	-0.12248304
23	0x3de69fec	0.112609714
24	0x3d981ee7	0.07427769
25	0xbbb9d250	-0.005670823
26	0x3dab12b4	0.08353177
27	0x3dd2a118	0.102846324
28	0xbc7be1ab	-0.015373628
29	0x3da26d0b	0.079309545
30	0xbd9e4f8a	-0.077300146
31	0x3daf9a32	0.08574332

output.weight f4 [1, 2048]
0	0xbc741aa5	-0.014898931
1	0xbb9c701f	-0.004774108
2	0x3a1d58c6	0.0006002303
3	0xbb5b8ba9	-0.0033499992
4	0x3c97a23f	0.018509982
5	0x3b5ffb2c	0.003417681
6	0x3c62e269	0.013847926
7	0x3c84b51e	0.016199645
8	0xbc338701	-0.01095748
9	0xbc6162a6	-0.01375643
10	0xbbf4b0d9	-0.007467371
11	0xbc08a025	-0.008338963
12	0x3cb31da9	0.021864729
13	0xbb632f84	-0.0034665773
14	0xbc9060b1	-0.017624231
15	0xbcc4409e	-0.023956593
16	0xbb047096	-0.0020208708
17	0x3c1c969c	0.009557392
18	0x3c8ed8fe	0.017437454
19	0xba65b422	-0.00087624986
20	0xbc41378a	-0.011793027
21	0xbc0448d5	-0.008074005
22	0x3c1695ee	0.009191019
23	0x3ac90a9b	0.0015338244
24	0x3a8732c7	0.0010314815
25	0x3c4b88bf	0.0124227395
26	0x3beecf6e	0.007287911
27	0xbc116d91	-0.00887622
28	0xbc904470	-0.017610759
29	0xbbf7aa5e	-0.007558151
30	0xbbdb3290	-0.006689377
31	0x3c408c2b	0.011752169
32	0x3bb1021f	0.005401864
33	0xba5871c8	-0.0008256701
34	0x3bf0cade	0.0073484024
35	0x3c2d77f6	0.010587683
36	0xbc26608d	-0.010154855
37	0x3c170a64	0.009218786
38	0x3c657d24	0.014006887
39	0x3c1de1b3	0.00963633
40	0x3c1bfa6e	0.009520156
41	0x3c362939	0.011118227
42	0x3c96fc9d	0.018431002
43	0x3b4fafe6	0.0031690537
44	0x3c0381b9	0.008026534
45	0xbadc0cdd	-0.0016788502
46	0x3b079d93	0.0020693287
47	0x3b5dd9fc	0.0033851853
48	0xbbecc9ef	-0.007226221
49	0x3c834c3d	0.016027564
50	0xbc1254ae	-0.008931322
51	0x3c9bc64a	0.01901545
52	0xbc54d9a7	-0.0129913455
53	0xbc928a50	-0.017888218
54	0x3a5f066d	0.00085077324
55	0x3baa4085	0.0051956796
56	0xbc64c107	-0.013962037
57	0x3c030f09	0.00799919
58	0xbcdbed06	-0.02684642
59	0x3c9b3f2e	0.018951025
60	0xbb9bf714	-0.0047596786
61	0x3cb9e676	0.0226929
62	0x3acd0cc9	0.0015644069
63	0xbba6bb0a	-0.0050882148
64	0x3ccde8ab	0.025135359
65	0xbc63f1ce	-0.013912631
66	0x3b862c4f	0.0040946375
67	0x3b6dcd7e	0.0036285813
68	0xbaee5563	-0.0018183406
69	0x3c855bae	0.016279068
70	0x3bb92bb9	0.005650964
71	0x3bface7f	0.007654011
72	0xbc288932	-0.010286616
73	0x3c869d51	0.016432436
74	0xbc99f76e	-0.018794741
75	0xbc4041e6	-0.011734461
76	0xbc13457a	-0.0089887325
77	0xbabc2106	-0.0014353103
78	0x3c4c7afe	0.0124804955
79	0xbc517425	-0.012784039
80	0xbc7c20c2	-0.015388669
81	0xbc5874d6	-0.01321145
82	0xbc2ef87d	-0.010679361
83	0xbb851f2f	-0.0040625553
84	0x3c9a8844	0.018863805
85	0x3c5be9ed	0.0134224715
86	0xbbd39485	-0.006456914
87	0xbb4663b9	-0.0030271842
88	0xbbdddd8e	-0.006770796
89	0xbcb25cc5	-0.021772752
90	0xbb9dfa3a	-0.004821089
91	0xbbe39251	-0.0069449325
92	0x3c1a4bee	0.009417517
93	0xbb0ab811	-0.002116684
94	0xbc70ca07	-0.014696605
95	0xbca5d93b	-0.020245185
96	0x3cade199	0.021225737
97	0x3c55530d	0.013020289
98	0x3c172019	0.009223961
99	0xbbfc6197	-0.0077020633
100	0x3bd5b4f6	0.0065218164
101	0x3c96a114	0.018387355
102	0xbc3d9555	-0.011571248
103	0x3cb251ea	0.021767575
104	0xbc8d6e46	-0.017264497
105	0xbc5468e6	-0.012964463
106	0x3c4c477f	0.012468218
107	0xbc094bf8	-0.008379929
108	0x3c7b935d	0.015354958
109	0xbb6adc97	-0.0035837048
110	0xbc95b6e1	-0.01827568
111	0x3a5eafe4	0.00084948377
112	0xba57416f	-0.00082113495
113	0x3c19eff1	0.009395585
114	0xbc62b6dc	-0.013837542
115	0x3c7a4711	0.015275733
116	0x3c7110ab	0.014713447
117	0xbca6d6c1	-0.020366075
118	0xbcadb33c	-0.02120363
119	0xbb9815a3	-0.004641251
120	0x3c26bc00	0.010176659
121	0xbc74e85d	-0.014947978
122	0x3b162d31	0.002291512
123	0x3c28cb9c	0.0103024505
124	0x3b4def59	0.003142318
125	0x3b72a8d2	0.0037026894
126	0xbca101c7	-0.019654168
127	0xbc8639a3	-0.016384905
128	0x3b518a7b	0.003197341
129	0x3c0c204a	0.00855262
130	0x3c9015a8	0.017588452
131	0x3c300453	0.0107432185
132	0x3c5ce44c	0.013482165
133	0xbc993151	-0.018700274
134	0x3b0fe8f2	0.0021958915
135	0x3c8af516	0.01696257
136	0x3c140694	0.0090347715
137	0xbbced5ae	-0.0063120937
138	0xbc4ea760	-0.0126131475
139	0x3baa9f14	0.005206952
140	0x3baab1f3	0.0052092015
141	0xbcaaf2e1	-0.020867767
142	0x3bcfc653	0.0063407808
143	0x3bc07b69	0.0058740866
144	0xbb495d91	-0.0030725936
145	0xbb31ca39	-0.002712859
146	0xbca5e564	-0.020250984
147	0xbc0c8829	-0.008577385
148	0x3c6d030d	0.014466059
149	0xbcb19986	-0.021679651
150	0xbc805f70	-0.015670508
151	0x3aefac56	0.0018285613
152	0x3b8b2f25	0.0042475634
153	0x3c70e4c9	0.014702984
154	0x3bfbe87d	0.007687627
155	0x3a080f08	0.0005190228
156	0xbb7a6e54	-0.0038212733
157	0x3ba13e0c	0.0049207266
158	0xbbe8d65c	-0.0071056318
159	0xbc883b2a	-0.016629774
160	0xbc911ac1	-0.017712953
161	0xbc6be48b	-0.014397751
162	0xbcba997a	-0.022778261
163	0xbc930e8e	-0.017951276
164	0x3cada396	0.021196168
165	0xbc2775ed	-0.010220987
166	0x3c00c656	0.007859787
167	0x3ca9e4f1	0.02073905
168	0xbc0036e6	-0.007825589
169	0xbc790cd4	-0.015200812
170	0xbc733970	-0.014845237
171	0xbc9d6469	-0.019212918
172	0xbc15e422	-0.009148629
173	0xbbdd6993	-0.00675697
174	0xbb8c1140	-0.0042745173
175	0xbc11fc9b	-0.0089103235
176	0xbc2be464	-0.010491464
177	0xbc8281b9	-0.015930997
178	0xbc94828c	-0.018128656
179	0x3c619dd0	0.013770536
180	0xba5bbae6	-0.0008382037
181	0xbc521763	-0.012822959
182	0x3a44190b	0.00074805383
183	0xbc734746	-0.014848536
184	0x3c9dcb81	0.019262077
185	0x3c9ad4e5	0.018900344
186	0xbc9445c5	-0.018099675
187	0x3cb30be2	0.021856252
188	0xbc374b05	-0.01118732
189	0xbc1f40d5	-0.009720047
190	0x3c0e2650	0.008676127
191	0x3c9cb994	0.01913146
192	0xb903521c	-0.00012523722
193	0xbc889910	-0.016674548
194	0xbbe086df	-0.0068520154
195	0x3c0c15d5	0.008550127
196	0x3c9e29af	0.019306986
197	0x399ed6f8	0.00030296273
198	0xbcc64500	-0.024202824
199	0x3935b7d1	0.00017329982
200	0xbc47e3b3	-0.012200284
201	0xb98dee7b	-0.00027071298
202	0xba54d19d	-0.0008118393
203	0x3ca470a2	0.020073239
204	0xbc9b5296	-0.018960278
205	0x3bd50d72	0.006501847
206	0xbb17ef73	-0.0023183494
207	0xbc8fe79c	-0.017566495
208	0xbbf0b3e4	-0.0073456634
209	0x3c9120cc	0.017715834
210	0x3c5fe3b8	0.013665132
211	0xbce67d95	-0.028136054
212	0x3c8af83f	0.016964076
213	0x3c7d658c	0.015466105
214	0xbc43eff7	-0.011959068
215	0xbc5f86ab	-0.013642947
216	0xbc9da699	-0.019244479
217	0xbb21f7fe	-0.0024714465
218	0x3aa010ad	0.0012212001
219	0x3c526305	0.012840991
220	0x3b3fc27d	0.002926021
221	0xbbae9e95	-0.005328963
222	0xbcbdbb2f	-0.023160545
223	0xbc4f35c7	-0.012647099
224	0xba6b37d4	-0.00089728576
225	0x3cad6685	0.02116705
226	0x3c64980e	0.013952268
227	0xbba6ae47	-0.0050866934
228	0xb8279c83	-3.9961666e-05
229	0x3caece42	0.021338586
230	0x3c59fffd	0.013305661
231	0x3bc3627c	0.005962668
232	0x3c87d7a2	0.016582314
233	0x3c5cd06c	0.013477426
234	0xbb74e25b	-0.0037366364
235	0xbc139f66	-0.0090101715
236	0x3b7b260d	0.003832224
237	0xbc3a0111	-0.011352793
238	0x38641b67	5.4384956e-05
239	0x3c239429	0.009984055
240	0x3c30cd3c	0.010791119
241	0x3c44c2a5	0.0120092975
242	0x3c4d31ef	0.012524112
243	0x3c95c79b	0.018283656
244	0x3c898905	0.016788969
245	0xbb7b53a8	-0.0038349424
246	0x3b2cad6c	0.0026348485
247	0x3c982d46	0.018576276
248	0x3c0a1fe3	0.008430454
249	0xbcaf3f0c	-0.021392368
250	0xbc2dc2eb	-0.010605554
251	0x3c9be60a	0.01903059
252	0x3bbcfbdd	0.005767329
253	0x3b0feb8b	0.0021960463
254	0xbc929683	-0.017894035
255	0x3c578e6b	0.013156514
