model_save/GRU.pth (torch, 21223 bytes, 9 tensors)

batchNorm.weight f4 [3]
000000 2b ff 58 3f 0c 20 55 3f f7 da 7e 3f
       0.84764355 0.83252025 0.99552864

batchNorm.bias f4 [3]
000000 16 e4 d0 3c 9c 68 71 bc ca 56 be 3b
       0.025499385 -0.0147344135 0.005808686

batchNorm.running_mean f4 [3]
000000 0c 38 67 40 89 65 64 bf e6 c5 17 3f
       3.6127958 -0.8921743 0.59286344

batchNorm.running_var f4 [3]
000000 36 27 a6 3d 35 4b 50 40 b3 e9 75 3d
       0.08112948 3.2545903 0.060037326

gru.weight_ih_l0 f4 [96, 3]
000000 99 55 99 bd c1 7b ae bd d8 0c c5 bc 3b 50 5c 3c
       -0.074870296 -0.08519698 -0.024053976 0.013446863
000010 9a 82 bd 3d c9 15 d4 bc a0 fb 7b 3d 59 6a f1 3d
       0.09253426 -0.025889294 0.061519265 0.11787862
000020 31 56 61 bd fc e8 66 bd 48 72 b0 3d 34 b2 55 3d
       -0.05501384 -0.056374535 0.086155474 0.0521719
000030 df 7a 11 3a 85 fc 4c 3e 63 79 40 bc ce e2 ba bd
       0.000554962 0.20018204 -0.011747691 -0.09125291
000040 78 c9 27 3d 51 cf 4a bb 26 bb ae 3c f8 dd 91 3d
       0.04096362 -0.0030946324 0.021329474 0.07122415
000050 46 56 3e ba e2 c5 df 3c 52 bb 19 be a0 a5 0e 3e
       -0.00072607805 0.027316038 -0.15012863 0.13930368
000060 02 54 db bd 48 e0 0c bc 30 c3 d7 3c e7 8b 43 bd
       -0.107093826 -0.008598395 0.02633819 -0.047740843
000070 be 33 8e 3d 4b 36 a3 3d a6 b5 19 3e ca 5f 7e 3c
       0.06943463 0.0796934 0.150107 0.015525768
000080 4e 52 97 3d c4 9f 20 3d da 91 cb bd 6e 41 28 bd
       0.07388745 0.039214864 -0.09939928 -0.041078024
000090 d2 d3 8f 3d 19 30 04 bd a7 c2 8a bd 7c 33 c0 bd
       0.070228234 -0.032272432 -0.06775408 -0.0938482
0000a0 51 f7 08 3e 7a 6a 22 be a6 10 4c 3e db 86 00 3d
       0.13375594 -0.1586093 0.19928226 0.03137861
0000b0 35 37 45 3b aa b4 e2 3d f5 66 29 3e d5 71 67 3c
       0.003009272 0.11069615 0.16543181 0.014126261
0000c0 4b c3 0b be 9d 97 05 3d c0 7c a4 bd c4 1c 11 be
       -0.13648717 0.032615293 -0.08031607 -0.1417113
0000d0 27 1e ae bd 21 4a d0 3d 11 91 16 3d 57 e4 04 3e
       -0.08501845 0.10170389 0.03675944 0.1297773
0000e0 8b a9 75 bd 08 af a3 3d b8 b8 b5 3d f2 8d b3 bd
       -0.059976142 0.07992369 0.08873123 -0.08767308
0000f0 5c 3d 3b 3e b5 9c e0 3d 52 b2 28 3c a7 0f 13 bd
       0.18285125 0.109673895 0.010296421 -0.0359036
000100 be e9 ad bd d7 c4 34 3e 20 e0 85 3d 39 f9 67 bd
       -0.084918484 0.17653213 0.06536889 -0.05663416
000110 72 fa 4d 3e f6 6f d2 bd 30 e4 ec bd ad 73 8e bd
       0.20115069 -0.10275261 -0.11566961 -0.06955657
000120 5f 1e 46 3e 8c b4 ed bd 74 bc 27 3d a0 29 95 ba
       0.19347523 -0.11606702 0.040951207 -0.0011380203
000130 c0 45 21 3b 6f 1d 17 be 01 08 db 3d 58 fd 2d 3c
       0.0024608225 -0.14757322 0.10694886 0.010619484
000140 c8 a8 15 be d9 0b b0 3c e0 e4 99 bd ab 42 21 3d
       -0.14615166 0.021490024 -0.075143576 0.03937022
000150 89 a0 8a 3d 12 f1 cd bd bc 25 03 3e 50 23 16 3d
       0.06768901 -0.10055746 0.12807363 0.03665477
000160 22 7c ef bd c8 59 ab 3b be 3a 1f 3a 1e 49 91 3d
       -0.11693598 0.0052292086 0.0006074122 0.07094024
000170 33 54 f6 bd 8c 66 5f 3d d8 56 42 bd 74 a4 80 3c
       -0.120277785 0.054541156 -0.047446102 0.015703417
000180 94 a0 bf bd 39 2b 2c 3d 4d b7 25 be 37 f3 3f 3d
       -0.093568 0.042033408 -0.16183205 0.046862807
000190 c5 ef 77 3c 68 74 0e 3e d8 70 41 3e 58 17 5a 3d
       0.015132849 0.13911593 0.18890703 0.05324492
0001a0 fe 56 f8 bc 31 d4 98 bd c9 0b 81 3d 68 14 7b 3d
       -0.030314919 -0.07462347 0.06301076 0.061298758
0001b0 7a a0 9d 3b 21 ac 06 be 10 78 b6 bd 44 2a 29 3c
       0.00481039 -0.131516 -0.08909619 0.010325018
0001c0 27 a0 91 3d b1 82 90 3d 28 51 ac 3d 80 53 00 3e
       0.07110625 0.070561774 0.08413917 0.12531853
0001d0 d6 64 66 bd 08 dc 9f 3d ef ed 4f 3d 58 1a 03 3e
       -0.05624851 0.078056395 0.05076402 0.12803018
0001e0 9d 67 cf 3d 6e 1a 85 3b 52 18 b2 3d a5 6c d6 bc
       0.101271845 0.0040619886 0.08696045 -0.026174853
0001f0 f0 3c 95 bd 2b c5 81 3d 0e b7 78 3e cf 72 00 3e
       -0.072870135 0.06336435 0.2428858 0.12543796
000200 69 40 fa 3d 85 bc 3a be b0 80 31 be 0e 5f 04 3d
       0.122193165 -0.18235977 -0.17334247 0.032317214
000210 9c f7 0e 3d a8 96 ba 3d f3 b6 98 3d 08 52 d7 3b
       0.034904107 0.09110767 0.0745677 0.006571058
000220 51 23 e3 bd ab 95 b0 3c 17 15 0b be 20 d6 61 3d
       -0.110907204 0.021555742 -0.13582264 0.055135846
000230 05 d3 28 bd 20 f0 0d 3e 6b 4a 48 3e bb 96 37 3d
       -0.04121687 0.13861132 0.19559638 0.044821482
000240 6a a2 71 3d fb 50 d2 bc 87 c4 42 3d 29 37 8f bd
       0.05899278 -0.02567338 0.047550704 -0.06992943
000250 cc 29 29 be 59 43 7d bd ba 33 96 bb 92 aa e8 3c
       -0.1651985 -0.061831806 -0.004583803 0.028401647
000260 18 e4 ba 3d aa dd b9 bc 9c 8f 1d 3d 7f d1 be bc
       0.09125537 -0.022688705 0.038467035 -0.023293255
000270 d7 68 ce 3d 75 77 89 3c cc 1b 42 bd ca 73 c2 3b
       0.1007859 0.016780594 -0.04738979 0.0059342133
000280 b8 66 8e 3d 66 f8 bf bd 44 14 2e 3e 48 c1 bb 3d
       0.06953186 -0.0937355 0.16999918 0.09167725
000290 6a 3f 0d bd 2b c7 9c 3d b0 6a 5f bd 80 5b 0a be
       -0.034484304 0.07655176 -0.054545105 -0.13511467
0002a0 5c 8c c9 bd ca 79 d7 bd f9 aa 2f bd c4 86 4c be
       -0.098412246 -0.10521276 -0.04288766 -0.19973284
0002b0 70 d4 eb bd 8b 7a 22 3e b8 7e c6 3b 80 42 70 3d
       -0.115151286 0.15867059 0.0060575865 0.05865717
0002c0 2b 93 fe 3d 71 b3 29 3d bd b6 fe ba 9c af d2 bc
       0.12430414 0.041430894 -0.0019433122 -0.025718503
0002d0 72 33 6b 3e ef ec 11 3e ec 24 47 3d d6 e8 e0 3c
       0.22968844 0.14250539 0.048619196 0.027454775
0002e0 16 5c 67 3d f4 f1 9d 3d 7b 22 c5 3d c4 69 5d bc
       0.056484304 0.077121645 0.09625717 -0.013513986
0002f0 db df 8d 3d 25 66 2e 3d e6 df c2 3d b2 92 76 3c
       0.06927463 0.04257788 0.095153615 0.015049623
000300 2d 8d ee 3d 7c c1 93 bd 70 dd d1 3d 8a af 29 3c
       0.11648021 -0.072146386 0.10247314 0.010356793
000310 4a c8 0d 3e 45 8e df bc 0a b9 88 bd 9c a2 24 bc
       0.13845935 -0.02728952 -0.066759184 -0.010048535
000320 7a 12 ca 3d af cd 30 3d c9 90 de bd 79 dc 0c be
       0.098668054 0.043164905 -0.10867459 -0.13755979
000330 a5 d8 2c 3e 74 5e dd bd f6 7f 17 bd 49 76 e3 bd
       0.16879518 -0.10809031 -0.036987267 -0.111065455
000340 d3 23 b9 3d d0 84 1a be 2d 86 d4 3d f7 65 bf bd
       0.09040036 -0.15089726 0.103771545 -0.0934562
000350 f3 36 35 be e9 02 12 bd 1d be c3 3c 6c 72 94 bd
       -0.17696743 -0.035647307 0.023894364 -0.07248387
000360 ed 86 9b 3d 13 48 c2 bd 6b 13 0a 3e 38 32 18 be
       0.075940944 -0.09486403 0.1348397 -0.14862907
000370 4a 9d 55 3d 9d bd d6 bc 97 33 81 bd c5 e2 19 3e
       0.052151956 -0.026213462 -0.06308668 0.15027912
000380 0d ae 16 3e d6 5a 0e 3e eb 82 c7 bd b1 fb f6 bd
       0.14714833 0.13901839 -0.097417675 -0.12059725
000390 7d 6c 15 be 7c b3 a4 3d 72 f4 f3 bb fe 42 92 bd
       -0.14592166 0.080420464 -0.0074449116 -0.07141684
0003a0 8b 5a 78 bd 3d e1 b4 3d cb 96 03 bd 50 46 c1 3c
       -0.060633224 0.08832023 -0.03212623 0.023593098
0003b0 33 ff 11 be a4 b5 2b 3e cb be 87 bc b3 d1 9f 3d
       -0.14257507 0.16768509 -0.01657047 0.07803669
0003c0 c9 ab 06 be f4 9c df 3d 67 aa 0d 3e 67 10 c6 bd
       -0.13151468 0.10918608 0.13834535 -0.09671097
0003d0 25 de 1e bd 9b 6d d9 bd 24 ae 1e 3e 9b a3 5e 3d
       -0.038786072 -0.10616609 0.15496117 0.054355245
0003e0 5d 8b 88 3d 24 85 94 3d b9 aa ce bd 3b ba a0 bd
       0.066672064 0.07251957 -0.100911565 -0.07848021
0003f0 e5 a6 f3 bd ba 8b 6d bc b9 41 39 bd 2f 83 bb 3d
       -0.11897067 -0.014498645 -0.045228694 0.09155881

gru.weight_hh_l0 f4 [96, 32]
000000 3a fb 17 bd dd 6d e6 bd ce d0 ac 3d 15 3f 06 be
       -0.037104823 -0.112514235 0.08438264 -0.13110001
000010 4c 30 81 3d 27 90 a8 bd a5 5a 17 3e 5d c2 76 3c
       0.0630804 -0.0823062 0.14780672 0.015060988
000020 95 3e 4f 3c 9f ee f8 bc 07 69 56 bd d3 74 77 3d
       0.012649198 -0.03038722 -0.052346256 0.060414147
000030 61 c5 fb 3d 4d ca 21 3e f7 77 2c bd 0a 37 59 3d
       0.122935064 0.15799828 -0.042106595 0.053031005
000040 57 45 ff 3d 0f 51 2b 3e 8d 50 30 be 8c aa 8b bc
       0.124643974 0.1673014 -0.17218228 -0.017049097
000050 dc 1b df bd 59 59 03 3e 50 6b 36 3e ee 61 c1 bd
       -0.10893986 0.12827052 0.17814374 -0.09442507
000060 95 af b3 3c 8b 2b ca 3d c6 7d c9 3d db 36 0d 3e
       0.02193431 0.098715864 0.098384425 0.13790457
000070 d8 6c 81 bd 64 e4 72 3d fb 23 6d ba d6 66 19 3d
       -0.063195884 0.05929984 -0.0009046194 0.037451588
000080 3b ba 5e bd 81 a7 4c bd 93 7f e2 3d a3 9f 12 3e
       -0.054376822 -0.04996443 0.11059489 0.14318709
000090 e9 36 0c be 24 2d a6 3d 7c bb 2c 3c 33 0e 82 3d
       -0.13692822 0.08114079 0.010542747 0.063503645
0000a0 b2 7c da 3d ed 35 81 3b f7 fc 6e 3d 5e 68 d0 3d
       0.10668315 0.003943196 0.058346715 0.101761565
0000b0 02 8f 4e bd 8d 85 f9 3c 55 08 33 be 7d 7f 4d 3d
       -0.05042935 0.03045919 -0.17483647 0.05017041
0000c0 d1 23 53 3d a9 ac 96 3d f9 a2 b5 3d 54 40 10 3e
       0.05154783 0.07357151 0.08868975 0.14087039
0000d0 71 ea b6 3d 6b 04 0c be d5 46 b0 bc 7a 08 00 3e
       0.08931435 -0.1367356 -0.02151815 0.12503234
0000e0 82 60 0b 3e 78 82 e7 bd 53 5a 98 bd 56 c6 de bd
       0.13611034 -0.11304182 -0.07439103 -0.10877673
0000f0 bf ea 9e bd 33 7f 13 be c5 48 ff 3c cf ae 20 3c
       -0.07759618 -0.14403991 0.031162629 0.009807303
000100 76 96 42 bd 99 14 79 bd d5 6c 04 be 31 6e 15 be
       -0.047506772 -0.06081066 -0.12932141 -0.14592816
000110 03 cb 6c bd 80 4c 7d bd 09 22 6d 3d a6 f2 86 3d
       -0.057810795 -0.061840534 0.057893787 0.0658925
000120 dc 60 01 be 1c d9 bf bc e4 d8 0c 3e da 92 20 be
       -0.12634605 -0.023418956 0.13754612 -0.1568102
000130 c9 c9 c1 3d f9 37 cf 3d 38 65 f0 bc 3e 17 c7 bd
       0.094623156 0.10118098 -0.02934514 -0.0972123
000140 81 e8 04 be 03 a4 f9 3d 15 2e 04 be c5 69 38 bd
       -0.12979318 0.12189486 -0.12908204 -0.045022745
000150 a3 1c df 3d 00 8a 8b 3c 95 63 04 3e 0a b8 18 3e
       0.10894134 0.017033577 0.12928613 0.14913955
000160 a3 f3 03 3d bd 49 d7 bc dc 65 88 3c 89 42 e8 bc
       0.032214772 -0.026280278 0.016650133 -0.028352039
000170 b8 7f b8 bd c0 20 12 3c b6 d2 f7 3d 72 c8 e4 3c
       -0.090087354 0.008918941 0.12100737 0.027927611
000180 41 7a 32 3e 24 ac f6 bc 8c 41 33 3d f6 ec 03 3d
       0.17429449 -0.03011138 0.043763682 0.032208405
000190 99 02 bb 3c 9d e7 14 bd 6f df 47 bd 35 95 22 be
       0.022828387 -0.036353696 -0.048797067 -0.1587723
0001a0 d5 58 ba bd 31 f0 6a bd 87 57 19 3d 6c bc 16 be
       -0.090989746 -0.05735797 0.03743699 -0.14720315
0001b0 11 81 52 bc 64 5e 03 be 90 9f 6d 3d 3f 03 21 3d
       -0.012848155 -0.12828976 0.0580135 0.039309736
0001c0 61 95 33 3a 1b 2d 98 3c 5a cb 28 be 25 50 da bd
       0.00068505673 0.018576195 -0.16483822 -0.106598176
0001d0 ee 7f b7 bd 6e 21 8e bd 65 02 ee bd 8b 7e d3 bd
       -0.089599475 -0.0693997 -0.116215505 -0.103268705
0001e0 ae 7d f8 3d 3e 3b 70 3e 0a c8 1a bc d6 50 00 3e
       0.121333465 0.23460099 -0.009447107 0.12530836
0001f0 23 ce 05 be 6d 85 d7 3d 0c a0 0b b9 0a cd db bd
       -0.13066916 0.10523496 -0.00013315695 -0.107324675
000200 e8 9d 8a bc ef d7 2d 3e 51 a3 86 bd f6 65 d1 3d
       -0.016920999 0.16976903 -0.06574119 0.10224526
000210 07 cd fb 3d 76 fc 12 bb 2d b1 05 3c d0 84 ad bd
       0.12294965 -0.002242831 0.008159918 -0.084725976
000220 74 f3 b9 bd e6 70 e4 bb 69 99 88 bd 8e 76 f7 3d
       -0.09079638 -0.0069714664 -0.06669886 0.120831594
000230 96 c3 e2 bd 62 3e 9f 3d 82 20 45 3c 01 03 c7 bd
       -0.11072461 0.077755705 0.012031676 -0.0971737
000240 3b ea 09 3e 22 b9 04 3e a0 5f 8d bd fb 02 cd 3d
       0.13468258 0.12961248 -0.06903005 0.10010334
000250 3b 73 15 be 93 31 1c be b5 34 13 be bf 8b e5 3d
       -0.14594738 -0.15253286 -0.14375575 0.11208295
000260 b3 47 1d 3e 30 0e 87 3d b2 91 00 3e 94 e3 72 3d
       0.15359382 0.06594503 0.12555578 0.059299067
000270 5e c2 92 bd ee c3 3a 3d 5d 6b 71 bc 9b f4 bd 3d
       -0.07165979 0.04559701 -0.01473507 0.092751704
000280 5e e0 f7 bd 59 99 d5 bd e9 38 b1 bd 4b 76 10 be
       -0.121033415 -0.10429639 -0.08653433 -0.14107625
000290 19 36 8e 3c 59 8a f5 bc 5b 5c 23 be 6a 08 39 3c
       0.01735978 -0.029973196 -0.159532 0.01129351
0002a0 b4 bd 25 be a8 e4 64 3e 4a b5 95 3d 86 24 0b be
       -0.16185647 0.2235285 0.07309969 -0.13588151
0002b0 ef 35 ae 3d 2a 53 a5 3d 14 ee 85 bd 3b b4 02 3c
       0.08506381 0.08072503 -0.065395504 0.007977541
0002c0 92 86 98 3c 24 a4 ab bd 36 98 0e be 95 24 92 3d
       0.018618856 -0.08380917 -0.13925251 0.07135884
0002d0 82 a7 3a 3e 65 d5 61 3e 6a de b8 bd 11 c5 29 be
       0.18227962 0.2205406 -0.09026797 -0.16579081
0002e0 b0 10 93 bd dc 1b 38 3d 49 10 ba 3d 63 0c b2 3d
       -0.07180917 0.044948444 0.090851374 0.08693769
0002f0 3b ee 1a be 7d 9a 00 bb d9 4f 73 3d f6 4d 50 3d
       -0.1512994 -0.0019623332 0.05940232 0.0508556
000300 07 1a 3a 3d 38 8f d1 bd 27 26 e7 3d ad 9f 2f be
       0.045434978 -0.10232395 0.11286574 -0.17150755
000310 a9 b4 f4 bd 5e fb 6c 3b 66 0b 05 3d aa 1d a1 3c
       -0.11948521 0.0036160569 0.032481574 0.019667465
000320 81 8e c8 bd 20 c4 9c bc 86 9c f2 3d 0a 2b bc 3d
       -0.097928055 -0.019136488 0.11846261 0.091878965
000330 10 c7 19 3d ea 20 73 3c aa af 29 be f9 ca 39 3d
       0.037543356 0.01483939 -0.16570917 0.045359585
000340 6c 6c 8a 3d a3 e8 96 bd b4 1f 2b 3e 9d d3 3f be
       0.06758961 -0.07368591 0.16711313 -0.18733068
000350 04 c9 30 3e 63 a5 dd bd 28 6c 23 3e c0 9d 2f 3e
       0.17264181 -0.10822561 0.15959227 0.1715002
000360 19 ee 12 3e 00 45 c0 bd bb 16 5a bd 9d f1 f3 3c
       0.1434864 -0.09388161 -0.053244334 0.029778296
000370 97 15 38 bd 6e ad b6 bd 17 03 4d ba 3c a1 1f 3e
       -0.044942465 -0.08919798 -0.000782059 0.1558885
000380 8b 8f c9 bd b6 dc c3 3b 83 fb 52 3d fa 27 88 bd
       -0.09841832 0.0059772385 0.05150939 -0.0664825
000390 7b 68 2a be b3 6e c0 3c fd 6c b0 3d f9 08 39 3d
       -0.16641419 0.023490286 0.08614538 0.045174573
0003a0 46 89 12 3e 26 f1 f2 3d 20 c0 09 3e 07 89 1c 3e
       0.14310178 0.11862402 0.13452196 0.15286647
0003b0 1b 71 ec bd 09 18 2d be 49 ec 28 be c4 23 c0 3d
       -0.11545011 -0.169037 -0.16496386 0.09381822
0003c0 26 39 1d be 9b 3d 05 3d fc 97 02 bd cb 21 67 3d
       -0.15353832 0.032529455 -0.031883225 0.05642871
0003d0 96 10 67 3d 09 95 14 3e fa df ed bd 4f a6 33 3e
       0.056412302 0.14509977 -0.11614986 0.1754391
0003e0 5d 5a 04 be 51 86 26 3e 97 e5 1e 3e 53 e4 51 bc
       -0.12925096 0.16262175 0.15517269 -0.012810784
0003f0 ff 1f 06 3e d1 bf d1 bd 47 f0 f4 3c 2a a6 87 ba
       0.13098143 -0.10241664 0.02989973 -0.0010349203

gru.bias_ih_l0 f4 [96]
000000 51 c6 01 be 0c 97 f9 bd 78 7c da bd a1 cb 04 3d
       -0.12673308 -0.12187013 -0.10668272 0.03242076
000010 dd 41 ce bd 0a 6b 32 3e 69 f0 23 3e ea ab 2f be
       -0.10071156 0.17423645 0.16009678 -0.17155424
000020 7e 1e b6 3d ab e6 4b 3d 25 ad c6 ba 6e 4e 0c bc
       0.08892535 0.04978053 -0.0015157802 -0.008563621
000030 f2 14 dc bd 2c 2b 61 3c 3a 40 16 be 60 8c 74 bd
       -0.107461825 0.013743203 -0.14672938 -0.059704185
000040 51 fe a0 bd be 51 ae 3d 13 ca b6 3c 1b bc 0c 3d
       -0.07861007 0.08511685 0.022313153 0.03435908
000050 91 65 36 bd f9 1e a5 3d 0d 9c 54 3d 72 03 0e 3d
       -0.044530455 0.08062548 0.051906634 0.034671254
000060 ca d7 25 3e bf bd d3 3c e9 94 85 bc 3f d9 8b 3d
       0.16195598 0.025847314 -0.016306357 0.06828546
000070 9a 21 a9 3d ae 0a 2d be 42 6c 21 be 9d 89 23 be
       0.08258362 -0.16898605 -0.15763953 -0.15970464
000080 0c 2e 26 be 1b b7 cb bd 99 af 10 3e 22 ac 93 3b
       -0.16228503 -0.09947034 0.14129485 0.004506604
000090 2b d5 99 3d 92 2d a0 3c c0 cf 88 3c 62 95 11 3e
       0.07511362 0.01955298 0.016700625 0.14217141
0000a0 e5 bc f5 3d 10 c5 2c bd f5 70 2b bd c6 1c 53 3e
       0.119989194 -0.04218012 -0.04185577 0.20616445
0000b0 18 3d 0a be 03 8d a2 3c b8 c4 f2 bd c0 ca cd bd
       -0.13499868 0.01984263 -0.118539274 -0.10048437
0000c0 d8 b1 c5 bb 4e aa 17 3d e6 ea 19 3e b3 fd 2d 3e
       -0.0060331635 0.03702765 0.15031013 0.1699131
0000d0 56 a2 9b bc b4 eb cd 3d ec db 51 3d 46 81 97 3d
       -0.018998306 0.100547224 0.051235124 0.07397704
0000e0 25 2e 40 be 8e fe 48 bd 72 59 d3 3b 42 2e 27 bd
       -0.18767603 -0.049070887 0.0064498717 -0.0408156
0000f0 ab 14 f2 bd 86 62 27 bd 67 91 e8 3d e8 38 cd bb
       -0.11820348 -0.040865444 0.11355858 -0.0062628873
000100 c8 68 2f bd 2b 14 b4 bc 18 59 56 bc e9 27 77 bc
       -0.042824537 -0.021982273 -0.013082765 -0.015085199
000110 48 75 f3 bd 40 1a cf bc 74 4d 40 bd 20 ce 19 be
       -0.11887604 -0.025281072 -0.046948865 -0.15020037
000120 4e c7 28 3e b4 b7 d3 bd 22 03 f0 3b 5e a2 60 bd
       0.16482279 -0.10337773 0.007324592 -0.054842345
000130 a1 b1 91 3d 0b e8 12 3e 0d 13 ea bc eb 81 ac bd
       0.07113958 0.1434633 -0.028573537 -0.084232174
000140 2a 43 28 3e 59 da e1 bb 6b bc 82 3d 64 d6 02 be
       0.16431871 -0.006892484 0.06383594 -0.12777096
000150 26 c9 aa bd 50 15 86 bd 25 90 8f bd 6a 92 33 3e
       -0.08339147 -0.06547034 -0.07009915 0.17536321
000160 8a ff 1e be f0 05 9c 3d 4c b3 7c 3d 31 a9 34 bd
       -0.15527168 0.0761832 0.06169443 -0.044106666
000170 85 1f cb bd 89 97 05 3e 2a 3f fc bd 57 15 0a be
       -0.09918121 0.13046087 -0.12316735 -0.13484703

gru.bias_hh_l0 f4 [96]
000000 56 b2 36 3e c3 ae 26 3e 22 32 da 3a e5 fe 2a be
       0.17841467 0.16277604 0.0016647021 -0.16698797
000010 0e 1b bf 3b 16 ae 61 bc be 45 2c be 54 14 2b be
       0.0058320826 -0.0137744155 -0.1682348 -0.16706973
000020 c8 6a a3 bc ad 60 b2 bd 38 2f 04 be 7e d8 97 3c
       -0.019948378 -0.08709846 -0.12908638 0.018535849
000030 ca 16 09 be 95 2c 74 3d 88 d5 e4 bc 97 c9 50 3d
       -0.133876 0.05961283 -0.02793385 0.0509735
000040 60 79 9b bd ad 76 2d 3e de f5 70 3d 11 26 f0 bd
       -0.0759151 0.16939802 0.058828227 -0.117260106
000050 fc c2 2b be 5a 68 23 39 2f b0 b9 3d fd 67 ea bd
       -0.167736 0.00015583765 0.090668075 -0.114456154
000060 9a 53 06 bd 9b da 78 3d 08 86 86 bc ca f5 e8 3d
       -0.032794572 0.060755353 -0.016421333 0.113750055
000070 0f d0 0d be 12 5f 0d be 71 e2 c5 3d da c1 24 be
       -0.138489 -0.13805798 0.09662331 -0.16089574
000080 44 11 02 be cc e2 e1 bd 78 3a 22 bb 9f 12 3c be
       -0.12701899 -0.11029586 -0.0024754088 -0.18366478
000090 79 5d 16 3e ab fa 90 3c 0d f6 f8 bd 45 cf 5a bd
       0.14684094 0.017697653 -0.121563055 -0.053420324
0000a0 13 19 23 be a0 66 d3 3d 55 51 b4 3c ca 84 58 bd
       -0.15927534 0.103223085 0.022011438 -0.052861013
0000b0 44 b4 d7 bd 98 5c 22 3e 4e 8a 8f bd fc 44 1d 3e
       -0.1053243 0.15855634 -0.070088014 0.15358347
0000c0 ef 7c 33 be 69 65 05 3d 3e 54 8d bd 0c 19 24 3e
       -0.17528127 0.032567415 -0.069008335 0.1602518
0000d0 00 01 b7 bd 68 f9 25 bd 47 93 cb bc cc be fb 3c
       -0.089357376 -0.040521055 -0.0248505 0.030730627
0000e0 9b 7c 08 bd 46 a6 21 3e 61 b1 00 bd 2d 9f 08 bd
       -0.033321958 0.15786085 -0.03141916 -0.033354927
0000f0 b0 3c b2 bd 9e 2d 1b 3e 9d 8e 30 3e ed ef 2d bd
       -0.087029815 0.1515412 0.17241903 -0.04246514
000100 ad 58 16 3e 9c 69 17 be 5f fa 2f 3e a6 e6 a1 bd
       0.14682265 -0.1478638 0.17185353 -0.07905321
000110 23 95 09 be 86 24 dc bc 24 d4 07 3e 28 38 a7 bd
       -0.13435797 -0.026872884 0.13264519 -0.08165008
000120 ef 55 2d 3e 6c fe b9 3d 7a 6f 78 3b be f7 e0 bc
       0.16927312 0.0908173 0.0037908242 -0.027461883
000130 c0 38 f1 3c 7a fd d5 bd 75 f2 51 3d f4 14 81 3c
       0.029446006 -0.104487374 0.051256616 0.015757062
000140 8d 62 06 bd 7b 0d 9a bd 7f b0 b7 bc bc 1b 78 bd
       -0.03280883 -0.075221024 -0.022423027 -0.060573325
000150 a7 8a 1c 3d c7 a9 73 bc 80 9c 1f 3e bf 5e 04 3e
       0.038218167 -0.014872021 0.15587044 0.12926768
000160 81 d9 18 be 7e 9b 2b be 5d 2a c7 bd 8d 0b 16 3e
       -0.14926721 -0.16758534 -0.09724877 0.14652844
000170 d2 4b f3 bd 5a da 29 3e b0 63 a3 bd cb 2a 9a bd
       -0.11879696 0.16587201 -0.07977998 -0.07527693

output.weight f4 [1, 1024]
000000 41 c1 58 3c dc 28 a4 3c c9 0d 57 bc 6f 49 67 bb
       0.013229669 0.020039015 -0.013125845 -0.0035291573
000010 5d 10 92 bc 1c 87 f8 b9 88 8d a4 3b ca 00 34 3c
       -0.017830068 -0.0004740291 0.0050217547 0.010986516
000020 bf a4 72 bc cb a7 c7 3c 2f 47 86 3c 01 e9 c2 bc
       -0.014809786 0.024372002 0.016391365 -0.023792746
000030 97 9a ae bc e3 fd b1 3c 54 e0 f6 bc 43 3a 24 bb
       -0.021313949 0.021727508 -0.030136265 -0.002505914
000040 00 1c a5 ba 57 aa bd bc de 31 be bc 1b 05 98 bc
       -0.0012596846 -0.023152513 -0.023217138 -0.018557122
000050 f6 10 d1 3c 48 01 2c bd c0 43 21 3c c3 fe 17 3d
       0.025520783 -0.04199341 0.009842813 0.037108194
000060 4b 81 f1 bc 04 e7 fe bb c8 d0 9c 3c 82 9c ba 3c
       -0.029480597 -0.007779004 0.019142523 0.022779707
000070 f7 67 b3 bb 10 a4 77 39 92 61 07 bd 90 96 6e 3c
       -0.00547504 0.00023616874 -0.033052035 0.014562264
000080 c5 32 f4 3c 2a d9 44 b9 37 42 8b bb fe 79 91 bc
       0.029809365 -0.00018772917 -0.004249837 -0.017758366
000090 f6 13 0c bd 41 80 08 bd 35 60 df bc f0 aa 2a bc
       -0.034198724 -0.033325437 -0.027267555 -0.010416731
0000a0 1f e2 2e bc 7a f6 75 bc 61 c0 20 bd 6d 1d dc bb
       -0.010674029 -0.015012378 -0.039245967 -0.006717375
0000b0 f7 77 d2 bc 5b 8a 93 3b 13 c0 bf bc 6e a3 b8 bb
       -0.02569197 0.0045025772 -0.023407018 -0.0056347167
0000c0 ba 2f 75 3c 65 5c c3 bc 30 7a 8f 3c 27 d5 ce bc
       0.014964992 -0.023847768 0.017514318 -0.025248123
0000d0 cc 7e 17 bc 93 00 7c ba fd 9f 19 3d 1d a9 a9 3b
       -0.009246539 -0.00096131227 0.037506092 0.0051776306
0000e0 82 fe a5 3a 37 8d 65 bc fe 53 1f 3c 12 09 e3 3b
       0.001266435 -0.014010719 0.009724615 0.0069285715
0000f0 18 52 00 bd 2c 1f 3d 3c 57 39 15 bc 22 d8 16 bd
       -0.03132829 0.0115430765 -0.009107909 -0.036827214
000100 20 9d 0f 3d bd 9e 9f 3a ed 18 5e bc 63 12 6d bc
       0.035061955 0.0012178045 -0.013555747 -0.014469716
000110 fc f5 b3 bb 3b c4 81 bb ae df bb bc 60 8c ff bc
       -0.00549197 -0.00396016 -0.022933807 -0.031194866
000120 dc 90 2f bc 0a 05 75 bb bb c4 92 bc c3 39 5d 3c
       -0.0107156895 -0.0037387037 -0.017916074 0.013502541
000130 70 c6 69 bb 1b 03 9b 3b b4 05 a3 bc 49 ee 81 3a
       -0.0035671256 0.004730595 -0.01990018 0.0009912933
000140 cd 16 b2 3b 15 3b a6 bc f4 77 eb 3c 35 e5 0a bb
       0.005434847 -0.020291844 0.028743722 -0.0021193747
000150 62 bd 3b 3b c6 99 6d bc a6 3f 7e bc 77 f1 0b 3d
       0.0028646816 -0.0145019945 -0.015518105 0.034165826
000160 12 6a c3 3c 58 33 0f bc 64 19 2e 3b 78 b6 29 ba
       0.02385429 -0.008740269 0.0026565427 -0.00064740283
000170 4f 24 9c bc 26 29 87 ba 10 ff b3 3c ac bb 7d bb
       -0.019060282 -0.0010311946 0.02197221 -0.0038716597
000180 9c e5 98 3c f6 41 88 bc 20 e0 81 3c d4 66 02 bd
       0.018664174 -0.016633015 0.015853941 -0.031836346
000190 0e f6 4a 3c 94 2e fb bc 13 98 78 bc 52 5a ee bc
       0.012387766 -0.030661859 -0.015172976 -0.029095802
0001a0 57 ad 66 bc da 70 4c 3c 34 97 eb bc c4 79 cb b9
       -0.014079413 0.012478078 -0.028758623 -0.000388099
0001b0 b7 7b 6c 3c fb a9 24 3c 77 cc b5 3c d0 21 1e bd
       0.014433793 0.010050292 0.022192223 -0.038606465
0001c0 8a b4 83 3c ea 64 0e bd 0b ea 81 3c 76 d8 4b bb
       0.016077299 -0.034764208 0.01585867 -0.0031104363
0001d0 6f 93 3d bc 9c 35 15 3c e9 12 f5 3c 61 d4 10 3d
       -0.011570795 0.00910702 0.029916244 0.03535879
0001e0 93 88 2b 3b c8 6d 8c 3c b2 02 2e 3c 48 ef 8e bc
       0.0026173934 0.017142192 0.01062076 -0.017448083
0001f0 dc ad 82 bc f8 4f 07 3d dc 22 89 3c dc 50 c0 3b
       -0.015952043 0.03303525 0.016740255 0.005869014
000200 78 cb 10 3d 34 3a 13 bc b0 4c 12 3d 49 71 ef bc
       0.035350293 -0.008986045 0.035717666 -0.029228823
000210 e9 62 a0 3c fb a0 9c ba 08 94 e9 3b 30 7f c6 3c
       0.019578414 -0.0011949831 0.0071282424 0.02423057
000220 ff 4d be 3c 84 33 bc bc d4 d9 05 bd 1f 8b 21 3c
       0.02323055 -0.022973783 -0.03267844 0.009859829
000230 f4 d6 31 bc 6e 11 ed 3c d7 ad bf 3a e4 bf c5 3a
       -0.0108544715 0.028938975 0.0014623952 0.0015087095
000240 75 ef 09 3d d4 95 84 bb f4 08 02 3d 6a ee b1 3b
       0.03367563 -0.004046181 0.03174682 0.0054300325
000250 42 b9 e6 bb c8 87 0c bd 66 2a 33 3a 97 0e 80 bc
       -0.0070411274 -0.03430918 0.0006834626 -0.015631957
000260 0a 84 c5 3c cb 07 9d 3c b4 34 e9 3c 53 66 d7 3b
       0.024110813 0.019168755 0.028467514 0.0065734773
000270 ec 50 08 bd 8c 7d 36 3c 7f 60 05 3c ed 39 ba 3c
       -0.033280298 0.011138331 0.008140682 0.0227327
000280 ae 18 50 bc 4d 9e d7 3c ef 45 3e 3c 8b 61 7a bc
       -0.012701197 0.0263206 0.011613353 -0.015282045
000290 c8 eb 12 bb 47 5f 24 3c 98 2b 15 bb fc 78 1a bb
       -0.0022418369 0.0100324815 -0.002276158 -0.0023570647
0002a0 d5 a4 5c bc 7c 9b 8b 3c 44 d3 71 bc 46 b2 dd 3c
       -0.013467033 0.017041914 -0.014759842 0.027062546
0002b0 e1 02 b3 bc 45 8b 96 3c 6e be 2a 3c 85 26 f1 bc
       -0.021851959 0.018376956 0.010421379 -0.029437313
0002c0 7b af 86 3b 17 2f 88 bc b4 8f d2 3c 50 df be bb
       0.0041102744 -0.016624017 0.025703289 -0.005824961
0002d0 13 21 7d bc b4 c3 94 b9 1b f5 6e bc d4 70 d8 3a
       -0.01544978 -0.0002837457 -0.014584805 0.0016513118
0002e0 c9 bd ba 3c b9 bf df bc 97 e9 d2 bb 9d d8 05 39
       0.022795575 -0.0273131 -0.0064365375 0.00012764563
0002f0 51 26 ac bc 84 4c 7e bc 32 7a 1b bc 2f f1 b7 bc
       -0.021014364 -0.015521172 -0.009489583 -0.022453872
000300 cc 47 f0 bb 88 39 9d bc df 06 98 3c 57 4e 50 3c
       -0.0073327776 -0.019192472 0.018557964 0.01271399
000310 73 20 b3 3c 24 a2 1f 3c 86 e1 ce bc c2 ef 32 bc
       0.021866059 0.009743247 -0.025254022 -0.0109214205
000320 f7 f4 bc bb e8 20 8d bb 75 8a d8 bb 60 08 7f bc
       -0.005766507 -0.0043069012 -0.0066083022 -0.015565962
000330 09 2e 7d 3c 44 ed 01 3c 21 42 33 bc ce 52 05 bd
       0.01545287 0.007930104 -0.010941059 -0.03254967
000340 24 d5 c1 bc d9 72 f6 3b 2e dc e1 3c 92 c0 e4 3b
       -0.023661204 0.007521015 0.02757081 0.006980964
000350 28 e1 9c 3c 01 2f b0 ba b4 68 a0 bc ef 45 c6 3c
       0.019150332 -0.0013441743 -0.019581176 0.024203269
000360 4d fc 00 bc 65 ef ea bc 86 1a 05 bb 35 6d 75 bc
       -0.007872653 -0.028678605 -0.0020309999 -0.01497965
000370 53 d5 c4 3c 12 e9 fe 3c 3b 29 a4 bc b9 6c fd bc
       0.024027502 0.031116996 -0.020039191 -0.030935632
000380 77 ea 9c 3c 61 c0 ca 3b 1a 52 e1 bb c2 47 e6 bc
       0.01915477 0.006187484 -0.0068762423 -0.028110389
000390 4a 86 23 3b 95 b4 78 bc 4f 87 d8 bc 49 21 b9 3c
       0.0024951869 -0.015179773 -0.026431708 0.02259888
0003a0 83 c1 91 bc df 22 d1 bc 75 5e e1 bb 05 ee f8 bc
       -0.017792469 -0.025529323 -0.0068777152 -0.030386934
0003b0 0d 1d 89 3b 75 ee 49 3c 9c 83 92 bb f2 96 88 3c
       0.0041843713 0.012324919 -0.0044712555 0.016673539
0003c0 ad e0 1b 3c 4c 8d cf bb 08 6a 97 3b 44 43 27 bc
       0.009514016 -0.0063339826 0.004620794 -0.0102089085
0003d0 b5 32 86 3c 65 67 24 3c 3f 84 45 bc 68 1b 9b 3b
       0.0163816 0.010034417 -0.012055456 0.0047334917
0003e0 41 8b a4 bb 46 9a e0 bb bb 21 5c bb 8b ba c9 3c
       -0.005021483 -0.0068543283 -0.003358944 0.024625083
0003f0 00 1a b2 bc 83 6d 9f bc 84 fa 00 3c 5f 92 13 bd
       -0.021740913 -0.019461399 0.007872228 -0.036028262
