model_save/LSTM.pth (torch, 25969 bytes, 9 tensors)

batchNorm.weight f4 [3]
0	0x3f776f5d	0.966543
1	0x3f64333d	0.89140683
2	0x3f818e6d	1.012159

batchNorm.bias f4 [3]
0	0x3cb71b96	0.022352021
1	0xbc6d8c4b	-0.0144987805
2	0x3c629d07	0.013831384

batchNorm.running_mean f4 [3]
0	0x406729ab	3.6119182
1	0xbf5f47ea	-0.8721911
2	0x3f17a788	0.5924001

batchNorm.running_var f4 [3]
0	0x3da3f731	0.080061324
1	0x404768ab	3.1157634
2	0x3d7746f6	0.060370408

lstm.weight_ih_l0 f4 [128, 3]
0	0xbd97f829	-0.0742038
1	0xbd3e36eb	-0.046439093
2	0xbd01c4b8	-0.031681746
3	0xbc402d80	-0.011729598
4	0x3e2940d5	0.16528638
5	0xbdb179d3	-0.08665814
6	0x3d8c963b	0.06864592
7	0x3de6523d	0.112461545
8	0xbd803e55	-0.06261889
9	0xbd863049	-0.065521784
10	0x3d8dec18	0.06929797
11	0x3d16a778	0.036780804
12	0xbb8b9d65	-0.0042607062
13	0x3e374526	0.17897472
14	0xbb7ffc68	-0.0039060358
15	0xbdaf40b8	-0.08557266
16	0xbb86d559	-0.0041147885
17	0x3d416c67	0.04722252
18	0x3d04c9f5	0.032419164
19	0x3da83d38	0.082148015
20	0x3c9f5076	0.019447546
21	0x3cb76e93	0.022391593
22	0xbe0d1544	-0.13777643
23	0x3e01bfce	0.12670824
24	0xbdd535b9	-0.104106374
25	0xbd99b73c	-0.07505652
26	0x3d60af8c	0.054854915
27	0xbd00def3	-0.03146262
28	0x3dbb3187	0.09140306
29	0x3d84d081	0.064850815
30	0x3e19ba74	0.15012532
31	0x3d47665c	0.048681602
32	0x3d5cdab8	0.053919524
33	0x3c63f72f	0.013913914
34	0xbde43824	-0.111435205
35	0x3d3e07b0	0.04639405
36	0x3d6749db	0.05646692
37	0xbd174ec0	-0.036940336
38	0xbdcdd29f	-0.100499384
39	0xbdc02829	-0.0938266
40	0x3defef82	0.11715604
41	0xbdebe94a	-0.11519106
42	0x3e38e1d7	0.18054901
43	0xbcdcef77	-0.026969654
44	0x3d555853	0.052086186
45	0x3de8131a	0.11331768
46	0x3e0753f2	0.13215616
47	0x3d3412db	0.043963294
48	0xbe11ae03	-0.14226536
49	0x3c8c9f32	0.017165754
50	0xbd4e8446	-0.050419115
51	0xbe120420	-0.14259386
52	0xbd82a518	-0.063791454
53	0x3da5113a	0.08059926
54	0x3d25fb29	0.040522728
55	0x3e2a5e89	0.16637625
56	0xbdaa5b01	-0.08318139
57	0x3db94812	0.090469494
58	0x3e185176	0.14874825
59	0xbdbfc8d9	-0.093644805
60	0x3e292af4	0.16520292
61	0x3dbb4141	0.091433056
62	0xba9f4d4a	-0.0012153771
63	0xbd4a4269	-0.04937974
64	0xbda8c255	-0.08240191
65	0x3e18e295	0.14930184
66	0x3d83e448	0.064400256
67	0xbc882066	-0.016617011
68	0x3e2cf41a	0.16889992
69	0xbdbe912e	-0.093050346
70	0xbd8fba84	-0.07017997
71	0xbd9c7daa	-0.07641156
72	0x3e1abc91	0.15110995
73	0xbddb339d	-0.10703204
74	0x3a088c10	0.0005208859
75	0xbca7a1f8	-0.020462975
76	0xbcda07f9	-0.02661513
77	0xbe0e9cfa	-0.1392707
78	0x3dde9115	0.10867516
79	0x3b4d2cda	0.0031307251
80	0xbe124ed3	-0.14287882
81	0xbb918686	-0.0044410853
82	0xbe1024da	-0.14076558
83	0x3d7555bf	0.059896227
84	0x3da4bff4	0.08044425
85	0xbdc2b592	-0.09507288
86	0x3e274044	0.16333109
87	0x3d1dffdf	0.038574096
88	0xbe2ebd05	-0.17064293
89	0x3d2adf83	0.041717064
90	0xbc0c0950	-0.008547142
91	0x3dc1008a	0.09423931
92	0xbe2a38ee	-0.1662328
93	0x3cb399da	0.021923948
94	0xbde10d1c	-0.109888285
95	0x3d44fa1a	0.048090078
96	0xbe01db7b	-0.12681381
97	0x3d354f32	0.04426498
98	0xbe13e62a	-0.1444327
99	0x3d4bb324	0.04973139
100	0x3cd6378d	0.026149536
101	0x3e08994e	0.13339731
102	0x3e2895d7	0.1646341
103	0x3cb7a4fd	0.02241754
104	0xbd988c2b	-0.0744861
105	0xbd8752de	-0.066076025
106	0x3db52082	0.08844091
107	0x3dce6bc3	0.10079148
108	0xbb15f1ba	-0.0022879676
109	0xbdb42872	-0.08796777
110	0xbde34a3e	-0.11098145
111	0x3ce15d04	0.027510174
112	0x3d59d746	0.053183816
113	0x3de67cf3	0.11254301
114	0x3dc4a121	0.096010454
115	0x3e19707c	0.14984316
116	0x3b3aa85f	0.0028481705
117	0x3df0ea6b	0.11763462
118	0x3d00f4f9	0.031483624
119	0x3e3db19f	0.18524788
120	0x3dd9e650	0.10639632
121	0x3cb838a0	0.022487938
122	0x3d652ce9	0.055951033
123	0xbd446fbb	-0.047958117
124	0xbe37a78b	-0.17935006
125	0x3d882c15	0.06649033
126	0x3e1d9016	0.15386996
127	0x3d9296ac	0.07157645
128	0x3be96155	0.0071221986
129	0xbe42aee5	-0.1901203
130	0xbe07732c	-0.13227528
131	0x3da75b25	0.08171681
132	0x3d293662	0.04131163
133	0x3defd5d5	0.11710707
134	0x3dab664b	0.0836912
135	0x3b0c2d88	0.0021389443
136	0xbe0eb856	-0.13937506
137	0x3da76e92	0.081753865
138	0xbe0a2050	-0.13488889
139	0x3d0320c1	0.03201366
140	0xbc4f2db9	-0.0126451785
141	0x3da168a5	0.078812875
142	0x3e4cd992	0.20004871
143	0xbc7f698c	-0.015589129
144	0x3dab7f0d	0.083738424
145	0x3cbc5d42	0.022993688
146	0x3de50552	0.111826554
147	0xbda1af2a	-0.07894738
148	0xbe2f6217	-0.17127262
149	0xbd8bde1f	-0.068294756
150	0x3d144b26	0.03620448
151	0x3dad9783	0.08476164
152	0x3e01cf8c	0.12676829
153	0xbb8e3622	-0.004339949
154	0x3d744dde	0.059644572
155	0x3cb0873d	0.021548862
156	0x3e1e6f71	0.15472199
157	0x3d8bb48d	0.06821547
158	0x3c99c261	0.018769445
159	0xbc317fe8	-0.010833718
160	0x3d584582	0.052800663
161	0xbcfb8594	-0.030703343
162	0x3e2bfd0a	0.16795745
163	0x3dd25437	0.10269969
164	0xbd7780d5	-0.0604256
165	0x3d8b8d71	0.06814087
166	0xbd71e9e9	-0.059060965
167	0xbe17af91	-0.14813067
168	0xbe294cf5	-0.16533263
169	0xbe151a62	-0.14560845
170	0xbda4b3b8	-0.08042091
171	0xbdaa1782	-0.08305265
172	0xbd8562e4	-0.065130025
173	0x3e1cb24d	0.15302391
174	0x3d66fa04	0.056390777
175	0x3df17198	0.117892444
176	0x3d332c5e	0.043743484
177	0x3d7921cf	0.060823258
178	0xbcf39941	-0.029736163
179	0x3cac6476	0.021043997
180	0x3e341b22	0.17588475
181	0x3de3c1ef	0.11120974
182	0x3c381f81	0.01123798
183	0x3d649674	0.055807546
184	0x3dcda7f9	0.10041804
185	0x3de0fa92	0.109852925
186	0x3daafada	0.083486274
187	0xbd1eab54	-0.03873761
188	0x3d44829f	0.047976132
189	0xba7b2f51	-0.0009581941
190	0x3d7a47c7	0.06110361
191	0xbc6abbc8	-0.014326997
192	0x3df231ed	0.11825929
193	0xbddc113c	-0.10745475
194	0x3dbddb42	0.09270336
195	0x3d85acf8	0.06527132
196	0x3d917907	0.07103162
197	0x3c9ddc23	0.019270008
198	0xbda0026b	-0.07812961
199	0x3c1a1081	0.009403349
200	0x3dacf1c7	0.08444553
201	0x3d48e610	0.04904753
202	0xbe2aef4a	-0.16692844
203	0xbdf7182b	-0.120651565
204	0x3e39851f	0.18117188
205	0xbde601c6	-0.11230807
206	0xbcad7b95	-0.021177093
207	0xbdd8ac5c	-0.1057975
208	0x3d2d0406	0.042240165
209	0xbe1c6f3e	-0.1527681
210	0x3dc3e032	0.09564246
211	0xbd999d6c	-0.07500729
212	0xbe482c1d	-0.19548078
213	0xbcdc0ace	-0.02686062
214	0x3d0c344c	0.03422956
215	0xbda6a224	-0.081363946
216	0x3da262be	0.0792899
217	0xbe396abd	-0.18107124
218	0x3e1a1d4e	0.15050241
219	0xbe114061	-0.14184715
220	0x3d53b90a	0.05169014
221	0xbd214049	-0.039367948
222	0xbd5d5cdc	-0.054043636
223	0x3dfa71ad	0.12228713
224	0x3e1e1172	0.15436342
225	0x3e1516c4	0.14559466
226	0xbdbbf483	-0.09177496
227	0xbe03d7be	-0.12875268
228	0xbe171048	-0.14752305
229	0x3d787151	0.060654942
230	0xbb4f8f87	-0.0031671242
231	0xbdc22664	-0.09479979
232	0xbda77102	-0.081758514
233	0x3d958406	0.07300572
234	0xbcf78175	-0.030213097
235	0x3d14f5e4	0.036367312
236	0xbe07d06f	-0.13263105
237	0x3e22253b	0.15834515
238	0xbd307948	-0.043084413
239	0x3da64960	0.08119464
240	0xbe0d9e76	-0.1382998
241	0x3dd274be	0.10276173
242	0x3e18935f	0.14899968
243	0xbdbbac37	-0.09163707
244	0xbd975aed	-0.073903896
245	0xbdc86103	-0.097841285
246	0x3e31469f	0.17312096
247	0x3db98b44	0.09059766
248	0x3daed635	0.085369505
249	0x3d7bbffc	0.061462387
250	0xbddd4ebc	-0.10806033
251	0xbdc9c1ea	-0.09851439
252	0xbe00a1d1	-0.12561728
253	0xbd4bea1b	-0.049783807
254	0xbd6da07d	-0.05801438
255	0x3dc19bd7	0.09453552

lstm.weight_hh_l0 f4 [128, 32]
0	0x3e1f03a9	0.1552874
1	0xbc57d4bd	-0.013173279
2	0x3cdcf19e	0.02697068
3	0x3d5521da	0.052034236
4	0x3d15b8da	0.03655324
5	0xbc93a46c	-0.018022738
6	0xbd665e71	-0.05624241
7	0xbe092e1f	-0.133965
8	0xbde515ec	-0.11185822
9	0xbc1d43a4	-0.009598646
10	0x3bc4ae37	0.0060022133
11	0xbe326626	-0.17421779
12	0xbc70b2bf	-0.014691054
13	0xbe1a72f6	-0.15082917
14	0x3dac4205	0.0841103
15	0x3c93fa47	0.018063677
16	0x3c472d2d	0.012156767
17	0x3ce759a8	0.028240994
18	0xbe31d9fe	-0.17368314
19	0xbdf42456	-0.11920993
20	0xbdae9ccf	-0.085260026
21	0xbcb7db7c	-0.022443525
22	0xbdce870a	-0.100843504
23	0xbdb4dfdf	-0.088317625
24	0x3dc74cae	0.09731422
25	0x3e2d6d8c	0.1693632
26	0x3da11ec2	0.07867195
27	0x3e0c7bfd	0.13719173
28	0xbe54f6b0	-0.20797229
29	0x3df157c4	0.11784318
30	0xbc0384ec	-0.0080272965
31	0xbdbd1b85	-0.092337646
32	0xbcb55fc7	-0.022140397
33	0x3e340bd5	0.17582639
34	0xbd86c62c	-0.06580767
35	0x3dcfb1e1	0.101413496
36	0x3e05efd5	0.1307977
37	0xbc660d86	-0.01404131
38	0xbc1d0d9f	-0.009585767
39	0xbdb37f72	-0.08764543
40	0xbdcf2a72	-0.10115518
41	0xbc7efdbb	-0.015563424
42	0xbd4893e5	-0.04896917
43	0x3ddae9fb	0.106891595
44	0xbded21ac	-0.11578688
45	0x3d926b64	0.071493894
46	0x3c5d1315	0.013493319
47	0xbda87798	-0.08225936
48	0x3e1706e1	0.14748718
49	0x3e000b89	0.125044
50	0xbd8a626d	-0.067570545
51	0x3dc2748e	0.09494887
52	0xbe137680	-0.14400673
53	0xbe39b4c6	-0.18135366
54	0xbe1eef78	-0.15521038
55	0x3dd01cf1	0.1016177
56	0x3e2d891a	0.16946831
57	0x3dc1db2e	0.09465633
58	0x3db520f4	0.08844176
59	0x3d735e18	0.059415907
60	0xbd63b35b	-0.05559097
61	0x3d60d734	0.054892734
62	0xbc213901	-0.009840251
63	0x3dd97f22	0.10619952
64	0xbd78f94a	-0.060784616
65	0xbe0d2b6a	-0.13786092
66	0xbd85237d	-0.065009095
67	0xbe01dc06	-0.12681589
68	0x3dc69708	0.09696776
69	0xbd84f5e2	-0.06492211
70	0xbe1e43d4	-0.15455562
71	0x3be71634	0.0070522074
72	0xbddb96a5	-0.107220925
73	0x3e4df998	0.20114744
74	0x3d24101a	0.04005442
75	0xbd2b313a	-0.041794993
76	0x3d43ce0a	0.047803916
77	0x3ded7a6d	0.115956165
78	0xbdd8f243	-0.10593083
79	0x3d01a62d	0.03165262
80	0xbb58712d	-0.0033026442
81	0xbddd75c7	-0.1081348
82	0xbe189462	-0.14900354
83	0x3dcfbade	0.10143064
84	0x3e3a07fe	0.18167111
85	0x3e1a3157	0.15057884
86	0xbda1432a	-0.07874139
87	0xbe24ff5c	-0.16113037
88	0xbd179ef5	-0.037016828
89	0x3d78d74a	0.06075219
90	0x3d049916	0.032372557
91	0x3db607a4	0.08888176
92	0xbe2579ee	-0.16159794
93	0xbcd7efd5	-0.026359478
94	0x3d61f4c4	0.055165067
95	0x3c0c9c79	0.008582228
96	0x3d55f374	0.052234128
97	0xbd89e412	-0.06732954
98	0x3dca6568	0.09882623
99	0xbe26adba	-0.16277209
100	0xbdebef2f	-0.1152023
101	0xbc009947	-0.007849044
102	0x3c2c6e37	0.010524324
103	0x3cfa38cd	0.030544663
104	0xbe063c99	-0.13109054
105	0xbcd5b1a9	-0.026085692
106	0x3e0ece26	0.13945827
107	0x3da3ac87	0.07991891
108	0x3d08c848	0.033394128
109	0xbcdedf25	-0.027206013
110	0xbe20a8cc	-0.15689391
111	0x3d613113	0.05497844
112	0x3db716d7	0.08939903
113	0xbd2f6ad7	-0.0428265
114	0x3e130cc4	0.14360338
115	0xbe3ecb4b	-0.18632238
116	0x3e399f79	0.1812724
117	0xbddf504e	-0.10903989
118	0x3e4076e4	0.18795353
119	0x3e2b856a	0.16750112
120	0x3e1c49a9	0.15262474
121	0xbd87fe71	-0.06640328
122	0xbd26bfec	-0.040710375
123	0x3d4c6499	0.049900625
124	0xbcc0eb1f	-0.023549614
125	0xbd89e84a	-0.06733759
126	0xbbbae6ef	-0.005703799
127	0x3e27d7e7	0.16390954
128	0xbdec480f	-0.115371816
129	0x3c6b6240	0.014366686
130	0xbc3fd2ef	-0.011708005
131	0xbd3661df	-0.04452693
132	0xbe2abdd4	-0.16673976
133	0x3d09c1b3	0.03363199
134	0x3dc33f6e	0.09533583
135	0x3d34ac2c	0.04410951
136	0x3e133df1	0.14379098
137	0x3df1780f	0.117904775
138	0x3e0cb4e7	0.13740884
139	0x3e3705c2	0.1787329
140	0xbdd3802f	-0.103271835
141	0xbe40f28a	-0.18842521
142	0xbde48a28	-0.11159164
143	0x3dc19a7f	0.09453296
144	0xbe1a7edf	-0.1508746
145	0x3d7fbf8b	0.06243853
146	0xbd17fed4	-0.037108257
147	0x3d581116	0.05275067
148	0x3d82f619	0.06394596
149	0x3e193769	0.14962544
150	0xbdac7c0a	-0.08422096
151	0x3e31967d	0.17342563
152	0xbe008f6d	-0.12554713
153	0x3e1822e2	0.14857057
154	0x3e2da73a	0.16958323
155	0x3b6c2d27	0.0036037655
156	0x3e0d1840	0.13778782
157	0xbdc01183	-0.0937834
158	0x3d116130	0.035493076
159	0x3b97bc1e	0.0046305796
160	0x3c02833e	0.007965861
161	0x3e13a76c	0.14419335
162	0xbc4f6164	-0.012657497
163	0x3d94b58a	0.07261188
164	0x3e0ffc54	0.140611
165	0xbe231e94	-0.15929633
166	0x3d6318f4	0.05544372
167	0x3d55a55f	0.052159663
168	0x3e4471ff	0.19184111
169	0x3d6eb4bd	0.058277834
170	0x3dde9379	0.10867972
171	0xbd783242	-0.060594805
172	0x3e03f305	0.12885673
173	0x3da91144	0.08255246
174	0xbd7b1c20	-0.06130612
175	0xbd8068f8	-0.06270021
176	0xbe0f1a33	-0.13974838
177	0xbdb303b9	-0.087409444
178	0xbdf1c836	-0.11805765
179	0x3d406e54	0.046980217
180	0xbd81c891	-0.06337083
181	0x3dd73261	0.10507656
182	0xbd39b1a2	-0.04533542
183	0x3e0989dd	0.13431497
184	0xbc3be75e	-0.011468736
185	0x3e2959f1	0.16538216
186	0xbe28d017	-0.1648563
187	0xbb9b50e9	-0.00473987
188	0xbd90d13a	-0.07071157
189	0xbe1cd91f	-0.153172
190	0x3d91053b	0.07081076
191	0xbd3c5470	-0.045978963
192	0x3cddd6d2	0.027079973
193	0x3e084809	0.13308729
194	0x3dc90c46	0.09816794
195	0xbe1b0eb1	-0.15142323
196	0xbad70ed4	-0.0016407617
197	0x3e025c96	0.12730631
198	0xbbdabf4c	-0.0066756364
199	0xbe21923f	-0.15778445
200	0xbe325ee0	-0.17419004
201	0xba30faf9	-0.0006751265
202	0xbbd86e97	-0.00660498
203	0x3d80ccbd	0.06289051
204	0x3d4fc90a	0.050728835
205	0xbe3f5359	-0.18684138
206	0xbde976d0	-0.11399615
207	0xbe2a5de1	-0.16637374
208	0x3e40a482	0.18812755
209	0x3e15ea92	0.14640263
210	0xbd239063	-0.03993262
211	0xbd37325e	-0.04472577
212	0x3e18ce4c	0.14922446
213	0x3d824f70	0.06362808
214	0x3e3116a4	0.17293793
215	0x3dad1a13	0.08452239
216	0xbdd3ed11	-0.10347951
217	0x3d4125f8	0.04715535
218	0x3da1b200	0.07895279
219	0xbc0ca9e6	-0.008585429
220	0x3d6bcee0	0.05757034
221	0x3e00d9e2	0.12583116
222	0xbe284290	-0.16431642
223	0xbe1f98d0	-0.15585637
224	0x3d167c78	0.036739796
225	0x3e2f4bc9	0.17118753
226	0xbd50a034	-0.05093403
227	0xbe353bf3	-0.1769865
228	0xbdccd986	-0.10002427
229	0xbd6674a0	-0.056263566
230	0x3cfaf015	0.030632058
231	0x3e1d7302	0.15375903
232	0x3ca531b2	0.020165298
233	0xbe3261df	-0.17420147
234	0x3dc25d21	0.09490419
235	0x3e136c0a	0.14396682
236	0x3de705d5	0.11280409
237	0x3cf1df81	0.02952552
238	0xbdf842cd	-0.12122116
239	0xbd21df47	-0.039519574
240	0xbe001677	-0.1250857
241	0xbe05d04b	-0.13067739
242	0xbe22431e	-0.15845916
243	0x3e1866d2	0.14882973
244	0xbe0258b5	-0.12729152
245	0xbe23500e	-0.15948507
246	0x3dc6469e	0.09681438
247	0xbe10bf1e	-0.14135405
248	0x3dfef64f	0.124493234
249	0xbcd4f281	-0.025994541
250	0x3d40a8de	0.047036044
251	0x3c93781c	0.018001609
252	0x3dcdd2f2	0.1005
253	0x3e12de5b	0.14342634
254	0x3d056a7e	0.032572262
255	0x3cff37f6	0.031154614

lstm.bias_ih_l0 f4 [128]
0	0xbd5c5e42	-0.05380083
1	0x3c1b6f07	0.00948692
2	0xbdd4cbe7	-0.10390454
3	0xbdb0336f	-0.0860356
4	0xbd9a0136	-0.07519762
5	0x3e262d10	0.16228127
6	0xbdf9e830	-0.122024894
7	0x3dde10db	0.10843059
8	0xbe167606	-0.1469346
9	0xbd0aed74	-0.03391786
10	0xbe009902	-0.12558368
11	0x3d1e7842	0.038688906
12	0x3dd8bbe4	0.10582712
13	0x3da768dd	0.08174298
14	0xbe0084ac	-0.1255061
15	0x3cbaab0b	0.022786638
16	0xbd170d0c	-0.036877677
17	0x3ca1a1e8	0.019730523
18	0xbd2ba3ca	-0.04190425
19	0x3d82a9d1	0.06380046
20	0xbd2795ff	-0.04091453
21	0x3cc8df40	0.024520516
22	0xbd7faa6b	-0.062418383
23	0x3cda72d1	0.026666077
24	0x3e39eb2f	0.18156122
25	0x3d4ce2ef	0.05002111
26	0xbdf12595	-0.11774746
27	0xbe09ade8	-0.13445246
28	0xbe116376	-0.14198098
29	0xbe0a9360	-0.13532782
30	0xbd10d3a3	-0.035358083
31	0xbb1423e6	-0.0022604405
32	0x3e2c482d	0.16824408
33	0x3e0a2fce	0.13494799
34	0x3e1d160f	0.15340446
35	0x3df49094	0.119416386
36	0x3bb34659	0.0054710326
37	0xbe2d5c8a	-0.16929832
38	0xbcbb04b3	-0.02282939
39	0x3e06f6e1	0.13180114
40	0xbe06f5c4	-0.1317969
41	0xbdb863a6	-0.090033814
42	0xbd1c678e	-0.038184695
43	0x3c8b60a7	0.01701386
44	0x3e28c02f	0.16479562
45	0x3d31ae8d	0.043379355
46	0x3e0aabe8	0.1354214
47	0x3dd690eb	0.1047686
48	0x3e198076	0.1499041
49	0xbddd449c	-0.10804102
50	0xbd2f3cf1	-0.042782728
51	0x3bb6ae33	0.0055749654
52	0xbd46e3e1	-0.048557166
53	0x3e1c47fd	0.15261836
54	0xbe029630	-0.12752604
55	0x3e204a23	0.15653281
56	0x3c4af953	0.012388545
57	0x3e2e00d9	0.16992511
58	0x3d34158e	0.04396587
59	0xbe0a0ae4	-0.13480717
60	0x3e2f3597	0.17110287
61	0x3d34f00f	0.04417425
62	0x3d9f0333	0.07764282
63	0x3dfd1a1d	0.12358496
64	0xbd70709c	-0.058701143
65	0x3ce3a4c1	0.027788522
66	0xbd9d3467	-0.076760106
67	0x3dcd27be	0.10017346
68	0x3c3414f9	0.010991328
69	0x3d2dab4e	0.042399697
70	0xbde156e6	-0.11002903
71	0xbdb6d27b	-0.08926865
72	0xbdab5a63	-0.08366849
73	0xbdf08f22	-0.117460504
74	0x3e155373	0.14582615
75	0xbdfcc272	-0.12341775
76	0x3debc719	0.11512584
77	0xbe2294fb	-0.15877144
78	0x3e27847a	0.1635913
79	0xbe23bee9	-0.15990795
80	0x3e0f10f3	0.1397131
81	0x3ca99071	0.020698758
82	0xbd093ffc	-0.033508286
83	0xbdcd3729	-0.100202866
84	0x3dc4b030	0.096039176
85	0x3d182ffd	0.03715514
86	0x3daf7887	0.08567911
87	0x3cfdccfd	0.030981535
88	0x3d090de9	0.03346053
89	0x3e1b194b	0.15146367
90	0x3da7ab15	0.08186928
91	0x3e24c06b	0.16089027
92	0xbdf3ca64	-0.11903837
93	0xbce2e995	-0.027699271
94	0xbd23bb17	-0.039973345
95	0x3d8f4625	0.06995801
96	0x3d381e78	0.044950932
97	0xbdc7fdce	-0.09765206
98	0x3db2b068	0.08725053
99	0xbc0b0ce5	-0.008486961
100	0xbdda9874	-0.106736094
101	0x3e35e04a	0.1776134
102	0xbde9aa80	-0.114094734
103	0xbd8abec8	-0.0677467
104	0x3e247872	0.16061571
105	0xbd3f2cf1	-0.04667372
106	0x3de4cc2d	0.11171756
107	0xbd607a40	-0.054804087
108	0xbd9dd1d3	-0.077060364
109	0x3e2e0b82	0.16996577
110	0xbe1d9e42	-0.15392402
111	0x3d0a0106	0.033692382
112	0x3caacf5d	0.020850832
113	0xbdd67d04	-0.104730636
114	0x3cc6f91d	0.024288708
115	0xbd4b33fe	-0.04961013
116	0x3d673d81	0.05645514
117	0xbd9b59b8	-0.07585472
118	0xbdde9c35	-0.10869638
119	0xbe0e0f6f	-0.13873075
120	0x3d512653	0.05106194
121	0x3c71dbf5	0.0147619145
122	0xbd2321cd	-0.039827157
123	0xbdf742c0	-0.120732784
124	0x3c479fe3	0.012184116
125	0xbe119b51	-0.14219405
126	0x3d461ab9	0.04836533
127	0xbcdefc28	-0.027219847

lstm.bias_hh_l0 f4 [128]
0	0xbdb79a3e	-0.08964966
1	0x3d95f1b4	0.07321492
2	0xbdf550ef	-0.119783275
3	0x3c2cd531	0.010548876
4	0x3dd7ec9b	0.10543176
5	0x3e1af886	0.15133867
6	0xbd61aaef	-0.055094656
7	0xbe1472c4	-0.14496905
8	0x3dfb1fae	0.12261902
9	0x3d024123	0.0318004
10	0xbe225d2c	-0.15855855
11	0xbbff524c	-0.007791793
12	0x3bad6dab	0.0052926145
13	0xbcf25407	-0.029581083
14	0x3e0b291e	0.13589904
15	0x3d41bc37	0.047298636
16	0xbda70398	-0.08154982
17	0xba267319	-0.00063495483
18	0x3c0c37ff	0.008558272
19	0xbd9d7339	-0.076879926
20	0xbdd4fd5e	-0.103998885
21	0xbc7ddd47	-0.015494651
22	0xbc8ed8c8	-0.017437354
23	0xbdd5c1ba	-0.10437341
24	0x3e21b0e4	0.15790135
25	0x3e3e10ae	0.1856105
26	0xbe03fc02	-0.12889102
27	0x3dd7dd20	0.10540223
28	0xbdff14ab	-0.12455114
29	0x3d3d8d5e	0.046277396
30	0x3e316a77	0.1732577
31	0x3ced12d5	0.028939644
32	0xbdff79fc	-0.124744385
33	0x3b57e212	0.0032941145
34	0xbe03c054	-0.12866336
35	0xbe06028f	-0.13086914
36	0xbd0fbd46	-0.035092615
37	0xbddf2a30	-0.108967185
38	0x3d9aa2fe	0.075506195
39	0x3d38c5b9	0.045110438
40	0xbe18cdc2	-0.1492224
41	0xbca9f598	-0.020746991
42	0x3e2f041f	0.17091416
43	0x3df8f3bd	0.121558644
44	0x3dbdb4fb	0.09263035
45	0x3d9b5de9	0.07586271
46	0xbdfd38ab	-0.12364324
47	0x3e1dbcc4	0.1540404
48	0x3e361538	0.17781532
49	0xbd13f25f	-0.036119815
50	0xbe14cc3b	-0.14531033
51	0xbc917cc6	-0.017759692
52	0xbb762500	-0.0037558675
53	0x3e052a02	0.13004306
54	0x3ddeab7e	0.10872553
55	0xbe055241	-0.13019659
56	0xbdb565ef	-0.08857333
57	0x3d23d53c	0.039998278
58	0x3e0745e9	0.13210262
59	0x3bbafe17	0.0057065594
60	0xbe270514	-0.16310531
61	0x3daab227	0.08334761
62	0xbd0dbde8	-0.034604937
63	0x3d659fab	0.056060474
64	0x3d8b2836	0.06794779
65	0x3dc4fd84	0.09618667
66	0x3a461d05	0.0007557425
67	0x3d8ffbf3	0.070304774
68	0x3d92176d	0.07133374
69	0xbd9bff26	-0.07617025
70	0x3d0d686b	0.03452341
71	0x3dda8fd8	0.10671967
72	0xbe0b49cf	-0.13602374
73	0x3ce6e59e	0.028185662
74	0x3e19821c	0.14991039
75	0x3da3bb3b	0.07994696
76	0xbda43289	-0.08017451
77	0x3d1114b9	0.035420153
78	0x3bebae6f	0.007192425
79	0x3e21ceea	0.15801588
80	0xbdb334b1	-0.087502845
81	0x3dc91486	0.09818368
82	0x3caf36a9	0.021388369
83	0x3a59a680	0.00083027035
84	0xbc73a1f0	-0.014870152
85	0xbe249a27	-0.1607443
86	0x3d929c97	0.071587734
87	0xbe027118	-0.12738454
88	0x3e35e8dc	0.1776461
89	0x3d928499	0.07154197
90	0xbd9b33e9	-0.075782605
91	0x3e1aab8a	0.151045
92	0x3e0d6c2f	0.138108
93	0x3e2a6108	0.16638577
94	0x3db3e3b2	0.08783664
95	0x3d2caac5	0.042155046
96	0xbdaed7d4	-0.0853726
97	0x3e30e975	0.17276557
98	0x3dbd8271	0.09253395
99	0x3dcccf85	0.10000519
100	0x3e371e8c	0.17882746
101	0x3e0b7a18	0.13620794
102	0xbd9e862d	-0.07740436
103	0x3e0cafa7	0.13738881
104	0x3d8f38d1	0.06993259
105	0xbd6dbb03	-0.058039676
106	0x3e1c7ae0	0.15281248
107	0xbd91823b	-0.071049176
108	0xbd87d268	-0.06631929
109	0x3ca52382	0.020158533
110	0x3caca4dc	0.021074705
111	0x3e0d6558	0.13808191
112	0xbd90daa3	-0.07072952
113	0xbe1d85dd	-0.15383096
114	0x3d78102b	0.060562294
115	0xbddaa84e	-0.10676633
116	0xbe16d6e5	-0.14730413
117	0xbdf597a3	-0.11991813
118	0xbdfb5525	-0.122720994
119	0xbd17aa40	-0.037027597
120	0xbde45519	-0.111490436
121	0x3dffb147	0.12484985
122	0xbd9084f6	-0.0705661
123	0x3e006407	0.12538157
124	0xbdae94a9	-0.085244484
125	0x3deb840e	0.11499797
126	0x3cbab204	0.022789963
127	0xbe24feef	-0.16112874

output.weight f4 [1, 1024]
0	0xba08d99c	-0.00052204146
1	0x3d15f792	0.036613055
2	0x3cbce0aa	0.023056347
3	0x3d096c9b	0.03355084
4	0x3d0fc6c4	0.035101667
5	0xbb7e3b2f	-0.00387926
6	0xbd1b3e94	-0.037901476
7	0xbcbfaee5	-0.023398826
8	0xbd021d11	-0.031766
9	0x3be3787f	0.0069418545
10	0x3cd62fbf	0.026145814
11	0xba7a1499	-0.00095398125
12	0x3c8328f6	0.016010743
13	0xbc136a5b	-0.008997525
14	0x3cd1d438	0.02561389
15	0x3b850b95	0.0040602186
16	0x3b917ca2	0.004439906
17	0xbc0572f5	-0.008145084
18	0xbc8fe87f	-0.017566917
19	0xbb3ad8b3	-0.002851051
20	0xbb88eca3	-0.0041786
21	0xbc15da2b	-0.009146254
22	0xbb689de8	-0.003549451
23	0xbc6f7c00	-0.014616966
24	0xbc512137	-0.012764267
25	0xbc544121	-0.012954981
26	0xbb75e98d	-0.003752324
27	0x3d093a02	0.033502586
28	0x3c0625a8	0.008187689
29	0x3c73fcb3	0.014891791
30	0x3c7c6025	0.015403782
31	0x3d067747	0.032828595
32	0x3c0e15d9	0.008672201
33	0x3d1a428f	0.03766113
34	0xbb3df277	-0.0028983632
35	0x3d005016	0.031326376
36	0x3c295133	0.010334301
37	0xbcb19003	-0.021675115
38	0xbc217a01	-0.009855748
39	0xbd143555	-0.036183674
40	0xbb1d9d22	-0.0024049957
41	0xbc7e72ec	-0.015530329
42	0x3c9734fb	0.01845788
43	0xbd26e2a0	-0.04074347
44	0x3c84ccad	0.016210878
45	0xbc46fa1b	-0.012144591
46	0x3bdecad6	0.0067990823
47	0x3c3bb701	0.011457206
48	0x3d1981b4	0.03747721
49	0x3d1b6028	0.0379335
50	0xbcb059ab	-0.021527132
51	0x3cac1f82	0.021011118
52	0xbc0916a5	-0.008367215
53	0xbcf8815d	-0.030335123
54	0x3bf54c8c	0.0074859317
55	0xbba336d3	-0.004980901
56	0x3d1357fa	0.035972573
57	0x3d220520	0.03955567
58	0xbcd3a6be	-0.025836345
59	0x3cc3a5ef	0.023882834
60	0xbc1208c9	-0.008913227
61	0x3c8c6ed4	0.01714269
62	0x3b7eee41	0.0038899335
63	0x3bb91ac0	0.005648941
64	0x3c2ff8d0	0.010740474
65	0x3cba2581	0.022722961
66	0xbcc552bd	-0.024087304
67	0xbbc4030c	-0.0059818085
68	0x3d171721	0.03688729
69	0xbcd1a56f	-0.02559158
70	0x3c96d0dc	0.018410139
71	0xbcfb6d4b	-0.030691763
72	0x3ca5e085	0.02024866
73	0x3c9a5761	0.018840494
74	0x3bd640eb	0.0065385005
75	0xbcea76fb	-0.028621187
76	0x3c9b73a0	0.018976033
77	0xbcb74177	-0.022370083
78	0x3c57d5ba	0.013173515
79	0x3ce54f90	0.02799204
80	0xbc485e04	-0.012229446
81	0x3c7f243a	0.015572602
82	0x3cedb796	0.029018205
83	0xbd104f26	-0.03523173
84	0x3c1306eb	0.008973817
85	0xbc214218	-0.009842418
86	0xbc303f1e	-0.010757236
87	0xbd0f9205	-0.035051364
88	0xbc9f7f2c	-0.01946982
89	0x3cff8204	0.031189926
90	0xbc699aac	-0.014258068
91	0x3d1b620e	0.03793531
92	0x3d1f1147	0.038834836
93	0x3bb08c29	0.005387802
94	0xbc6abe17	-0.0143275475
95	0x3cc338fa	0.02383088
96	0xbc1bcf99	-0.009509944
97	0xbc3674a1	-0.011136205
98	0xbca3ce15	-0.019995729
99	0x3d0ca28d	0.034334708
100	0xbbb0b99a	-0.005393219
101	0x3b9eefce	0.0048503643
102	0xbc9b2e5e	-0.018943008
103	0x3c8c286c	0.017109118
104	0xbc3c8c20	-0.011508018
105	0xbc58f192	-0.013241189
106	0xbc671b0d	-0.0141055705
107	0x3c01909b	0.007908012
108	0xbcc0c26d	-0.02353021
109	0xbd185523	-0.037190568
110	0x3a68d909	0.00088824384
111	0x39b907a8	0.00035291654
112	0xbc10f1e1	-0.008846731
113	0x3d2153ec	0.039386675
114	0x3b26c7db	0.0025448713
115	0x3c2d3027	0.010570562
116	0x3d1a9099	0.037735555
117	0x3c9e1463	0.01929683
118	0x3bc6e680	0.006069958
119	0xba12a8e9	-0.00055946276
120	0x3be4f19d	0.0069868104
121	0x3cb1ffbd	0.02172839
122	0xbbc57057	-0.006025355
123	0x3bd89efb	0.006610749
124	0x3d15f539	0.036610816
125	0x3d035431	0.032062713
126	0x3c4b9778	0.01242625
127	0xbca9e8e8	-0.020740941
128	0x3c55ce5e	0.01304969
129	0x3ccbdd4e	0.0248858
130	0xbcf6eaa3	-0.03014118
131	0x3acb4c2e	0.0015510374
132	0x3cbdbcde	0.023161348
133	0xbcc9ef60	-0.024650276
134	0xbcb967d8	-0.022632524
135	0xbc95af80	-0.018272161
136	0xbcae063f	-0.021243213
137	0xbccf945d	-0.0253393
138	0x3c92e3db	0.017930916
139	0x39d7daab	0.00041170916
140	0xbc92ae9b	-0.017905524
141	0x3a91bac4	0.0011118283
142	0xbc4ccec9	-0.012500473
143	0x3cc9d49b	0.024637511
144	0x3d163af4	0.036677316
145	0x3b2e7eb6	0.0026625819
146	0x3ca180f6	0.019714814
147	0xbcafc9d5	-0.021458546
148	0x3b55e7b6	0.0032639331
149	0x3c35b3a4	0.011090193
150	0xbc2cf217	-0.010555766
151	0xbd1022ac	-0.035189316
152	0x3c82736b	0.015924176
153	0x3cb40fe0	0.021980226
154	0x3c7623c1	0.015023173
155	0x3d15c062	0.036560424
156	0x3c70441c	0.014664676
157	0x3cf209b5	0.029545644
158	0xbcb911eb	-0.022591552
159	0x3c2f85cc	0.010713052
160	0xbca8145f	-0.020517526
161	0xba965ee1	-0.0011472368
162	0x3c2dca4c	0.010607313
163	0x3ca57dcd	0.020201588
164	0x3d094e9e	0.03352224
165	0xbc81098a	-0.015751619
166	0xbbb90a0e	-0.0056469506
167	0xbce264ba	-0.02763592
168	0x3c5e14be	0.01355475
169	0xbd003fd7	-0.031310882
170	0x3cd079ef	0.025448767
171	0xbcc5eeb3	-0.024161672
172	0x3bd19b36	0.0063966764
173	0xbcc42d32	-0.023947332
174	0x3b8c8f00	0.004289508
175	0x3c983994	0.018582143
176	0x3cb574ed	0.022150481
177	0xbbd35ae1	-0.0064500426
178	0xbbd4ef9e	-0.006498291
179	0x3b10cc12	0.0022094292
180	0xbcc8066e	-0.024417128
181	0xbcc038e6	-0.023464631
182	0x3c5e82af	0.013580962
183	0x3c8b49df	0.017002998
184	0x3c92220d	0.017838502
185	0xbb735778	-0.0037130993
186	0x3c5634be	0.013074098
187	0xbc30b078	-0.010784261
188	0x3ca9c439	0.020723449
189	0xbc8e08b1	-0.017338129
190	0xbd213709	-0.039359126
191	0x3c1f4734	0.009721566
192	0xbc563961	-0.013075204
193	0xbca3314b	-0.019920966
194	0x3c438a56	0.011934837
195	0x3d2110f6	0.039322816
196	0x3cb0c856	0.021579903
197	0xbd16f928	-0.036858708
198	0xbc844a22	-0.01614863
199	0xbcb7fb91	-0.022458823
200	0x3c1ef88d	0.009702814
201	0x3b1831ce	0.0023223045
202	0x3d1ce55a	0.038304664
203	0xbc593ee6	-0.013259625
204	0xbc1477c4	-0.0090617575
205	0x3b5bd552	0.0033543897
206	0xbbb76161	-0.0055963253
207	0xbc18fe7d	-0.0093380185
208	0x3cf0979a	0.029369164
209	0x3d0b73a0	0.034045815
210	0x3bf6f112	0.007536062
211	0xbcf29125	-0.029610226
212	0xbc8737d2	-0.01650611
213	0xbd154fb7	-0.036452975
214	0x3ca4bcbe	0.02010953
215	0xbacdea29	-0.0015710044
216	0xbb3e8d33	-0.002907586
217	0x3cde7d9f	0.02715951
218	0xbc5fe719	-0.013665938
219	0x3809acfd	3.2824453e-05
220	0x3c1a102a	0.009403268
221	0xbc9210d1	-0.017830284
222	0x3c4ec7dd	0.012620893
223	0xbca36c0f	-0.019948987
224	0x3b203953	0.002444823
225	0xbc565708	-0.013082273
226	0xbcec0566	-0.028811168
227	0xbc7fbf59	-0.015609586
228	0xbb4a48fc	-0.0030866256
229	0x3c20f145	0.009823148
230	0xbd23a290	-0.039949954
231	0xbc380843	-0.0112324385
232	0xbcea8d76	-0.028631907
233	0xbc9ebf2b	-0.019378265
234	0xbc43c379	-0.01194846
235	0xbaa818da	-0.0012824789
236	0xbbc5515e	-0.0060216626
237	0xbbf6ebee	-0.007535449
238	0x3d2945f9	0.041326497
239	0x3d0214a2	0.03175796
240	0x3c108225	0.008820091
241	0x3ca660a9	0.020309763
242	0xbc9eb562	-0.0193736
243	0x3c2f7d11	0.0107109705
244	0x3c4dfec5	0.012572949
245	0x3bb682bc	0.005569784
246	0xbc996058	-0.018722698
247	0xbbe5fabf	-0.0070184167
248	0xbc6803eb	-0.01416109
249	0x3d0b0b29	0.03394619
250	0xbc774e92	-0.015094416
251	0x3bdb2036	0.0066871895
252	0xbc3df055	-0.011592944
253	0x3c7a5c99	0.015280866
254	0xbb7f7352	-0.0038978648
255	0x3c5ca02c	0.013465922
