model_save/RNN.pth (torch, 11751 bytes, 9 tensors)

batchNorm.weight f4 [3]
00000000: 1e44 443f 69c9 403f fd66 803f
0.7666644 0.7530733 1.003143

batchNorm.bias f4 [3]
00000000: 447f 70bd 22ea 2ebb 0e93 b23b
-0.05871512 -0.0026689847 0.005449659

batchNorm.running_mean f4 [3]
00000000: 1cf8 6640 036f 60bf fcb3 163f
3.6088934 -0.8766939 0.58868384

batchNorm.running_var f4 [3]
00000000: f1fa a13d b890 4840 bd64 773d
0.079091914 3.133833 0.060398806

lstm.weight_ih_l0 f4 [32, 3]
00000000: 6803 79bd f2f7 71bd 9b5a 9fbc 02a6 7fbc
00000010: 324a e63d 3801 c3bd b509 5b3d 836d ef3d
00000020: 7047 85bd 191c 5fbd dbb7 8d3d a85b 083d
00000030: b642 59bb a369 1c3e f983 8c3b 02f5 b4bd
00000040: 3a03 463c ce65 243d 4c86 3e3d 891f 813d
00000050: b229 3d3c bfb9 bc3c f1fd f9bd 4ec1 023e
00000060: 148c cebd c307 44bd 1ca2 713d bc1c abbb
00000070: 931a cd3d 6913 9c3d 0eb8 283e c9f6 3d3d
00000080: 05b8 613d d26b 0e3d 9404 cbbd ee7b 9b3c
00000090: e11f 7f3d 8f3e 1dbd 2aa9 a8bd f504 cebd
000000a0: a354 973d 4311 f9bd 9c2c 343e d2d8 043d
000000b0: 8baf 2a3d e4d9 b93d 7bf3 f73d 50dd 973d
000000c0: 2f59 17be 7d8f cabc 04a3 8dbd cfb3 0ebe
000000d0: d651 99bc 05cc bd3d aed1 e83c 1b99 be3d
000000e0: d3c2 a9bd f3ad 983d 697a ec3d cc10 f4bd
000000f0: 70f8 1d3e ad5c 5c3d b845 f5ba cd5b 58bd
00000100: 554f 8bbd 98c3 003e 1f02 5c3d 6006 513c
00000110: 7a83 263e b757 c4bd addc 88bd 6db4 aebd
00000120: 6590 1b3e 8a34 ecbd e3d9 743c cf44 17bc
00000130: 14d1 33bc 6ea2 1fbe 0f8f b43d 0686 e2ba
00000140: c50e 25be 502f ddbb dea9 cfbd 2227 803d
00000150: d29b a93d 8d77 d4bd 1eef 173e 7598 1f3d
00000160: f4dc 49be 4b03 163c f96d eb3c cc70 913d
00000170: 8052 20be 3589 dabb 80d4 d8bd b787 c63c
-0.060794264 -0.05907435 -0.019452384 -0.015603544 0.112446204 -0.09521717 0.053476054 0.116908096
-0.06507766 -0.054470155 0.06919833 0.033290535 -0.0033151335 0.15274672 0.0042881933 -0.08835794
0.01208573 0.04013615 0.046514794 0.06304843 0.0115455855 0.02303779 -0.122066386 0.12769052
-0.100853115 -0.047858965 0.05899249 -0.0052219313 0.10014834 0.0762089 0.16476461 0.04637793
0.055107135 0.034770794 -0.099129826 0.018979993 0.06228626 -0.03838974 -0.082353905 -0.10059539
0.0738919 -0.121614955 0.17595142 0.03243334 0.041671317 0.090747625 0.12106987 0.07415259
-0.14780115 -0.024726624 -0.069158584 -0.13935779 -0.01871578 0.09267429 0.028420296 0.09306546
-0.08289113 0.07455053 0.115467854 -0.11917266 0.15426803 0.05379932 -0.0018712794 -0.052821923
-0.06802241 0.12574613 0.05371296 0.012757868 0.16261092 -0.09587043 -0.066827156 -0.08530507
0.15191801 -0.115334585 0.014944526 -0.009232714 -0.010975141 -0.15589306 0.08816349 -0.0017282374
-0.16118915 -0.006750025 -0.101398215 0.06257464 0.082816735 -0.10374365 0.1483731 0.038963754
-0.19713193 0.009156059 0.028738962 0.071015924 -0.15656471 -0.0066691884 -0.10587406 0.024234636

lstm.weight_hh_l0 f4 [32, 32]
00000000: bf44 febd 5901 3a3c ae7a 1ebe 9dc6 753d
00000010: 002a 0a3d c682 103e adac 213e 261d 683d
00000020: f6b4 80bd a00e 46bd e0c6 d73d faff aa3d
00000030: e8c8 1a3c dca6 f9bd f767 bfbd 96c3 af3c
00000040: cb56 683d f12a df3d 196f e03d 3d5d f33d
00000050: 0d10 aa3b f902 df3d 7e9c 893d a4b9 233e
00000060: 36e6 d23d db77 393b 7760 533d 119f 39bd
00000070: e21f 18be 3fdc 8d3d eafd 1a3e 272f 963d
00000080: a203 da3b 2029 19be 87f0 14be fca6 8a3d
00000090: fbb9 693d 86f3 da3d c1e7 c93d 1edb 63bc
000000a0: b6d5 1abe 4013 a03d ad7d 0abe 717c 123d
000000b0: ba5b 28bc 799d b63d bd47 203e ccaf c5bb
000000c0: 928c bc3d 41db e13b 840d c23d 7e61 8ebd
000000d0: bb8d 23be bc3e 99bd 6670 a03c 8cd6 a43d
000000e0: f62b e63d fff0 4a3b 3105 9a3d a53c 0dbb
000000f0: 33b4 183e f963 643d d97f 643c 2d3a 91bc
00000100: 1666 513d 4b89 1dbd c2fc 253e 31ba c03d
00000110: fa3b 70bd 62e6 8d3d fba0 a3bd 8d88 1dbe
00000120: f27f 24be cbb7 26be 902a 98bd 2ef9 92bd
00000130: 3fe4 1cbd ea29 233e 3a88 843c fc43 ac3d
00000140: 7858 5f3d f2cf 553d ed0d 12bc 7be5 d33c
00000150: 7a0e 263e 2c0b 053e 78d8 57bc efd8 823d
00000160: 735f a03d 79fd d33d 3b86 f63d c167 a1bd
00000170: ec11 813d a246 183c 0d36 af3d e4ec 34bd
00000180: 7519 ee3d defe f0bd a0d8 d13d c82b 763d
00000190: 09ba cb3d 8421 323c c4a2 aebd 9c47 8f3b
000001a0: a9ef c83d a7d5 4d3d 6f08 1cbe 5c18 16be
000001b0: 9cb1 383e 6746 d2bd 8889 18bd e246 eebd
000001c0: f0c1 853d 305c 12be 2f3d f03d be4a e9bd
000001d0: b728 2fbe e952 fdbc b0f0 393d 5ada a7bd
000001e0: 7400 873d c656 26be 733d 133e 6404 18be
000001f0: c207 303d ff4b aebc d4b5 5ebd 5c56 113e
00000200: 17b8 153e 71f8 0e3e 0b40 d2bd 6025 07be
00000210: d5da 23be 2850 b43d 5a74 00bc 09a7 b3bd
00000220: 3d6e c1bd e926 ac3d 6f1f 0bbd d17a 013d
00000230: fa11 14be e4eb 2f3e b2bb 3abd 2aee a03d
00000240: 6b08 0abe 481a 083e 46b0 073e de50 bfbd
00000250: 168d 9bbd 28e9 d7bd c181 233e 3739 db3d
00000260: 302d 9b3d 4639 9c3d 3ed3 08be fe18 b6bd
00000270: 62b9 f0bd 0ce3 2abd 171b 16bd d8a3 d63d
00000280: c28f f23d f476 18be 995f 603b cc04 2bbe
00000290: e7d6 f0bd 676a b3bd 30d2 93bd 8c69 a9bd
000002a0: 5bf7 013e 0a7b 04be de87 723d 98c4 64bd
000002b0: 48d7 183d 6fff 1f3e 323a eb3d b3fc e03d
000002c0: fbf5 76bd cca6 49bd d5c3 a7bd 0f5b 5f3b
000002d0: 9ffd f63c 2da6 98bd aba7 023e 4b6e f4bd
000002e0: 92c8 233e d238 783d e6d5 76bd b65c aaba
000002f0: 4e92 a03c 1111 25bd 65e0 1b3e 2aff 963d
00000300: af8b 3cbd e384 d2bd a30b 9a3d 4817 0fbe
00000310: a6d6 7a3d f428 afbd ca82 243e 0842 8f3c
00000320: ae1a 753b 14bb 10bd 5df5 4dbd 0d71 983d
00000330: 5301 ef3d 24fe 193e 65e6 0ebd de0d 893d
00000340: 20f5 fd3d 61c8 243e 49fb 2dbe 9656 7fbc
00000350: 4fe9 e3bd e02f 0e3e fa60 2c3e 372a c3bd
00000360: eaf5 0c3d 1f8a c13d d9c6 f33d 0873 053e
00000370: 9505 66bd d5cc 783d c99d e5ba 9c99 4b3d
00000380: 8ad9 aabd 6b00 06bd 7f79 d53d 8192 0d3e
00000390: abe4 0bbe 9157 f43d 1218 fcba deda ad3d
000003a0: e1dc b13d 340d 3d3d 5a97 cd3d 6eff 933d
000003b0: 7a3c e6bc 28fb 8d3c 9a91 15be d73d 193d
000003c0: 5482 5f3d d0cf c23d d420 a83d 2c39 113e
000003d0: 1a99 d03d 2134 eebd 31fb febc dee5 e03d
000003e0: a11c ef3d 6be7 eebd 1cdd 68bd bd1a 01be
000003f0: b16b b7bd c36b ffbd 1b81 473d 57ed df3c
-0.12415456 0.01135286 -0.15476486 0.060003866 0.03373146 0.14112386 0.15788527 0.056668423
-0.062845156 -0.04835379 0.10535979 0.08349605 0.009447314 -0.12190029 -0.093460016 0.021455567
0.056723397 0.10896862 0.1095869 0.11883018 0.0051899017 0.10889239 0.06719302 0.15988785
0.102978155 0.00283002 0.051605668 -0.045317713 -0.14855912 0.06926774 0.15135923 0.07333212
0.006653265 -0.14957094 -0.14544879 0.06770131 0.05706213 0.1069098 0.09858657 -0.013907222
-0.15120587 0.07816172 -0.13524504 0.035763208 -0.010275776 0.08916754 0.15652366 -0.0060329195
0.09206499 0.006892592 0.09475234 -0.06952189 -0.15972035 -0.07482669 0.019584846 0.08048734
0.11238854 0.0030966399 0.075205214 -0.002155104 0.1491249 0.055759404 0.013946497 -0.017727936
0.051122747 -0.03846101 0.162097 0.09410513 -0.058650948 0.06928708 -0.07989689 -0.15384121
-0.16064432 -0.16281049 -0.07429993 -0.071764335 -0.03830361 0.15933958 0.01617824 0.084114045
0.05452773 0.052200265 -0.008914453 0.02586626 0.1621646 0.12992543 -0.013174169 0.06389033
0.078307055 0.103510804 0.12037321 -0.078811176 0.063022465 0.009294184 0.08555231 -0.04417123
0.11625949 -0.11767362 0.10246396 0.060100347 0.09947593 0.010872249 -0.08527139 0.00437255
0.098113365 0.050252583 -0.15237592 -0.1465773 0.18036503 -0.102673344 -0.037240535 -0.116346136
0.06531131 -0.14292979 0.1173042 -0.11391209 -0.17105375 -0.030923324 0.045395553 -0.08195944
0.06591883 -0.16244039 0.1437891 -0.14845425 0.04297615 -0.021276472 -0.054372624 0.141931
0.14621006 0.1396196 -0.102661215 -0.13197851 -0.16001447 0.08804351 -0.00784024 -0.08772094
-0.094448544 0.08405859 -0.033965524 0.031611267 -0.14459983 0.17179829 -0.045589156 0.07857926
-0.13479774 0.13291276 0.13250837 -0.09341596 -0.075952694 -0.10542518 0.15967466 0.10704272
0.07576978 0.076281115 -0.13361832 -0.08891486 -0.11754109 -0.041720435 -0.03664693 0.104804695
0.11843826 -0.14889127 0.0034236668 -0.16701049 -0.11759739 -0.08760529 -0.072178245 -0.082720846
0.12692015 -0.1293756 0.059211604 -0.05585155 0.037314683 0.15624784 0.11485709 0.109856986
-0.06029318 -0.049231336 -0.08191649 0.0034081375 0.030150233 -0.074535705 0.12759273 -0.11935099
0.1599448 0.060601063 -0.060262583 -0.0012997601 0.019601014 -0.04029948 0.15222318 0.073728874
-0.04603165 -0.102792524 0.07521751 -0.13973725 0.06123986 -0.08552733 0.16065517 0.01748754
0.0037399936 -0.03533466 -0.050282825 0.07443438 0.116701744 0.15038353 -0.03488769 0.06692098
0.124002695 0.16092063 -0.16990389 -0.015584609 -0.111284845 0.1388545 0.16833869 -0.09529536
0.03441421 0.09450173 0.119031616 0.13032162 -0.056157667 0.060742218 -0.0017518337 0.04970704
-0.083422735 -0.032715242 0.10423564 0.13825418 -0.13661449 0.119307645 -0.0019233248 0.08489011
0.086847074 0.04615517 0.10038634 0.07226454 -0.02810501 0.017331675 -0.14606324 0.03741249
0.05456765 0.09512293 0.082093865 0.14181966 0.10185452 -0.116310365 -0.031125637 0.10981344
0.116753824 -0.11665233 -0.05685149 -0.12607856 -0.089560874 -0.12471726 0.04870711 0.027334852

lstm.bias_ih_l0 f4 [32]
00000000: f164 2d3e aa85 0ebe ad27 fabd df6a bcbd
00000010: e5ba 4b3d 52c0 013d 9e7d 18be 0888 be3d
00000020: 85e8 743d c1be 04bd 65db 063e cbd3 8e3d
00000030: 6b1e 193d b047 303d bf40 ce3d c1b1 24be
00000040: 16f4 c0bc 13e3 b03d ead2 3b3d dbed 39bd
00000050: 9ea7 2e3e 0759 8ebd 93e3 cfbc 379b c5bd
00000060: c936 873c a8ae 433c bba9 a7bd ec67 37bd
00000070: 1877 1dbe d34a 223d 3bc4 85bd 9a31 edbc
0.16933037 -0.13918176 -0.12214599 -0.092000715 0.049738783 0.03167755 -0.14891669 0.0930329
0.05979206 -0.03240848 0.1316963 0.0697399 0.037382524 0.043037117 0.10070943 -0.16083433
-0.02355389 0.08637061 0.04585544 -0.045392852 0.17056128 -0.06950574 -0.02537707 -0.096487455
0.016505616 0.011943497 -0.081866704 -0.044776842 -0.15377462 0.03962214 -0.065315686 -0.028954316

lstm.bias_hh_l0 f4 [32]
00000000: d5cc 53bd 37ac 6ebd 455d 9ebd 1cf9 7b3d
00000010: 0eae c13d 11d6 963d d8e7 19be 579b 013d
00000020: efb6 833d 6e05 0c3e 205a f83d 3e11 21be
00000030: 46fd 003e 96b5 97bd 235d f0bd 8145 25be
00000040: adad 273c c0cd 293d 3ad9 003e 1627 75bd
00000050: 187b 163c 71b3 2fbe bda1 2e3e c6ef df3d
00000060: 2c7b b4bd 8c64 40bd 48d6 823d f019 cd3c
00000070: 2eec a63d 2ac4 ac3d f740 1e3e 432c 0ebb
-0.051709015 -0.058269706 -0.077326335 0.061516866 0.094570264 0.07365049 -0.15029848 0.031642284
0.06431376 0.13673946 0.12126565 -0.15729234 0.12596616 -0.07407682 -0.117365144 -0.16139795
0.010234279 0.041455984 0.12582865 -0.05985173 0.009184621 -0.17158295 0.17053886 0.10934405
-0.08812556 -0.04697089 0.06388527 0.025036782 0.081505165 0.08435853 0.1545447 -0.0021693863

output.weight f4 [1, 1024]
00000000: 10dd 93bb bd79 413b edac 2f3c be45 773b
00000010: 6637 b13c 7d8b af3c 064e 113b f8de 903c
00000020: 68fb 433c e6d8 113c 3a1a c5bc f650 f239
00000030: d7bf c4bc 87d5 263c 84a8 6b3b d2b5 f93c
00000040: 9c10 553c 3acf 933c f77a 64ba d701 2cbb
00000050: c882 783b 5655 83ba fb52 6abc bd5f 0a3c
00000060: 65d0 a7bc 1a87 a9bc 66b5 c4bc 6882 873c
00000070: aa1d aa3c a652 a43c 05e0 993b 2e11 80bb
00000080: 5fae 043d e119 bc3c 5118 a03c 7ee1 d13c
00000090: 3245 c7ba bb7a ae3c fe99 b2bb c89a 88bb
000000a0: d1c1 083c a725 b03c c8bd 0c3c 4e28 58bc
000000b0: 9864 f33c fef3 c2bc 34c0 5abc 1f63 b73c
000000c0: e912 d83a 939c 963c 89e9 533a fb5f 33bc
000000d0: e63d 12bc 1ec7 4ebc 75c0 713c 59c5 39bb
000000e0: 8ca5 ea3c 3b58 0539 54d5 993c 06d6 603c
000000f0: ca0c db3c c1d6 e73b e7ff c53c cae5 5d3c
00000100: cfbd 923c bbd8 84bc 6955 16bc fef2 b1bc
00000110: deed e3bb 1894 8abb 193d 9f3c ffd4 fd3c
00000120: 7fa4 193c 137d 243c b450 1d3c 9c60 04bd
00000130: d9a8 383c 2374 0fbc c138 dc3c 1c60 913c
00000140: aedf 9cbc f422 113d 5de2 883c 1edf 003b
00000150: d44b 8dbc fb1a a93c 193f 63bc 5251 91bc
00000160: 9b63 363c aad4 fdbc cbd6 96bb 0a82 abba
00000170: 05b5 cc3c fee3 8cba 98fc 3c3c 7a64 2ebc
00000180: 84c2 093d 951c 9a3c 0c68 ebbc 727b c03b
00000190: e392 863c efbd 0a3c 98ed 11bd e000 92bc
000001a0: db5a b3bb dbfb d4bc 31d3 cb3b 7a14 95bb
000001b0: 8a72 293c 171e 9f3c 1043 a53b 5f68 9f3b
000001c0: 56b4 b33c 9152 9d3c d55d 09bb 563c 05bd
000001d0: 07ef 8c3b 05d6 6ebc 2e31 823c 6aff 0abd
000001e0: af40 d43c 66b7 d5bc 2a6f 083c 1a86 dabc
000001f0: d15b 9d3c b16d a43c 9c42 9f3c d120 9cbb
00000200: de93 ea3a dc18 753c 4a55 1b3c ae34 033d
00000210: ea5c 47ba 2774 673c b1e9 cebb 9023 163b
00000220: 8a52 e73c b663 e2bc dab7 543c 2a9b b4bc
00000230: 24de cf3c 48ad ac3c 837c 55bc 5a47 7b3b
00000240: f4fb c0bc e843 f73b 6dd4 b43b a5c7 963c
00000250: 47b8 51ba 1d70 aabc 0b3a dd3c f19a b5bc
00000260: 47fa 003c 191f 12bd bf0b 08bd 1c9c 8b3b
00000270: 5711 da3b 39f3 273d 6083 b13b f01d 323a
00000280: f121 443b f4ac 8abc db77 5bbc fb69 8abc
00000290: 99f6 d63c 5597 003d 1035 b13c b321 6e3c
000002a0: 603a 4e3c b06f d43c 24d9 87bc fceb 60bb
000002b0: facd e43c 2132 4abc 5837 e03c 232f 2a3c
000002c0: 48a5 60bc bbbe 0a3d 9ed5 013d eeef 12bd
000002d0: 21fa 893c ad7c 60ba ed44 80bc 3af1 0dbc
000002e0: 67fa 273c 275e dbbb 64c2 4a3b f2a1 363c
000002f0: afe1 60bb 90a4 8dbc 07e5 293c b05c cdba
00000300: d49b c73c c2e8 eebc 53cc 3c3c 86f0 c23c
00000310: 6519 8cbc fa37 5bbc 21df b43c 8538 a03c
00000320: 45f8 0b3d 1bbb a83c 1458 c93c 2826 1dbb
00000330: 1e59 44bc 7648 323c fc57 47bc 5cd9 e3b8
00000340: 560e 923c dd0b ff3c 69ed c0bb 3b08 d1bc
00000350: 8194 c0bb e337 07bd aab6 113c e34d 1fbd
00000360: f2db 623c 2d69 efba 9193 73bc c38a cabc
00000370: 0e49 75bb e95c 363c df29 9dbc 49c8 86ba
00000380: 3dc1 813a d842 5f3c 0a42 953b 4354 5b3c
00000390: cc0e 06bc ae4a debb 8930 ebbc c1df 85bc
000003a0: 3b9a b73c 3d15 acbc cbbb 0d3d 9040 0bbd
000003b0: 8bf9 e53c 4973 bb3c e7ae ba3c 6c81 34bc
000003c0: d8df 7b3c 0dc0 753c ab56 b7bc bccc 50bc
000003d0: a009 533c 265b 81bc 9737 bb3c f47e 223c
000003e0: 5de0 b1bc 2721 44bc 66e4 1ebc 06dc 8f3b
000003f0: b174 dd3c 46c7 d7bc 8138 803c 339d bd3c
-0.0045124367 0.0029522025 0.010722381 0.0037730779 0.021632861 0.021428818 0.002217175 0.017684445
0.011961795 0.00890181 -0.024060357 0.00046218158 -0.024017258 0.010182745 0.0035958597 0.030482206
0.013004448 0.01804315 -0.0008715833 -0.0026246214 0.0037919749 -0.0010019939 -0.014302011 0.008445677
-0.020485112 -0.020694304 -0.024012279 0.016541675 0.020766098 0.020058941 0.0046958947 -0.003908298
0.032392856 0.022961559 0.019542845 0.025620218 -0.0015203117 0.021298757 -0.005450486 -0.004168842
0.008346991 0.021502329 0.008590169 -0.013193203 0.029711053 -0.023797985 -0.013351489 0.022386132
0.0016485128 0.018385207 0.00080838107 -0.0109481765 -0.008925891 -0.012620715 0.014755358 -0.0028346388
0.028643392 0.00012716737 0.01877848 0.013722902 0.026739497 0.007075161 0.024169875 0.0135435555
0.017912773 -0.016216626 -0.009175637 -0.021722313 -0.006955846 -0.00422908 0.019438313 0.030985354
0.009377598 0.010039586 0.009601761 -0.032318696 0.011270725 -0.0087557165 0.026882531 0.017746024
-0.019149628 0.035433725 0.0167095 0.0019664238 -0.017248072 0.020642748 -0.013870024 -0.017738972
0.011132146 -0.030985195 -0.004603242 -0.0013085019 0.02498866 -0.0010749099 0.011534832 -0.010644073
0.03363277 0.018812457 -0.028736137 0.005874091 0.016427463 0.008468135 -0.035626978 -0.017822683
-0.0054734773 -0.025999 0.0062202443 -0.00454956 0.01034225 0.019423528 0.005043395 0.004864737
0.021936577 0.01920441 -0.002096047 -0.032528244 0.004300955 -0.014577393 0.015892591 -0.033934988
0.02590975 -0.026088428 0.008327285 -0.026675273 0.01920882 0.020071836 0.019440942 -0.004764654
0.0017896851 0.01495954 0.009480784 0.03203266 -0.0007605093 0.014126814 -0.0063144793 0.002290938
0.0282376 -0.027635437 0.012983287 -0.022046644 0.02537448 0.02107872 -0.013030174 0.003834209
-0.02355764 0.007545937 0.005518487 0.018405745 -0.0008000177 -0.020805413 0.027005216 -0.022168608
0.007872171 -0.03567419 -0.033214327 0.004260553 0.006654899 0.04100344 0.0054172724 0.0006794622
0.0029927457 -0.016928174 -0.013395275 -0.016896239 0.026240634 0.03139432 0.021631747 0.014534402
0.01258716 0.025932163 -0.016583033 -0.0034320345 0.027930249 -0.012341053 0.02737014 0.010387215
-0.013711281 0.0338733 0.03169786 -0.035873346 0.016842904 -0.00085635 -0.015657866 -0.00866347
0.010252572 -0.0066945734 0.003093862 0.011147009 -0.0034314205 -0.017290384 0.010369546 -0.0015667882
0.024366297 -0.029163722 0.011523324 0.023796331 -0.017101953 -0.013380045 0.022079052 0.0195582
0.034172315 0.020597031 0.024578132 -0.0023979042 -0.011984138 0.010881534 -0.012166973 -0.0001086469
0.017829102 0.031133587 -0.0058876765 -0.02551662 -0.005877078 -0.033012282 0.008893648 -0.038892638
0.013846384 -0.0018265598 -0.014866726 -0.02472437 -0.0037427577 0.01113055 -0.019185005 -0.0010283078
0.0009899508 0.013626777 0.0045549916 0.013386789 -0.008182239 -0.006783805 -0.028709667 -0.016342046
0.02241241 -0.021006221 0.03460292 -0.03399712 0.028073093 0.02288212 0.022788478 -0.011017185
0.015373193 0.014999402 -0.022380194 -0.012744125 0.012880713 -0.015790533 0.022853656 0.009917963
-0.02171343 -0.011970795 -0.009698009 0.0043902425 0.027033182 -0.026340138 0.015651943 0.023146247
